summary/CNN_MLP.onnx (onnx, 829208 bytes, 8 tensors)

conv1.weight f4 [16, 1, 3, 3]
00000000: 30ac 1abe eca1 c2bd 8293 1e3e 1082 bb3d
00000010: a09d 45bc becc 0c3e 8467 9a3d 5846 303d
00000020: a498 81be 4280 783e e257 3e3e cf5e 833e
00000030: 6cf4 f53d 6454 843d 0aaa 4e3e f224 503e
00000040: f2ed 4f3e 4070 a0be 4242 173e 405e 403d
00000050: 2fdf 953e a83d 7ebe 5688 56be 3e9d 85be
00000060: 2ec9 283e ac16 8bbe 2ea1 683e 78a6 a3be
00000070: c152 863e 4a3c 3b3e 0e5d 47be 8238 783e
00000080: a0e8 933d 34c7 97be 38eb 023e e25b 8ebe
00000090: 38f1 173d d871 7c3d f0dc f83d db5f 62be
000000a0: fadf 2d3e 9abd 99be ee22 4abe ebf2 7ebe
000000b0: 718a a23e 4b19 62be 4fd9 84be 4c96 85bd
000000c0: 4ea5 7b3e de5b 4d3e 6351 a23e 6035 96be
000000d0: 613e 8a3e d3c6 8f3e 1eb0 93be 4081 563d
000000e0: c687 eabd b7a6 8ebe fb07 6cbe cc59 e03d
000000f0: d072 cd3c 7cdf a1be e0cf 453c b601 463e
00000100: 7f44 91be 08a9 2a3d fc07 debd 567f e7bd
00000110: 6612 013e 294c a73e 28bd 1ebd 2099 733c
00000120: 8896 5cbd 608c 60bc 3e59 7ebe 683a 173d
00000130: 9ec0 3e3e 7213 7c3e a84b 7bbd f63d 77be
00000140: 6002 fe3d c871 343d 148a b93d 08e6 4ebe
00000150: aa0e 5a3e fbec 5ebe 064c dbbd 809b b0bc
00000160: 3da5 913e ce6e 093e e349 9ebe cab8 0d3e
00000170: 980a 533d ea5b 1e3e 6f4a 913e 4ec6 013e
00000180: d629 9fbe 8b24 a33e 6080 523d 3080 af3c
00000190: ec45 babd ae3b 253e 436d 15be 5022 78be
000001a0: 51c1 933e 228a 393e c334 93be 5e5e a3be
000001b0: 1eb4 623e ee5d 96be 308f debd 22fa 86be
000001c0: 1654 7abe 2402 a83d 4d3a 893e 3c21 a8be
000001d0: 339e a03e 983e 42be 802b 523b 98cf 2cbe
000001e0: 0a3d 3c3e f086 e03d 03e0 a6be ee9b 183e
000001f0: 3680 6d3e 4882 4ebe ed23 9d3e a883 3c3d
00000200: ce03 0fbe c67e 1cbe e012 113e b700 a93e
00000210: b36d 46be 9245 3c3e f41a 9bbe 0064 f63c
00000220: 16ab 493e 5558 a13e efcb 8bbe 08c8 303d
00000230: 8048 c1bd fdcb 993e 0bc5 a53e 5c8b f5bd
-0.15104747 -0.095035404 0.15485957 0.09155667 -0.0120615065 0.13749978 0.07539275 0.043035835
-0.25311768 0.24267676 0.18588212 0.2565827 0.120095104 0.06461409 0.20182052 0.20326594
0.20305613 -0.3133564 0.14771369 0.046964884 0.29271838 -0.24828207 -0.20950446 -0.2609653
0.16482994 -0.27165735 0.22717735 -0.31962943 0.2623501 0.18284717 -0.19469091 0.24240306
0.07222104 -0.29644167 0.12785041 -0.27804476 0.03709528 0.061632007 0.121515155 -0.22106878
0.16979972 -0.30027467 -0.19739887 -0.24897353 0.31746247 -0.22079961 -0.25947043 -0.065228075
0.24574777 0.20054576 0.31702718 -0.29337597 0.27000716 0.28081378 -0.28845304 0.052369356
-0.11451678 -0.27861568 -0.2304992 0.109546274 0.02507916 -0.31615818 0.012073487 0.1933659
-0.2837257 0.041665107 -0.10841367 -0.11303584 0.12604675 0.32675293 -0.038754612 0.014868051
-0.053854495 -0.013705343 -0.2483873 0.036920935 0.18628165 0.24616793 -0.06135145 -0.2414473
0.12402797 0.044053823 0.090595394 -0.20204937 0.21294656 -0.21770088 -0.1070786 -0.021558523
0.2844638 0.13421175 -0.30915746 0.13840023 0.051523775 0.1546475 0.283771 0.12673303
-0.31086606 0.31863818 0.05139196 0.02142343 -0.09095368 0.16136047 -0.14592461 -0.24231839
0.28858426 0.181191 -0.28751191 -0.31907934 0.22139022 -0.29368538 -0.108671546 -0.2636271
-0.24446139 0.08203533 0.26802292 -0.32837856 0.31370696 -0.1896919 0.0032069385 -0.16876066
0.1838266 0.10963237 -0.32592782 0.14903232 0.2319344 -0.20166886 0.30691472 0.046023995
-0.13966295 -0.15282735 0.14167356 0.33008358 -0.19377784 0.18385914 -0.30294 0.03007698
0.1969417 0.31512704 -0.27304026 0.043159515 -0.094376564 0.30038443 0.32376894 -0.11989471

conv1.bias f4 [16]
00000000: 00a8 9bba b9a7 833e 4b6d 1dbe 8acb 753e
00000010: 867e 073e b104 813e e0e0 10bd 4094 91bd
00000020: d0e4 1cbe c0ce e1bb 78cb 073d 58d4 55bd
00000030: a078 9abe 1846 213e a0f0 5d3d 7e86 7cbe
-0.001187563 0.257139 -0.15373723 0.24003425 0.13231859 0.25198892 -0.035370708 -0.071083546
-0.1532166 -0.0068911016 0.033153027 -0.05220446 -0.30170155 0.15749395 0.054184556 -0.2466068

conv2.weight f4 [32, 16, 3, 3]
00000000: a8bf 46bc 604c 893c b82a 373c abd4 2ebd
00000010: 60fa 4bbb 8cf6 abbc d2f8 1d3d 107a 69bd
00000020: 52dd 6b3d 2be9 9bbd 31a7 a63d 00ac 61bd
00000030: 7cc2 afbc bb21 913d a006 38bc 2e32 0ebd
00000040: 7cdf a8bd 2aae 193d 2adb 483d 64d0 ea3c
00000050: 74b0 cc3c f07e b23c b0d9 89bb fc63 82bd
00000060: a6ac 413d 0134 9b3d 54a4 e23c a9bf a63d
00000070: 6013 33bb c0c7 e4bc 40e6 f8bc e6e2 f4bc
00000080: 9351 3dbd 9a44 583d 20c6 13bd 53db a23d
00000090: c916 9a3d 3891 2f3c 90ad f1bb c01b b4bb
000000a0: 80b6 df3b 809e b9bc 7045 f83c 461c a1bd
000000b0: e82d 2c3c 2911 943d 264f 0b3d 5882 2e3c
000000c0: 4048 b23b 8c1b 8abc 400f c83b c801 113d
000000d0: 687a 33bd 9e8f 8dbd 1be5 04bd c3e6 9c3d
000000e0: f49d 933c eeda 433d c8b4 683c 6737 8dbd
000000f0: 666e 30bd e8b9 1b3c 7081 fdbb 3321 9f3d
00000100: 7e30 3d3d 13d8 9a3d 3656 1ebd 5a7c 89bd
00000110: 3eaf 76bd fbe6 6abd 8a5a 2f3d 8092 8e3b
00000120: 55d9 a43d e28c 593d a82c 213c 40d5 92ba
00000130: a8de 773c f9c6 943d b8e9 9ebd 838e 28bd
00000140: 2622 33bd 7afb 243d 120e 573d 625f 9cbd
00000150: e066 743b 4304 0fbd c42d 91bc 542c fb3c
00000160: f188 913d c85c 23bd aa7f a9bd cb1b 9abd
00000170: 706c b1bb 2898 143c 267a 21bd a69e 7c3d
00000180: ddb3 823d de3c 233d fcbc afbc 4406 93bc
00000190: fbfb 85bd 96d9 053d 20f4 5dbd 9846 31bd
000001a0: 60d4 5c3c 281c 053d 3676 54bd 838a 3dbd
000001b0: 940a a8bd c329 05bd 8020 db3b 4840 023c
000001c0: 4073 f73a 00e8 14b8 79f4 a53d 383d 72bd
000001d0: 2a00 343d 2a3e 713d 0c72 80bd e861 183d
000001e0: 0359 92bd eac4 013d baf1 453d cda3 9d3d
000001f0: 76af 41bd 6c2e 8cbc ce3e 2b3d 2815 2dbc
00000200: 003a cbbb c3b2 3bbd 4eae 5a3d 88f5 5e3c
00000210: ce4d 313d ba63 613d fef9 96bd 4cd5 f7bc
00000220: 223b 0d3d cc8f d63c 8b76 a53d 468a 37bd
00000230: 60ee 283d 7acf 763d 3035 90bb f633 e0bc
00000240: 1079 2fbd 5832 75bc 1870 66bd 5f4c 96bd
00000250: e8ce 52bc 9bb7 a0bd 10a0 bfbc 6804 69bc
00000260: 46fe 6abd 52da 3d3d 7691 64bd a85f 433c
00000270: 5c8e dcbc 465f 483d f0a1 f83c 28f1 6f3c
00000280: c38b 42bd ec6f ac3c e897 a9bd d0c3 83bb
00000290: 1856 6dbc 3071 a53c 5360 08bd bc96 fbbc
000002a0: f07d aabd 8e4f 7bbd a3b4 893d 17db 83bd
000002b0: 60ff 3ebd 8b34 6cbd 0454 81bc be73 123d
000002c0: 6ca6 d93c 56dd 4b3d c078 a03a 1b19 91bd
000002d0: b027 183d 8072 61ba c0f4 26bc a89d 163d
000002e0: 7a8a 463d 749c f93c 2cc1 92bc 38ad 513c
000002f0: fc1f fa3c 0a3e 83bd a02f 72bb 809f bbbc
00000300: 5683 193d cdaf 853d 6004 d7bc 20ce 7bbb
00000310: 20e0 e43c f871 32bd 4da0 9f3d 33e8 66bd
00000320: 933f 5cbd 3031 963b ab2e 8ebd d0b2 c4bb
00000330: 202a 9b3c 4a31 a6bd 3053 c63c 64a7 a5bd
00000340: b31e 07bd 085e 48bd 74c9 99bc 6e8d 183d
00000350: d05e a13c c606 15bd 8788 96bd a0ab 7e3b
00000360: 1f88 8cbd 640c 90bd 4459 a0bc a622 6ebd
00000370: 0947 893d be6c 0dbd 889e 103d 4a01 2d3d
00000380: 7f24 893d 48be 3cbc 66fd 0cbd ba9b a8bd
00000390: c03e ec3b abcb 06bd f711 a03d 3f59 953d
000003a0: 58e8 7b3c 3214 283d d155 893d bace 6a3d
000003b0: a0e6 25bd 3c0a 96bc 419a aa3d a05e 17bc
000003c0: fcde bf3c 5e5a 463d 00b6 42bd de45 1f3d
000003d0: eccc a33c f301 1cbd daf4 2f3d 5b9d 10bd
000003e0: 8057 3f3c 8b66 64bd 1861 20bd 840b ab3c
000003f0: 416d 9a3d 98e2 5bbc a604 ebbc 665f 43bd
-0.012130655 0.016760051 0.011179619 -0.042683285 -0.0031124577 -0.020991586 0.03856737 -0.057001173
0.057584114 -0.07612833 0.08137358 -0.055095673 -0.021455042 0.07086512 -0.011232048 -0.034715824
-0.08245751 0.03751961 0.049037136 0.028663822 0.024986483 0.021789044 -0.0042068586 -0.06366727
0.04728379 0.07578278 0.027666248 0.08142025 -0.002732478 -0.02792728 -0.03038323 -0.02989335
-0.046220373 0.0527998 -0.03607762 0.07951989 0.07523877 0.010715775 -0.0073754266 -0.005496472
0.0068271756 -0.022658587 0.030306548 -0.07866721 0.010508992 0.072298355 0.03401103 0.010651194
0.005440742 -0.016858838 0.0061053336 0.03540209 -0.043817908 -0.069121584 -0.032445055 0.07661202
0.018019654 0.04781621 0.014203258 -0.06895333 -0.043074034 0.009504773 -0.0077363774 0.07770004
0.046188824 0.07560744 -0.038656436 -0.06713171 -0.060225718 -0.057349186 0.042810954 0.0043509603
0.08049265 0.053112872 0.009837307 -0.001120247 0.015128769 0.072645135 -0.07759422 -0.041151535
-0.04373374 0.04027889 0.052503653 -0.0763538 0.0037292764 -0.034916174 -0.017722018 0.030660786
0.071061976 -0.039883405 -0.08276303 -0.07524832 -0.005414538 0.00906948 -0.03942313 0.061674736
0.063819624 0.03985297 -0.02145242 -0.017947324 -0.06542202 0.03267821 -0.054187894 -0.043280214
0.0134783685 0.032497555 -0.051870547 -0.046274673 -0.082051426 -0.03251053 0.006687224 0.007949896
0.0018878952 -3.5502017e-05 0.0810327 -0.059140414 0.04394547 0.058897175 -0.06271753 0.037202746
-0.07145884 0.031681933 0.04832623 0.07697258 -0.047286473 -0.01711198 0.041807942 -0.010564126
-0.0062019825 -0.045824777 0.053388886 0.013608344 0.04328709 0.055026747 -0.07371901 -0.030253075
0.03448022 0.026191615 0.08079251 -0.044809602 0.041242957 0.06025646 -0.0044008717 -0.027368527
-0.042840064 -0.014965616 -0.056259245 -0.073387854 -0.012866713 -0.0784752 -0.023391753 -0.014222242
-0.0573714 0.046350785 -0.055802785 0.011924662 -0.026923351 0.048918985 0.030350655 0.0146448985
-0.04749657 0.021049462 -0.08280927 -0.0040211454 -0.014485858 0.020195574 -0.033294987 -0.030711524
-0.08324802 -0.061355166 0.06723907 -0.064382724 -0.046630263 -0.057667296 -0.015787132 0.03575491
0.026568614 0.04977163 0.0012243018 -0.070848666 0.037147224 -0.00086001307 -0.010190189 0.036771446
0.048471905 0.03047011 -0.017914377 0.012797646 0.03053283 -0.064083174 -0.0036954656 -0.022903204
0.037478767 0.06527672 -0.026247203 -0.003842242 0.027938902 -0.04356572 0.07794247 -0.056373786
-0.053771567 0.0045835003 -0.06942495 -0.0060027614 0.018940985 -0.0811487 0.024209589 -0.08088568
-0.03298826 -0.0489178 -0.018772818 0.037244253 0.01969853 -0.036383413 -0.07350259 0.003885962
-0.068619005 -0.07033613 -0.019573815 -0.058138512 0.06703002 -0.034527533 0.035307437 0.042237557
0.06696414 -0.011519976 -0.034421347 -0.082328275 0.007209629 -0.032909077 0.078159265 0.07292413
0.015375219 0.041034885 0.06705821 0.057326056 -0.040503144 -0.018315427 0.08330203 -0.009238869
0.023421757 0.048426025 -0.04753685 0.03888499 0.019995175 -0.038087796 0.042958118 -0.035306316
0.0116785765 -0.055761855 -0.039155096 0.020879515 0.0754037 -0.013420723 -0.02868874 -0.0476984

conv2.bias f4 [32]
00000000: 4a9d 4c3d 8ad5 213d cd2c 903d 9950 a23d
00000010: 3ecb 26bd 48df 1abc ccd2 96bc a06e 1fbd
00000020: 3038 80bd d621 13bd 8078 213a 7870 a6bd
00000030: a652 73bd d853 3a3c 56cb 67bd 94fd bc3c
00000040: 2bca a23d b641 52bd 5851 47bc 825a 653d
00000050: 8422 f33c e5dd 8f3d 8065 b73c 88dd 1cbc
00000060: dca0 b0bc 333e 98bd deea 793d d020 57bd
00000070: 80c5 33bc 1055 22bd 3d70 813d 4083 e7bb
0.04995469 0.039510287 0.07039795 0.07925529 -0.04072117 -0.009452648 -0.018411063 -0.03892386
-0.06260717 -0.03592094 0.00061596185 -0.081269205 -0.05940499 0.011372529 -0.0565904 0.023070134
0.07948717 -0.051332198 -0.01216539 0.055994518 0.029679544 0.07024745 0.022387266 -0.009574302
-0.021561079 -0.074337386 0.061015002 -0.052521527 -0.010972381 -0.039631903 0.06320236 -0.0070652068

fc1.weight f4 [128, 1568]
00000000: e082 b3bb d068 973b f83d c4bb dc5d 86bb
00000010: 8048 5439 bcfd 17bc c87b ce3b 2c8e b13c
00000020: e335 b1bc 0225 66bc 2c51 113c a80e 73bc
00000030: 9cbe a5bc 29a2 bfbc a823 b0bc c4a2 ecbb
00000040: 90b1 e23a 40b2 923c acd0 89bc 65f5 64bc
00000050: 4d10 c2bc 5420 6c3c cb58 a9bc 182c b4bc
00000060: b809 38bc a05f e9ba f89b 3a3c a591 cabc
00000070: 9bca 50bc 1828 2a3c 32a4 8cbc ace4 9e3c
00000080: 423f ca3c 82d1 c53c 8066 20b9 2034 8dba
00000090: cea3 ad3c 6649 7fbc 3c7e 7f3c 6a2a 7ebc
000000a0: e0a2 8bbc c0f3 40bb f0ed 543b 60d9 303b
000000b0: 0428 bd3c 90d8 4fbc 0001 413c f1e1 4fbc
000000c0: 144b cbbc 7812 bbbc 1ce2 7d3c dad3 8b3c
000000d0: 93c6 83bc 5eb0 a73c 51c8 a4bc 2afd a03c
000000e0: 0450 0dbc fc7f 203c 880c 51bc 15a4 a8bc
000000f0: 20ef c9bc 5a47 a33c 2498 203c 2f7a 26bc
00000100: 80e9 b9b9 3493 80bc 7454 553c 7859 b73c
00000110: e91f 41bc ae69 943c 60ee 39ba e6e8 bb3c
00000120: e091 423b 8054 4939 8e44 a43c 1071 8c3c
00000130: 4a7f 983c 8b31 9dbc a4c7 b23c aef5 833c
00000140: 201a 3b3c 5493 513c ce63 983c 6c58 b33c
00000150: ea90 50bc 20c4 a53b 89f4 abbc 2c69 893b
00000160: dc74 c53c 8ba2 79bc 288c 60bc 748b 103c
00000170: 900e f93b bdb2 b6bc 9e28 9a3c 5f21 c6bc
00000180: 2c23 ad3b 20bd b4ba 00b3 6a39 28ce 853c
00000190: 2c51 9f3c 54b5 cdbc 14bf a2bc bc91 833c
000001a0: 03f4 c2bc 98e8 22bb 84e9 a7bc 54b4 bfbc
000001b0: b4c8 983b 80a9 ea3a a2dc 98bc 5632 8a3c
000001c0: b85c 143b 68f7 f53b f0a3 a53c d824 923b
000001d0: be0d 8a3c c383 cbbc 4154 32bc 58d8 15bc
000001e0: f634 b6bc 9866 60bc 22a0 a6bc c85e 4abb
000001f0: e091 303c 6fdf 47bc d860 a73c 50e9 8a3c
00000200: 086b 5f3c 808a 8d39 f4e2 c33b 8885 e53b
00000210: c8be c53b 1d15 96bc 84d0 a53c 00ba 39ba
00000220: 6e4a 8ebc 24b4 32bc 0f3b 47bc 340d 253c
00000230: e8f9 ad3c c215 9e3c 5886 2a3b 2abd 1dbc
00000240: 683e c43c 200a 30bb 2293 8c3c 0a9d 00bc
00000250: 9c00 84bc f090 be3c 6016 b7bb e0aa 1bba
00000260: 7cbf 753c 1469 973c 6b8f babc c879 a33b
00000270: 6a13 a43c 705b 1cbc 15b0 3bbc 9efa 9c3c
00000280: a6cd c53c 0879 833c 7c35 203c 7b3c 60bc
00000290: 7c6f 593c be2a a43c a833 c6bb cd73 c2bc
000002a0: a02d 773a 1ca3 ac3b 0c5b 083c 10a4 e63b
000002b0: 16eb 2abc 112d 71bc 72c9 abbc 9360 8fbc
000002c0: 3daf aebc 209b 113b 2e6e 17bc a85b e83b
000002d0: 9842 f73b 9c43 d7bb e883 093c 9e9c c63c
000002e0: 17b4 98bc 09be acbc 4a80 b8bc 40df c63c
000002f0: 24b7 483c f85c 11bb 4080 acbc 28f5 b5bc
00000300: 27e2 92bc f8c8 f3bb c479 763c 7b13 adbc
00000310: 08a7 98bc 181d 15bb c438 593c 989d 9fbc
00000320: 2af0 bfbc 70d5 5e3b 68e4 89bc 943d 863c
00000330: 1750 a2bc 24b7 7f3c 23d2 72bc 40d7 e63b
00000340: 0047 2d3c 406a 5f3c 00a0 cbb9 185d cb3b
00000350: 907b 62bc f476 abbc f864 bf3c ee66 2bbc
00000360: 78f0 fc3b 084f 98bc 5095 573c 90fe c83a
00000370: d67a 5ebc 35b7 21bc c880 1d3c 70a6 f03b
00000380: c0b9 573b 4ec6 873c 4c5a 973b 3790 babc
00000390: 109d f33b 3087 bb3a bfa0 4abc e1f9 b6bc
000003a0: 2809 933b cc20 6d3c 094b 5cbc 8464 9f3c
000003b0: a029 c7bb e98c 51bc b0d6 c63a 20c1 573c
000003c0: 0cf2 0f3c 20f4 1e3c 9941 41bc 5651 afbc
000003d0: 6064 6c3c 3c63 d6bb 725d 9c3c a475 123c
000003e0: 4305 abbc c7a4 a5bc 004b bbbc c00e c13c
000003f0: 85d6 a8bc 9894 d33b f191 97bc 49a4 8dbc
-0.005478248 0.004620649 -0.0059888326 -0.0041005444 0.00020244904 -0.009276804 0.006301377 0.021674238
-0.02163214 -0.014046909 0.008869451 -0.014835037 -0.020232491 -0.023392754 -0.021501377 -0.0072215516
0.0017295349 0.017907262 -0.016823135 -0.013974522 -0.023689413 0.0144120045 -0.020672223 -0.021993682
-0.011232786 -0.0017804988 0.011389725 -0.024727652 -0.012743617 0.010385536 -0.017168138 0.019396149
0.024688367 0.024147753 -0.00015296973 -0.0010772981 0.021196272 -0.015581464 0.015594061 -0.015513042
-0.017045438 -0.0029442161 0.0032490455 0.0026985034 0.02309037 -0.01268591 0.011780024 -0.012688146
-0.024816073 -0.022835955 0.015495803 0.017068792 -0.016085899 0.02046984 -0.02011505 0.019651968
-0.008625034 0.009796139 -0.012759335 -0.020586053 -0.024650156 0.019931484 0.009801898 -0.010160967
-0.0003545992 -0.015695192 0.0130206235 0.02238153 -0.011787393 0.018116798 -0.00070927106 0.022938203
0.0029689 0.00019200332 0.02005222 0.017143756 0.018615384 -0.019188663 0.021823712 0.01610836
0.011419803 0.012791473 0.018602278 0.021892749 -0.012729863 0.0050587803 -0.020990627 0.0041934457
0.024103574 -0.015236507 -0.013705291 0.008822311 0.007600613 -0.022302026 0.018818196 -0.024185834
0.005283734 -0.0013789274 0.00022382662 0.016333655 0.019447885 -0.025110878 -0.019866504 0.016060703
-0.023797994 -0.0024857875 -0.020497091 -0.023401417 0.0046625976 0.0017903298 -0.018659893 0.016869705
0.0022638272 0.0075062998 0.020219773 0.0044599585 0.016852256 -0.024843102 -0.0108843455 -0.009145819
-0.02224205 -0.013696335 -0.02034003 -0.0030879248 0.010776967 -0.012199267 0.02043192 0.016956955
0.013636358 0.00026996806 0.0059779827 0.0070044436 0.006034706 -0.018320614 0.02024103 -0.0007084906
-0.017369475 -0.010907207 -0.012160077 0.010073949 0.021237329 0.019297484 0.0026020017 -0.00962762
0.023955539 -0.0026861504 0.017160002 -0.007849941 -0.016113572 0.023262471 -0.005587384 -0.0005938243
0.014999267 0.018482722 -0.022773465 0.0049888827 0.020028789 -0.009543285 -0.011455555 0.019162472
0.024145912 0.016048923 0.009778377 -0.013686295 0.013271209 0.020039912 -0.0060486384 -0.023736859
0.0009429101 0.0052684676 0.0083224885 0.0070386007 -0.010432025 -0.014720217 -0.02097008 -0.017502105
-0.021323794 0.0022217706 -0.0092425775 0.0070910044 0.0075457804 -0.006569339 0.008393265 0.024244603
-0.018640561 -0.02108671 -0.02252211 0.024276376 0.012250695 -0.0022180658 -0.021057248 -0.022211626
-0.017930103 -0.007439729 0.01504368 -0.021127453 -0.018634334 -0.0022752937 0.013258163 -0.019484326
-0.023429949 0.003400173 -0.016832545 0.016386785 -0.01981358 0.015607629 -0.014820608 0.007044703
0.01057601 0.013636172 -0.00038838387 0.006206166 -0.013823405 -0.020930745 0.023363575 -0.010461552
0.007719096 -0.018592373 0.0131581575 0.0015334655 -0.013579091 -0.00987034 0.009613223 0.0073440596
0.0032917112 0.016574051 0.0046189185 -0.022773845 0.007434495 0.0014307257 -0.012367426 -0.022335948
0.0044871755 0.014473151 -0.013445624 0.01945711 -0.00607796 -0.012789943 0.0015170183 0.013168603
0.008785736 0.009701759 -0.011795425 -0.021401089 0.014428228 -0.0065425914 0.019087527 0.0089391805
-0.020876532 -0.020220174 -0.022862911 0.023566604 -0.020610103 0.0064569227 -0.018502207 -0.017290251

fc1.bias f4 [128]
00000000: c8ca a2bb 5cf4 98bc e80b ab3c 4c1e 3fbc
00000010: 724a 853c 88c8 2b3c 8862 883b 5056 633b
00000020: 2445 a23b b840 e8bb f099 df3a 68c9 e4bb
00000030: 08f3 143b 14fc a43c d051 8b3c fd54 ccbc
00000040: b048 fcbb b816 133c f8f8 2c3c b020 20bb
00000050: a0b9 713c c310 21bc 40f7 c83c f1b7 8ebc
00000060: 9748 b3bc 3493 7fbc d821 693c 1870 183c
00000070: 8c6c b0bb d0a5 afba 62e1 aa3c a857 4e3c
00000080: 66eb 38bc bccc 543c 784c 973c 54cd a5bc
00000090: d0dd ad3c 94a7 bb3c e845 d83b 204f cf3b
000000a0: a8b9 e1bb 2c77 29bc 3667 a23c ac05 633c
000000b0: 909c babc e411 afbc 98f5 6e3c 0086 8bba
000000c0: e4de 843c 008e 7c3c 30db 8a3a c576 a9bc
000000d0: 7a48 04bc 9ed3 9f3c 4a61 3bbc e860 1cbb
000000e0: ba64 afbc 909e d7ba d0d6 1d3b 0008 eb39
000000f0: 1c27 9cbc 606c 54ba 6a37 99bc bc40 a43b
00000100: e001 8c3b 50e9 f6bb 80f6 c1bb 968c 90bc
00000110: 7170 a3bc 80cf 80bb a35c b9bc 5013 b53a
00000120: bcd1 b7bc a05e 393c e018 053c e848 a6bc
00000130: 7004 3b3c ec51 efbb 38f1 d0bb 6009 57bc
00000140: c8f5 f73b 8ccb b1bc a05c 7e3a 40bf bf39
00000150: f857 e43b 100b f93b e49f 5e3c d8c5 cb3b
00000160: a978 86bc 6824 4c3b 1e91 a63c 7283 b83c
00000170: 46eb 873c 8ac8 4ebc 901f 01bb 9cb2 573c
00000180: f632 cabc 5433 fbbb a04c 15bb 2033 433c
00000190: 04f2 3d3c 08c0 623c c03f 983a 309d 8abc
000001a0: 40c5 8a3c aa69 84bc 8c77 ab3b 8481 bb3b
000001b0: 5c7f f9bb 4891 aabb 14f8 00bc 80f3 353c
000001c0: f873 703c 3770 cbbc 0e4a 873c d000 b83c
000001d0: 8070 b53c 9a4d 83bc f40d 8ebb 8eee 983c
000001e0: 4cf0 033c 02ba c33c 981a 1dbc 383a bd3b
000001f0: 37bc 73bc b27f cd3c c86f 543c cc0b 613c
-0.004968021 -0.018671207 0.0208797 -0.011664938 0.01627085 0.010484822 0.0041621365 0.0034688897
0.00495209 -0.007087793 0.0017059427 -0.0069820173 0.0022727866 0.020139731 0.017006785 -0.02494287
-0.0076990947 0.008977585 0.010557406 -0.0024433546 0.014753729 -0.009830656 0.02453196 -0.017421694
-0.0218852 -0.015599061 0.01422926 0.009304069 -0.0053840335 -0.0013400856 0.020859424 0.012594141
-0.011286592 0.012988266 0.01846908 -0.02023951 0.021223933 0.022907056 0.0066001303 0.006326571
-0.006888587 -0.010343354 0.019824605 0.013856333 -0.022779733 -0.021370836 0.014584921 -0.0010644794
0.016219564 0.015414715 0.0010593887 -0.020686517 -0.00807392 0.019510087 -0.01143677 -0.0023861472
-0.021410335 -0.0016450454 0.0024084337 0.00044828653 -0.019061618 -0.00081033073 -0.018703181 0.0050125998
0.0042726845 -0.0075351372 -0.0059192777 -0.017645162 -0.019951077 -0.003930986 -0.02262718 0.001381496
-0.022438876 0.011314064 0.008123606 -0.020298436 0.011414632 -0.007303467 -0.0063764118 -0.013124794
0.007567141 -0.021703504 0.0009703133 0.0003657285 0.0069684945 0.0076001957 0.013587926 0.006218653
-0.016414957 0.003114963 0.02033287 0.022523616 0.01659168 -0.012621054 -0.001970265 0.013165142
-0.024682503 -0.007666031 -0.0022781268 0.011914045 0.011593346 0.013839729 0.0011615679 -0.016920656
0.01693976 -0.016163666 0.005232757 0.0057222266 -0.0076140594 -0.005205307 -0.007871646 0.011105418
0.014676087 -0.024833782 0.016514804 0.022461325 0.02214837 -0.016028214 -0.0043351594 0.01866844
0.008052897 0.023892406 -0.00958886 0.0057747625 -0.014876417 0.025085304 0.012966104 0.013735723

fc2.weight f4 [10, 128]
00000000: dbd6 77bd 5585 8b3d 8c8e c13c 9ee5 62bd
00000010: 58cb a7bc 5c4d c3bc ed1d 4bbd 0abd 493d
00000020: bb70 7ebd d345 12bd 8038 b9bc 8bbf ac3d
00000030: 70a1 803c a3d6 42bd b4ae b9bc 8e65 203d
00000040: 28ec 143d de6a 163d 2040 ef3c 4861 39bd
00000050: b0c9 bfbc c284 a0bd a90a 953d b8fa 42bc
00000060: 7591 803d ff6b afbd 36d8 663d b78a ae3d
00000070: 09cc adbd c887 04bc 6885 64bc c0db 833b
00000080: 10cb be3b 7889 dabc 0c53 8fbd 005f 49bd
00000090: fdbb a53d 085e 0c3d 4225 54bd 3d6a 80bd
000000a0: 457a 983d f7a5 9ebd 0cf1 50bd a833 38bc
000000b0: 8840 6abc 6bf8 41bd f835 c1bc b413 93bd
000000c0: f796 1ebd d226 6fbd fe95 263d 7128 993d
000000d0: 1a5b 393d da9d 7f3d 1e20 5c3d f2a0 5c3d
000000e0: fc93 4ebd 92db 69bd fcd3 bd3c 8a02 4b3d
000000f0: b304 9fbd c0bb 753c 419f b03d a916 5bbd
00000100: e671 383d 5454 fa3c 71a3 35bd 220b 77bd
00000110: bebf 6b3d 2035 083c 74c7 a5bd f257 8abd
00000120: 40b0 e23a 1c66 bf3c e047 f2bb 4075 423b
00000130: 3b24 acbd 80d3 d93b ca49 23bd 4d8c 0cbd
00000140: 0076 5539 0f01 803d 830e b03d 7069 be3b
00000150: 38e8 8f3c 6254 633d 8b73 823d b474 b4bc
00000160: 289e 55bd 28c3 493c 1a6b 14bd 65e7 9ebd
00000170: a492 e73c 93ce 9e3d 8833 ebbc acfe 003d
00000180: da4c 033d 85c3 a73d 620b 6e3d c9c2 ae3d
00000190: 00d2 7fba e462 64bd dec5 eebc d0af 05bd
000001a0: 6aa5 71bd 03f5 973d 3825 81bd f354 12bd
000001b0: 96a8 1c3d 5412 91bc 0059 cf3b 4aa3 023d
000001c0: 8c5d 0d3d b0c4 2fbc 8a2d 623d 9e30 d6bc
000001d0: cf2a 8c3d 8bca 913d 04db b3bd 446e e83c
000001e0: c74f 68bd c205 363d e47e 86bd 18fe 1fbc
000001f0: caac 743d 97b4 873d df22 963d f178 ae3d
00000200: 06fa 7b3d fa96 a9bd e619 6cbd 630e 00bd
00000210: 2014 643b 00df e2ba 9fc5 79bd e009 cfbc
00000220: e8da 893c 6275 4d3d 3a04 693d 1840 9ebc
00000230: 1069 003d d0d7 9fbb 63de 7cbd 50d2 a03c
00000240: a865 61bd 1c0a c93c 6c43 9cbc c795 69bd
00000250: 96bc 8fbd 3c63 80bd 16f3 1a3d 52a3 553d
00000260: 5399 b0bd 4cef abbc 22a0 12bd ccca 37bd
00000270: 52fe 6fbd a0ac 6d3c 0e10 86bd f441 003d
00000280: 6821 0dbc 8829 bbbc b0d4 3fbd d2ef 773d
00000290: f1b0 923d 20c3 abbd 88c8 9cbd 9218 233d
000002a0: 8cee 89bc 36fe 6dbd 20dd 7c3b 17b0 a93d
000002b0: a0dd 56bb a1df a3bd 0d5f 92bd 7e54 1dbd
000002c0: efaa 98bd 8121 883d 2a41 8cbd b2dd 363d
000002d0: dce8 8e3c 582e fa3c 37e8 823d 0077 943a
000002e0: d0cf 4cbd af87 2bbd 70aa 98bb bb4c 84bd
000002f0: eae9 1d3d 319d 8a3d 1ae1 f9bc a328 91bd
00000300: 483b 443c 1958 993d 7370 29bd 762f 503d
00000310: d04f 503c 3e60 09bd 40f1 a8bc 2fce 0ebd
00000320: 20a3 01bb a806 ff3c 57df 38bd 1484 5cbd
00000330: a063 92bc 7f11 883d a20b 05bd e40d 06bd
00000340: f7c0 7abd e0f0 093d cbb2 ad3d 68de 6a3c
00000350: 9c8c 8a3c 7ada 2b3d ded0 4c3d 5022 91bb
00000360: b05f 4a3c fe26 0f3d 540d 00bd e94c af3d
00000370: 5038 e4bb bfc0 873d 51c3 80bd a8ed d73c
00000380: 2a64 46bd ccc3 ccbc 7037 94bc 37f9 ae3d
00000390: 3e2a 193d 1276 543d bea4 223d c26d a9bd
000003a0: d2ea 483d 5b1f 843d 652d a83d d6c3 7e3d
000003b0: 90a4 c0bc 1d3e 8abd 9eba 9bbd 3691 5b3d
000003c0: c89a 5dbc 68a2 203c 180e ccbc 80a5 d43b
000003d0: 3e37 743d b9b2 aabd a846 b23c 0fa0 b13d
000003e0: 3dc6 a63d aa11 483d 806a 133a 3486 23bd
000003f0: a800 063d a684 003d 1aa1 15bd aad0 a3bd
-0.060507637 0.068125404 0.023627542 -0.05539476 -0.020482704 -0.023840599 -0.049589086 0.049252547
-0.062119227 -0.03571112 -0.02260995 0.084349714 0.01570198 -0.047567975 -0.022666313 0.03915935
0.03635803 0.03672301 0.029205382 -0.04525879 -0.023411602 -0.078378215 0.07277424 -0.011900596
0.06277744 -0.085655205 0.05635854 0.085225515 -0.08486182 -0.008089013 -0.013947822 0.004023999
0.005822547 -0.026676878 -0.06998262 -0.049162865 0.080924965 0.034269363 -0.051793344 -0.06270263
0.07445196 -0.07746499 -0.05101113 -0.011242785 -0.014297612 -0.04735605 -0.023585305 -0.071814924
-0.03871819 -0.05838663 0.040670387 0.07478417 0.045252897 0.0624064 0.053741567 0.053864427
-0.050434098 -0.057094164 0.023172371 0.04956297 -0.07764568 0.014998376 0.08624125 -0.053488407
0.045030497 0.030557789 -0.044345323 -0.06031335 0.057555906 0.008313447 -0.08094683 -0.067550555
0.0017294958 0.02336412 -0.007393822 0.0029671937 -0.08405348 0.006647527 -0.039865293 -0.03431349
0.00020357221 0.06250202 0.08596518 0.005810909 0.017566785 0.055500396 0.06369694 -0.022028305
-0.052152783 0.012314595 -0.036234953 -0.07758979 0.028268166 0.07754245 -0.028711095 0.031492874
0.032055713 0.08191589 0.058116324 0.08533246 -0.00097587705 -0.055758372 -0.029147085 -0.03263837
-0.05899564 0.07419779 -0.06305927 -0.035725545 0.038246714 -0.017708935 0.0063277483 0.031894006
0.03451304 -0.010728046 0.05521921 -0.02614623 0.068441026 0.0711871 -0.08782008 0.028372891
-0.056716707 0.044439085 -0.06567171 -0.0097651705 0.059735097 0.06626242 0.0733087 0.085191615
0.061517738 -0.082807496 -0.057641886 -0.03126372 0.0034802034 -0.0017308891 -0.06097948 -0.025273263
0.016828015 0.050160773 0.056888796 -0.019317672 0.031350195 -0.004878022 -0.061735522 0.019631535
-0.055028588 0.024540953 -0.019075118 -0.057027604 -0.07018392 -0.062689275 0.03782948 0.052157708
-0.08622994 -0.02098813 -0.035797246 -0.044871137 -0.058592148 0.014506489 -0.06546031 0.031312898
-0.008613922 -0.022846952 -0.046833694 0.060531445 0.07162655 -0.083868265 -0.07655436 0.039818354
-0.01683738 -0.058103763 0.003858395 0.082855396 -0.0032785907 -0.08001638 -0.07147036 -0.038410656
-0.07454478 0.06647015 -0.068483666 0.04464502 0.01744502 0.030539677 0.06391948 0.0011326969
-0.050002873 -0.041877445 -0.0046589896 -0.06459948 0.038553156 0.06768263 -0.030502845 -0.07087829
0.011977024 0.074875064 -0.041367006 0.050826512 0.012714341 -0.03353905 -0.02062285 -0.0348646
-0.0019781068 0.031131104 -0.04513487 -0.053836897 -0.01786977 0.06643962 -0.032481797 -0.03272809
-0.061219182 0.033676982 0.08481368 0.014335252 0.01691275 0.041956402 0.05000388 -0.004429139
0.012351915 0.034949295 -0.03126271 0.08559591 -0.006964721 0.0662856 -0.06287254 0.02635844
-0.048435368 -0.024995707 -0.01809284 0.08543628 0.0373938 0.051870413 0.03970789 -0.08272888
0.049052067 0.06451293 0.08211783 0.062198482 -0.02351597 -0.067501284 -0.07603954 0.05360528
-0.013525672 0.009804346 -0.024909064 0.0064894557 0.059622996 -0.0833487 0.021762207 0.08673107
0.0814328 0.04884497 0.0005623475 -0.039922908 0.03271547 0.031376503 -0.03653059 -0.07998784

fc2.bias f4 [10]
00000000: 2fea 8f3d c69e 0a3d a833 0abc 8a7b a2bd
00000010: 134a 813d dad6 0f3d cb54 9d3d e004 e6bb
00000020: 884b 5abd d6ef 90bd
0.07027089 0.033842824 -0.008435167 -0.079337195 0.06312957 0.035117008 0.076821886 -0.007019624
-0.05329469 -0.07076995
