summary/CNN_SiLUKAN.onnx (onnx, 876691 bytes, 10 tensors)

conv1.weight f4 [16, 1, 3, 3]
0	0x3e54327a	0.2072238
1	0x3e63d92e	0.22250816
2	0xbd8759cc	-0.06608924
3	0x3e6da842	0.23208717
4	0x3d9dc8a0	0.07704282
5	0x3e1b6078	0.15173519
6	0xbe49e98b	-0.19717996
7	0x3e226000	0.15856934
8	0xbe771f33	-0.24132995
9	0x3e987bb7	0.29781887
10	0xbe3737a3	-0.17892317
11	0x3e72030a	0.23633972
12	0xbdf9bdf0	-0.12194431
13	0x3d557d58	0.05212149
14	0xbe930092	-0.28711373
15	0x3ea9f54b	0.33194956
16	0xbddd4ab6	-0.108052656
17	0x3e5d8582	0.2163296
18	0xbdaf3920	-0.085558176
19	0x3e31ddd2	0.17369774
20	0x3d568c08	0.052379638
21	0x3e58cf1e	0.21172759
22	0x3e30556a	0.17220083
23	0xbdd769ec	-0.1051825
24	0xbea9b772	-0.3314777
25	0x3e2b0e3e	0.16704652
26	0x3d535480	0.051594257
27	0xbe3d9af8	-0.18516147
28	0xbe4f3c1e	-0.20237777
29	0xbd1927a0	-0.037391305
30	0xbbc56c00	-0.0060248375
31	0x3c09ec80	0.008418202
32	0x3e94a895	0.29034868
33	0x3ca28890	0.019840509
34	0x3e82953f	0.2550449
35	0x3e3c9e1e	0.18419692
36	0x3e322422	0.17396596
37	0xbd6fdf98	-0.058562845
38	0x3e51b89e	0.20480582
39	0xbd79b578	-0.060964078
40	0xbe91527f	-0.28383252
41	0xbe605e2b	-0.21910922
42	0xbdede2d6	-0.11615531
43	0x3d751d38	0.05984232
44	0xbe391033	-0.18072586
45	0x3db21a70	0.08696449
46	0xbe8e8c33	-0.2784134
47	0xbd2e6918	-0.042580694
48	0x3d8428e0	0.06453109
49	0x3df4a844	0.119461566
50	0xbe10eb78	-0.14152324
51	0x3da32524	0.079660684
52	0x3e312662	0.17299798
53	0xbe934aa4	-0.28767884
54	0xbe3951a6	-0.18097553
55	0x3e57dd12	0.21080425
56	0x3e0d504e	0.13800165
57	0xbd4ef5d8	-0.050527424
58	0xbd998920	-0.07496858
59	0x3e8c27ed	0.2737421
60	0x3d4d63c8	0.050143987
61	0x3abc9300	0.0014387071
62	0xbe2c3dfe	-0.16820523
63	0xbea17304	-0.31533062
64	0x3e382bc6	0.17985448
65	0x3e738cba	0.23784152
66	0xbea3f35c	-0.32021606
67	0xbe42fefe	-0.19042584
68	0x3ea11131	0.31458429
69	0xbd9c2c94	-0.0762569
70	0xbea9e2ef	-0.3318095
71	0xbe89b86a	-0.2689851
72	0x3dacc1b0	0.084353805
73	0x3ea84177	0.32862446
74	0x3d70d720	0.05879891
75	0x3e75b5fe	0.23995206
76	0x3dfab85c	0.12242195
77	0x3e9beab7	0.3045251
78	0xbe2b7006	-0.16741952
79	0xbe121eeb	-0.14269607
80	0x3e9805d9	0.2969196
81	0x3ca4c030	0.020111173
82	0x3d958fbc	0.07302806
83	0x3d546800	0.051856995
84	0xbe56a706	-0.20962152
85	0xbe97ae30	-0.29625082
86	0xbe87f28f	-0.26552245
87	0xbdb45aa6	-0.08806352
88	0x3e9d947d	0.3077735
89	0xbe577120	-0.21039248
90	0x3e23970e	0.15975592
91	0xbe83c688	-0.25737405
92	0x3ea1027d	0.3144721
93	0xbd058528	-0.03259769
94	0xbe68bbd3	-0.22727899
95	0x3bb2b440	0.0054536164
96	0xbe904897	-0.28180382
97	0x3e3a82ca	0.18213955
98	0x3daafdac	0.08349165
99	0x3cb5a350	0.0221726
100	0x3e5f30c2	0.21795943
101	0xbb5aed80	-0.0033405721
102	0x3e44e3fa	0.19227591
103	0x3d72ff60	0.059325576
104	0x3e4a8812	0.19778469
105	0x3e8a0c0f	0.26962325
106	0x3dd327b0	0.10310304
107	0x3e764952	0.24051407
108	0x3e9b21b9	0.30299166
109	0xbd8ad534	-0.067789465
110	0x3de7062c	0.11280474
111	0xbe3729c3	-0.17887025
112	0x3ade8000	0.0016975403
113	0x3e7a6f5e	0.24456546
114	0x3cdf91d0	0.027291209
115	0x3e877d0d	0.26462594
116	0x3e03ec3e	0.12883088
117	0xbdde0fa6	-0.108428285
118	0xbe0f8c78	-0.14018428
119	0xbe5094db	-0.20369284
120	0xbe2b5363	-0.16731028
121	0x3d9690b4	0.07351819
122	0x3e8a1811	0.26971486
123	0xbe9e76ba	-0.30949956
124	0x3e92b2a5	0.2865192
125	0x3e8a3e67	0.27000734
126	0x3ddd5070	0.10806358
127	0x3e1dca3e	0.1540918
128	0x3e1057c2	0.14095977
129	0xbc66ae60	-0.01407966
130	0xbea74ba4	-0.32674897
131	0x3dfd18e4	0.12358263
132	0xbd75abe0	-0.059978366
133	0xbdb515f0	-0.08842075
134	0x3e11c570	0.14235473
135	0x3c652280	0.013985276
136	0xbe0cbeb0	-0.13744617
137	0xbd3319e0	-0.04372585
138	0xbb345580	-0.0027516782
139	0x3e4de042	0.20105079
140	0xbd2020a8	-0.039093643
141	0xbe847b6a	-0.25875407
142	0xbe082018	-0.13293493
143	0xbcb49350	-0.0220429

conv1.bias f4 [16]
0	0xbe66fa7b	-0.22556488
1	0x3df1b3d4	0.118018776
2	0x3d88a864	0.06672743
3	0xbe84c19c	-0.25928962
4	0xbdd84700	-0.10560417
5	0x3e9bb77d	0.30413428
6	0x3e301e02	0.17198947
7	0x3db13c74	0.08654109
8	0x3e530f26	0.20611247
9	0xbd1095c0	-0.035299063
10	0x3e60b0f2	0.219425
11	0xbc884310	-0.01663354
12	0xbe894fbf	-0.26818654
13	0xbe6c0c4b	-0.23051564
14	0xbe566bb0	-0.20939517
15	0xbe29e0bb	-0.16589634

conv2.weight f4 [32, 16, 3, 3]
0	0xbc636e48	-0.013881274
1	0xbd3d0ee6	-0.046156786
2	0x3c792848	0.015207358
3	0xbb6f0200	-0.0036469698
4	0x3c62b248	0.013836451
5	0x3d854481	0.06507207
6	0x3d7914a2	0.060810693
7	0xbd6a13d0	-0.0571478
8	0xbcf93860	-0.03042239
9	0xbc5a7a28	-0.013334788
10	0xbb850100	-0.004058957
11	0xbbf7eac0	-0.007565826
12	0x3aded0c0	0.0016999468
13	0xbd5c68b0	-0.053810775
14	0x3d293616	0.041311346
15	0xbc72ce20	-0.014819652
16	0x3d836c2d	0.06417117
17	0x3d190ae2	0.037363894
18	0xbd0f79e6	-0.03502836
19	0xbd91fe4b	-0.07128581
20	0x3d4009aa	0.046884216
21	0xbda99052	-0.0827948
22	0xbc5ae8e8	-0.013361193
23	0x3d9f82cd	0.0778862
24	0xbd0700a0	-0.03295958
25	0xbd99b670	-0.075055
26	0xbd8acf73	-0.06777849
27	0x3d2f0e0a	0.042737998
28	0xbd171fee	-0.036895685
29	0x3be17010	0.006879814
30	0xbc4dafb8	-0.012554102
31	0x3d4bd8be	0.04976725
32	0x3d370ee2	0.044691928
33	0x3da59629	0.080852814
34	0x3d1b0660	0.037847877
35	0xbd78b050	-0.06071502
36	0x3bb61150	0.005556263
37	0x3ca2b4cc	0.019861601
38	0xbb8b7dd0	-0.0042569414
39	0xbcd2371c	-0.025661044
40	0xbd950882	-0.07277013
41	0x3d81e515	0.06342522
42	0xbd8465fe	-0.06464766
43	0xbd803fc6	-0.06262164
44	0x3d2415f8	0.040060014
45	0xbda587d3	-0.08082547
46	0x3b3b9ba0	0.0028626695
47	0xbd69670b	-0.056983035
48	0x3d83ad03	0.06429484
49	0x3cd776dc	0.026301794
50	0x3d908351	0.070562966
51	0xbd15284e	-0.03641539
52	0x3d213018	0.039352506
53	0xbd8e9c03	-0.069633506
54	0x3cf5c7dc	0.030002527
55	0xbc5a4b00	-0.013323545
56	0xbd352bf0	-0.044231355
57	0xbd2f8df3	-0.042859983
58	0x3aba9b00	0.0014236867
59	0x3d93c20f	0.07214748
60	0x3cedb5b4	0.029017307
61	0x3d6d57d2	0.05794508
62	0xbd2c7830	-0.042106807
63	0xbc95877c	-0.01825308
64	0x3ab277c0	0.001361601
65	0x3cee0fd0	0.029060274
66	0x3c4d8af8	0.01254534
67	0xbd801a4e	-0.06255017
68	0x3d54f92a	0.051995434
69	0x3da34909	0.07972915
70	0x3da2f5d7	0.079570465
71	0xbd1c5cbb	-0.038174372
72	0x3c75c1f8	0.014999859
73	0xba2abd80	-0.0006513223
74	0x3d17b438	0.037037104
75	0xbbe823d0	-0.0070843473
76	0x3ce1e7ac	0.02757629
77	0x3d94b9bd	0.07261989
78	0xbd6d931e	-0.05800163
79	0x3d7a4eda	0.061110355
80	0xbd3c1520	-0.045918584
81	0xbce5a050	-0.028030545
82	0x3cc61e54	0.024184383
83	0x3cb25cb4	0.02177272
84	0x3d4968ba	0.04917214
85	0xbcd182b6	-0.025575023
86	0xbd02b323	-0.03190912
87	0x3d851821	0.06498743
88	0x3d1a685e	0.03769719
89	0xbc46c540	-0.012131989
90	0x3d88cf77	0.06680196
91	0x3d3ecdb6	0.0465829
92	0xbd38f106	-0.045151733
93	0x3d5e92a2	0.05433906
94	0x3d3bf6ea	0.045889772
95	0x3d4aee42	0.049543627
96	0xbd9efbfb	-0.07762905
97	0x3d9bcd2d	0.076074935
98	0x3d483cf6	0.048886262
99	0xbda1d607	-0.079021506
100	0x3d57a7d6	0.052650295
101	0xbd6b07ce	-0.05738049
102	0x3d42c41a	0.0475503
103	0xbd7eeec0	-0.06223941
104	0xbd958c94	-0.07302204
105	0x3d879dab	0.0662187
106	0x3ccf0d00	0.025274754
107	0xbd672d7b	-0.056439858
108	0x3d012e08	0.03153804
109	0x3c7e0b80	0.0155056715
110	0xbc2ed1a0	-0.010670096
111	0xbd6e1978	-0.058129758
112	0xbc415a38	-0.011801295
113	0xbd9ffc78	-0.078118265
114	0xbc52de60	-0.012870401
115	0xbda47187	-0.08029466
116	0x3d800c09	0.062522955
117	0x3d8db9a5	0.069201745
118	0x3c166660	0.009179682
119	0xbcfb7746	-0.030696522
120	0xbd2fc16b	-0.042909067
121	0xbbb99a70	-0.0056641623
122	0x3c541fc8	0.01294703
123	0x3d79a49a	0.060947992
124	0x3d14acce	0.036297612
125	0xbd6aa58b	-0.05728678
126	0xbd3fa516	-0.046788298
127	0x3cc58cb0	0.024114937
128	0x3d084de0	0.033277392
129	0xbc0a36e8	-0.008435942
130	0x3d715c82	0.058926113
131	0x3c32d320	0.010914594
132	0xbca2b014	-0.019859351
133	0xbd00d9b6	-0.031457625
134	0x3c9003bc	0.017579906
135	0xbd6c73a6	-0.05772748
136	0x3d30328e	0.043016963
137	0x3d5dc766	0.05414524
138	0xbb943310	-0.0045226887
139	0xbd813c2e	-0.063103065
140	0x3d39fde6	0.045408152
141	0x3c8ea634	0.017413236
142	0xbc97c380	-0.018525839
143	0xbb88f410	-0.004179485
144	0x3cce4f9c	0.025184445
145	0x3d8147b9	0.06312508
146	0x3cca67ec	0.024707757
147	0xbd9e000a	-0.07714851
148	0xbbc71700	-0.00607574
149	0x3d7ef1e2	0.062242396
150	0x3c9679f0	0.018368691
151	0xbd06301e	-0.032760732
152	0xbd58deb8	-0.052946776
153	0x3cd8a0a4	0.026443787
154	0x3d3b6efa	0.045760132
155	0xbc788be0	-0.015170068
156	0x3d9b93eb	0.075965725
157	0x3d504f4e	0.05085688
158	0x3a6aca00	0.0008956492
159	0xbd847f6e	-0.06469618
160	0x3c120f48	0.008914776
161	0xbd74f62b	-0.059805077
162	0x3d98be8b	0.07458218
163	0xbd71297b	-0.05887745
164	0xbd11d126	-0.03559985
165	0xbda8427c	-0.08215806
166	0x3d4b8636	0.04968854
167	0x3d180ff2	0.03712458
168	0xbc607e88	-0.013702042
169	0x3d9f58fd	0.07780645
170	0xbbbd4490	-0.0057759956
171	0xbda1b042	-0.07894947
172	0xbc3a94c8	-0.011388011
173	0x3d15f520	0.036610723
174	0xbd95b0af	-0.0730909
175	0xbcfc0a56	-0.030766647
176	0xbd2878e0	-0.0411309
177	0x3d348456	0.044071518
178	0xbd0966ab	-0.033545177
179	0xbda8cfdc	-0.08242771
180	0xbd39f81e	-0.04540264
181	0x3d0b6148	0.03402832
182	0xbc2f19f8	-0.010687344
183	0x3d82f255	0.063938774
184	0x3cf85dcc	0.030318163
185	0x3cb6186c	0.022228442
186	0x3c3d66f8	0.011560194
187	0xbb5c9ce0	-0.003366284
188	0xbd126d5b	-0.03574882
189	0xbae038c0	-0.0017106757
190	0xbd51504b	-0.051101964
191	0xbd64f1ae	-0.055894546
192	0x3d480c32	0.048839755
193	0xbd55a5a3	-0.052159917
194	0xbadb3840	-0.0016725138
195	0x3d88cdc7	0.06679874
196	0x3daa2c95	0.083092846
197	0xbd64f1c3	-0.055894624
198	0x3c35e1a0	0.0111011565
199	0x3d1ed3a0	0.03877604
200	0xbce723dc	-0.028215341
201	0xbbe245b0	-0.00690528
202	0x3d1e349e	0.0386244
203	0xbd085216	-0.03328141
204	0xbd47396b	-0.048638742
205	0x3cc8a8f4	0.024494626
206	0x3d05e26a	0.03268663
207	0xbd80e376	-0.06293385
208	0x3b9903c0	0.0046696365
209	0xbcc59f60	-0.024123847
210	0xbd6cd9fb	-0.05782507
211	0xbd14f468	-0.036365896
212	0xbd3a0db6	-0.045423232
213	0x3d6aefe2	0.057357676
214	0xbd5f3070	-0.054489553
215	0xbd778ce6	-0.060437106
216	0x3cc0c9bc	0.023533694
217	0xbd87e5cf	-0.066356294
218	0xbd8722e3	-0.06598451
219	0x3d17150a	0.0368853
220	0xbd4b5253	-0.049639057
221	0xbd81adf8	-0.0633201
222	0x3da7c7f1	0.08192433
223	0xbd7c0468	-0.06152764
224	0xbcd5d880	-0.026104212
225	0x3da2891d	0.079363085
226	0x3d7b887a	0.06140945
227	0xbd826632	-0.063671485
228	0xbbe58000	-0.007003784
229	0xbd87ee6c	-0.06637272
230	0xbb87c740	-0.0041436255
231	0x3d7fb84a	0.06243161
232	0xbc6d2720	-0.01447466
233	0x3d793d26	0.06084933
234	0x3cf81c60	0.030286968
235	0xbd78ebfe	-0.060771935
236	0x3d46cb0a	0.048533477
237	0x3a320e00	0.00067922473
238	0xbda49a92	-0.080372944
239	0x3d90a441	0.07062579
240	0xbd801753	-0.06254449
241	0x3b15f560	0.002288185
242	0xbcaa9214	-0.020821609
243	0x3d95f739	0.073225446
244	0xbb9a7000	-0.0047130585
245	0xbda88c08	-0.08229834
246	0xbca17f30	-0.019713968
247	0xbc551c08	-0.013007171
248	0x3d6c6efe	0.057723038
249	0xbd09c838	-0.03363821
250	0xbd39e870	-0.045387685
251	0x3c93e120	0.018051684
252	0x3ccafae4	0.024777837
253	0x3da547b5	0.08070318
254	0xbd093c5b	-0.033504825
255	0x3d07542a	0.03303925

conv2.bias f4 [32]
0	0xbd85f45e	-0.0654075
1	0xbd4095c0	-0.047017813
2	0x3d764232	0.060121723
3	0xbd6f37ab	-0.0584027
4	0x3cedb224	0.029015608
5	0xbc7147c8	-0.014726587
6	0x3d98cc6f	0.074608676
7	0x3d283b08	0.04107192
8	0xbc7c94a8	-0.015416302
9	0xbd8ea228	-0.069645226
10	0xbd0c508b	-0.0342565
11	0x3d2bbea2	0.04192985
12	0xbd589a80	-0.052881718
13	0xbd5fdf63	-0.054656398
14	0xbcedb7fc	-0.029018395
15	0x3d6fa7de	0.0585097
16	0xbda73184	-0.08163741
17	0x3d97f7b1	0.0742029
18	0x3d04bb90	0.032405436
19	0x3ce41a54	0.027844585
20	0x3d81e7df	0.06343054
21	0x3d993069	0.07479937
22	0x3d904425	0.070442475
23	0xbd574bfe	-0.052562706
24	0x3c551100	0.013004541
25	0x3d1e9610	0.03871733
26	0xbd9026ec	-0.07038674
27	0x3d39225a	0.045198776
28	0xbd7c6900	-0.061623573
29	0x3da58c59	0.0808341
30	0xbca3f98c	-0.020016454
31	0xbd0352c0	-0.03206134

fc1.weight f4 [128, 1568]
0	0xbc3115f1	-0.010808454
1	0x3b6229c0	0.0034509748
2	0xbc70d4c8	-0.0146991685
3	0x3c998d2a	0.01874407
4	0x3aa39850	0.0012481306
5	0x3c8b0f5a	0.016975094
6	0xbc63f450	-0.013913229
7	0xbc2c6865	-0.0105229365
8	0xbcaad8a3	-0.020855254
9	0x3c2aa60c	0.010415565
10	0xbcab7a9c	-0.020932488
11	0x3c6cce58	0.014453493
12	0xbacd59e0	-0.0015667044
13	0xbcbc54c5	-0.02298964
14	0x3cc764bc	0.024340026
15	0xbbf694e4	-0.0075250734
16	0x3c01e8a0	0.007928997
17	0x3bac9094	0.0052662585
18	0x3bde27e8	0.0067796595
19	0x3c314798	0.010820292
20	0xb9545400	-0.00020249188
21	0x3b9e67ec	0.004834166
22	0x3ca0f6a4	0.019648857
23	0x3cb804ec	0.022463284
24	0xbb8c7e60	-0.004287526
25	0xbbc84920	-0.006112233
26	0xbc4badb3	-0.01243155
27	0x3b4fa430	0.0031683557
28	0x3bf104c8	0.0073553063
29	0xbc00a864	-0.007852647
30	0x3cada594	0.021197118
31	0xbc8bf9a7	-0.017086817
32	0xbc15e0fa	-0.009147877
33	0xbca01197	-0.019539637
34	0x3c08110c	0.008304846
35	0xbc64e532	-0.01397066
36	0x3c8d7c8a	0.017271299
37	0x3c7c1d1c	0.0153878
38	0xbb6076a0	-0.0034250394
39	0xbc6d7eb8	-0.014495544
40	0x3cb07900	0.021542072
41	0xbabefea0	-0.0014571734
42	0xbc842b19	-0.016133832
43	0xbc4c5303	-0.012470963
44	0xbcaa5078	-0.020790324
45	0x3c83c570	0.016085356
46	0xbca1c948	-0.019749299
47	0x3c7b46c0	0.015336692
48	0x3c3bfb64	0.01147351
49	0xbbf31604	-0.007418396
50	0xbca5d246	-0.020241868
51	0xbc842dc3	-0.016135102
52	0xbca98a61	-0.020695867
53	0xbb1f5278	-0.002431063
54	0xbcc91275	-0.024544934
55	0xbb804434	-0.0039143804
56	0x3ba6abf0	0.0050864145
57	0x3c3fbad4	0.011702258
58	0xbc7f236e	-0.015572412
59	0x3bf510b8	0.0074787997
60	0xbc427c08	-0.011870392
61	0x3ace5410	0.0015741605
62	0xbca51111	-0.02014974
63	0x3a9653b0	0.0011469033
64	0xbc11792a	-0.008878985
65	0x3c5885d4	0.013215501
66	0x3c8b882a	0.017032702
67	0x3c4bd47c	0.012440797
68	0xbc76de36	-0.015067628
69	0xbc7fc479	-0.015610808
70	0x3bd16a78	0.006390866
71	0xbca7a71a	-0.020465422
72	0x3bc38600	0.005966902
73	0x3bda7f08	0.0066679753
74	0x3c163110	0.009166971
75	0x3a4452c0	0.00074891374
76	0x3b4fbd28	0.003169844
77	0x3aceb0d0	0.0015769247
78	0xbc82fa3e	-0.015988465
79	0xbc2e180b	-0.0106258495
80	0x3a9e9400	0.0012098551
81	0xbc8e9aea	-0.017407853
82	0xbc97c5e8	-0.018526986
83	0xbb9349e8	-0.0044948943
84	0xbc1e0b40	-0.009646237
85	0xbc3de69a	-0.011590624
86	0xbb4ce608	-0.003126504
87	0xbcae7646	-0.021296632
88	0xbc6a10dc	-0.014286246
89	0xbc2ffb6a	-0.010741094
90	0x3cc4bd9c	0.024016194
91	0x3cca9d6e	0.024733271
92	0xbcbca310	-0.023026973
93	0xbc0d8d14	-0.008639593
94	0xbc35b053	-0.011089402
95	0x3821ce00	3.8577244e-05
96	0xbc4a6139	-0.012352281
97	0x3b4a9f80	0.0030917823
98	0x3c9b22c4	0.018937476
99	0x3be81cf0	0.0070835277
100	0x3b30a4c8	0.0026953686
101	0xbc605178	-0.013691299
102	0x3c5ee0c4	0.013603393
103	0xbc02bce2	-0.0079796035
104	0x3c7cc018	0.015426658
105	0x3cb84680	0.022494555
106	0xbc56d90a	-0.01311327
107	0xbc2b3e8a	-0.010451922
108	0xbc8e8e5c	-0.017401867
109	0xbcb6c4d5	-0.022310654
110	0xbccb6428	-0.024828032
111	0xbac33bc0	-0.0014895126
112	0xbb99eac0	-0.004697174
113	0x3bd13280	0.006384194
114	0xbbc58dcc	-0.0060288664
115	0xbcb07f15	-0.021544972
116	0x3b5530a0	0.0032530203
117	0x3c185648	0.009297915
118	0x3bfc2980	0.007695377
119	0xbb54c370	-0.0032465123
120	0x3be2b0e8	0.0069180615
121	0x3c8de5c8	0.017321482
122	0x3bc36e0c	0.0059640463
123	0xbcaf81ea	-0.021424253
124	0x3c78ddc0	0.015189588
125	0x3b36a0c0	0.002786681
126	0x3b84cdf4	0.004052872
127	0x3c9f7184	0.019463308
128	0x3c9303b6	0.017946105
129	0xbcc379a5	-0.023861716
130	0xbc927882	-0.017879728
131	0xbb7ca810	-0.0038552321
132	0x3c86b7fa	0.016445149
133	0x3af520b0	0.0018701758
134	0x3c3a8408	0.011384018
135	0x3ca53520	0.020166934
136	0x3c18c8c4	0.00932521
137	0x3c90bf00	0.0176692
138	0xba399b80	-0.0007080361
139	0xbb6cd610	-0.0036138333
140	0xbcc94f63	-0.024573987
141	0x3a9a1120	0.0011754371
142	0xbc87836a	-0.016542155
143	0x3b9a0664	0.004700469
144	0xbc7a6824	-0.015283618
145	0x3bfe3c00	0.0077586174
146	0xbb9e93c4	-0.0048393924
147	0x3be0b8a0	0.0068579465
148	0xbc4b16d9	-0.012395584
149	0xbc930eae	-0.017951336
150	0xbcbac45d	-0.022798711
151	0x3c9a226c	0.018815242
152	0xbc4c8dee	-0.012485011
153	0xbc2a2ece	-0.010387136
154	0xbca108f2	-0.019657586
155	0xbcc667f3	-0.024219489
156	0x3b0e9918	0.0021758731
157	0x3c809732	0.015697096
158	0x3bc59bf0	0.006030552
159	0x3a1e1c60	0.000603145
160	0xbc7dbc75	-0.015486826
161	0x3c37e090	0.0112229735
162	0xbc81708d	-0.015800739
163	0x3c90f530	0.01769504
164	0x3c60ad10	0.013713136
165	0x3b1cfe98	0.002395546
166	0x3b9737ec	0.0046148207
167	0xbcbc9935	-0.023022274
168	0x3b860784	0.0040902514
169	0x3c95f748	0.01830639
170	0xbc101d94	-0.0087961145
171	0xbc9e2e54	-0.0193092
172	0xbabb4220	-0.0014286675
173	0xbc5993ac	-0.013279837
174	0x3c509b98	0.012732409
175	0xbacbe7f0	-0.0015556794
176	0x3c9eafb2	0.019370887
177	0xbc0cc9f8	-0.008593075
178	0x3c509840	0.012731612
179	0x3c88f22a	0.016717035
180	0x3ca8a2ce	0.020585444
181	0x39627280	0.00021595694
182	0xbc3a6fba	-0.011379177
183	0x3c8603ae	0.016359176
184	0x3a2e5260	0.0006649848
185	0x3b629258	0.003457209
186	0xbc9c1b89	-0.019056099
187	0xbab8a050	-0.0014085863
188	0x3a9479d0	0.0011327807
189	0x3bb4aed4	0.005514005
190	0x3ca1e102	0.019760612
191	0xbc64401f	-0.013931303
192	0x3c75826c	0.014984708
193	0xbac3b080	-0.001492992
194	0xbc5d1833	-0.013494539
195	0x3c010fc8	0.007877298
196	0xbc872894	-0.016498841
197	0xbc3967d9	-0.011316263
198	0x3cb36dc0	0.021902919
199	0x3c52abb8	0.012858324
200	0x3c03b5ec	0.008038979
201	0xbb0dc6f8	-0.0021633487
202	0xbcbf8900	-0.023380756
203	0x3adb5b60	0.0016735606
204	0xbc32e0c1	-0.010917843
205	0x3caf2a02	0.021382336
206	0xbc979107	-0.018501772
207	0x3cb982f0	0.022645444
208	0x3c1e2e7c	0.009654637
209	0x3b65fb38	0.0035092365
210	0x3cb6484e	0.022251274
211	0xbca463b5	-0.020067075
212	0xbc02e1b6	-0.007988384
213	0xbca0b738	-0.019618616
214	0xbcbdd825	-0.023174355
215	0x3cbd46bc	0.023105018
216	0xbc53cfaa	-0.012927929
217	0x3c9b47dc	0.018955164
218	0x3b9b40e0	0.0047379583
219	0xbcb6c93c	-0.022312753
220	0xbbe29460	-0.0069146603
221	0xbcb2ef34	-0.021842577
222	0x3c96ba42	0.018399362
223	0xbcc6de5a	-0.024275947
224	0xbcab5018	-0.020912215
225	0xba198540	-0.00058563426
226	0xbcc3d3fc	-0.023904793
227	0xbc5cc1e1	-0.013473959
228	0x3c2eb640	0.010663569
229	0x3bed6628	0.007244844
230	0xbc7eef92	-0.015560048
231	0xbc601ee2	-0.013679238
232	0xbba442b0	-0.0050128326
233	0x3ba2b6b4	0.0049656276
234	0xbbd0fd04	-0.006377818
235	0xbc4f64c2	-0.0126583
236	0x3c84a48a	0.01619174
237	0x3bd4adb8	0.0064904355
238	0xbcc41309	-0.023934858
239	0xbb73b610	-0.0037187375
240	0xbc77d1d9	-0.015125715
241	0x3ba03bd0	0.0048899427
242	0xbcb65270	-0.022256106
243	0xbc9613aa	-0.018319923
244	0xbca4d76e	-0.020122256
245	0xbc7c4fc5	-0.015399878
246	0xbba8f9f0	-0.005156748
247	0xbcb9112d	-0.022591198
248	0xbc7a7cd3	-0.0152885495
249	0xbbefc264	-0.0073168743
250	0xbbc4f304	-0.006010415
251	0x3c64e57c	0.013970729
252	0x3cbbae48	0.022910252
253	0xbb012d68	-0.0019710902
254	0xba171d40	-0.00057645515
255	0x3ca12a6c	0.019673549

fc1.bias f4 [128]
0	0x3b0ccc28	0.0021483991
1	0x3c581f60	0.013191074
2	0x3c072e24	0.008250747
3	0x3c681044	0.014164034
4	0xbc6c5f72	-0.014427053
5	0xbc0a2a36	-0.008432915
6	0x3aa75440	0.0012766197
7	0xbc08d6ee	-0.0083520245
8	0xbc217a42	-0.009855809
9	0xbcbb3f65	-0.022857377
10	0x3cc5ccf0	0.024145573
11	0x3aa08520	0.0012246706
12	0x3ca3ccea	0.019995172
13	0x3cc53f3c	0.024078004
14	0xbc83675b	-0.016040495
15	0xbc3e5ff2	-0.011619555
16	0x3c657388	0.014004596
17	0xbc932306	-0.017961036
18	0x3cba08ce	0.022709277
19	0xbbacc81c	-0.0052728783
20	0xbba002f4	-0.0048831645
21	0xbbb8acfc	-0.0056358557
22	0x3c1b2570	0.009469375
23	0xbc9d8316	-0.019227546
24	0xbc57e76e	-0.013177736
25	0x3a001900	0.0004886538
26	0xbb0ec768	-0.0021786336
27	0x3c83d0e0	0.01609081
28	0xbb9ba420	-0.00474979
29	0x3cc7bf82	0.02438331
30	0x3c4a4244	0.0123449005
31	0xbcb8d358	-0.022561714
32	0xbc86d711	-0.016459974
33	0x3c8908e0	0.016727865
34	0x3cb153b4	0.021646358
35	0x3cb4f53a	0.02208959
36	0x3cb7b0ce	0.022423174
37	0xbbfc6594	-0.0077025387
38	0xbcbc965e	-0.02302092
39	0x3ccaba9e	0.02474719
40	0xbcbbeaba	-0.022939075
41	0xbcb5a37a	-0.022172678
42	0xbb37cd38	-0.0028045904
43	0xbcbfb4db	-0.023401668
44	0x3c82a172	0.015946124
45	0x3c7e6228	0.015526332
46	0x3cc9ba48	0.024624959
47	0xbc66faff	-0.014097928
48	0x3cb480d0	0.022034079
49	0x3c92184e	0.017833855
50	0xbc11b24e	-0.008892609
51	0xbc0fb050	-0.0087700635
52	0xbccd7110	-0.025078326
53	0x3c869a92	0.016431127
54	0x3ca57700	0.020198345
55	0x3ccd9eca	0.02510013
56	0x3cbbbbfa	0.022916783
57	0xbc6dde45	-0.014518325
58	0xbcce790e	-0.025204208
59	0xbba5a894	-0.0050554965
60	0x3cc75128	0.02433069
61	0xbc2a1dd9	-0.010383093
62	0x3c62a060	0.013832182
63	0xbca83a62	-0.020535652
64	0x3c8e2c34	0.017355062
65	0x3b68fdb8	0.0035551619
66	0xbc2c4760	-0.010515064
67	0x3abd4de0	0.0014442764
68	0x3c0879e8	0.008329846
69	0x3cbedeee	0.02329966
70	0x3c21ca38	0.009874873
71	0xbcbd9fc7	-0.023147477
72	0x3c11cf04	0.008899454
73	0xbbc19dd0	-0.0059087053
74	0xbcc4f53f	-0.024042724
75	0xbc8a3c2e	-0.016874399
76	0xbc4110ef	-0.011783822
77	0x3c470684	0.01214755
78	0x3cc43c80	0.02395463
79	0x3b77d0b8	0.0037813615
80	0x3a8b49b0	0.0010626819
81	0xbb71d978	-0.0036903303
82	0xbb5a90e8	-0.003335053
83	0x3c790564	0.015199039
84	0x3cc7a73c	0.024371736
85	0xbc9b0db8	-0.01892744
86	0xbb87276c	-0.0041245725
87	0xbbef93cc	-0.00731132
88	0xbc8ff4cd	-0.017572785
89	0xbc01aaf4	-0.007914294
90	0xbca79612	-0.020457301
91	0xbcc07e24	-0.023497649
92	0xbc18ed2c	-0.00933389
93	0x3cbf8c9e	0.023382481
94	0xba91f030	-0.0011134204
95	0x3884c100	6.3301995e-05
96	0xbccc973e	-0.024974462
97	0x3cb18a94	0.021672525
98	0x3cc7c532	0.024386022
99	0x3c97dd28	0.018538073
100	0x3c3066ec	0.010766726
101	0x3cc0f048	0.023552075
102	0xbcac7d22	-0.021055762
103	0x3b10f660	0.0022119507
104	0x3b9f4ed8	0.004861694
105	0x3c8849fc	0.016636841
106	0x3caf570e	0.021403816
107	0x3c3b3244	0.0114255585
108	0x3cb84f60	0.022498786
109	0x3cc75aa8	0.02433522
110	0x3c9ada08	0.018902794
111	0xbc58fcdf	-0.013243883
112	0xbc8e036e	-0.01733562
113	0xbc7bc417	-0.015366576
114	0x3ab44210	0.0013752598
115	0xbca8d941	-0.020611407
116	0x3c712158	0.014717422
117	0xbc53049f	-0.01287952
118	0xbc93fbf7	-0.018064482
119	0x3c4faa4c	0.012674879
120	0x3c07f0d8	0.008297168
121	0x3a1ba5e0	0.0005937498
122	0xba124b00	-0.0005580634
123	0xbc49b2d2	-0.0123107005
124	0xbc8a6094	-0.016891755
125	0x3ca7c60c	0.020480178
126	0x3cc73f76	0.024322253
127	0x3b75bd28	0.003749678

k1.rk_layers.0.phase_low f4 [128, 8]
0	0xbf19999a	-0.6
1	0xbecccccd	-0.4
2	0xbe4ccccd	-0.2
3	0x00000000	0.0
4	0x3e4ccccd	0.2
5	0x3ecccccd	0.4
6	0x3f19999a	0.6
7	0x3f4ccccd	0.8
8	0xbf19999a	-0.6
9	0xbecccccd	-0.4
10	0xbe4ccccd	-0.2
11	0x00000000	0.0
12	0x3e4ccccd	0.2
13	0x3ecccccd	0.4
14	0x3f19999a	0.6
15	0x3f4ccccd	0.8
16	0xbf19999a	-0.6
17	0xbecccccd	-0.4
18	0xbe4ccccd	-0.2
19	0x00000000	0.0
20	0x3e4ccccd	0.2
21	0x3ecccccd	0.4
22	0x3f19999a	0.6
23	0x3f4ccccd	0.8
24	0xbf19999a	-0.6
25	0xbecccccd	-0.4
26	0xbe4ccccd	-0.2
27	0x00000000	0.0
28	0x3e4ccccd	0.2
29	0x3ecccccd	0.4
30	0x3f19999a	0.6
31	0x3f4ccccd	0.8
32	0xbf19999a	-0.6
33	0xbecccccd	-0.4
34	0xbe4ccccd	-0.2
35	0x00000000	0.0
36	0x3e4ccccd	0.2
37	0x3ecccccd	0.4
38	0x3f19999a	0.6
39	0x3f4ccccd	0.8
40	0xbf19999a	-0.6
41	0xbecccccd	-0.4
42	0xbe4ccccd	-0.2
43	0x00000000	0.0
44	0x3e4ccccd	0.2
45	0x3ecccccd	0.4
46	0x3f19999a	0.6
47	0x3f4ccccd	0.8
48	0xbf19999a	-0.6
49	0xbecccccd	-0.4
50	0xbe4ccccd	-0.2
51	0x00000000	0.0
52	0x3e4ccccd	0.2
53	0x3ecccccd	0.4
54	0x3f19999a	0.6
55	0x3f4ccccd	0.8
56	0xbf19999a	-0.6
57	0xbecccccd	-0.4
58	0xbe4ccccd	-0.2
59	0x00000000	0.0
60	0x3e4ccccd	0.2
61	0x3ecccccd	0.4
62	0x3f19999a	0.6
63	0x3f4ccccd	0.8
64	0xbf19999a	-0.6
65	0xbecccccd	-0.4
66	0xbe4ccccd	-0.2
67	0x00000000	0.0
68	0x3e4ccccd	0.2
69	0x3ecccccd	0.4
70	0x3f19999a	0.6
71	0x3f4ccccd	0.8
72	0xbf19999a	-0.6
73	0xbecccccd	-0.4
74	0xbe4ccccd	-0.2
75	0x00000000	0.0
76	0x3e4ccccd	0.2
77	0x3ecccccd	0.4
78	0x3f19999a	0.6
79	0x3f4ccccd	0.8
80	0xbf19999a	-0.6
81	0xbecccccd	-0.4
82	0xbe4ccccd	-0.2
83	0x00000000	0.0
84	0x3e4ccccd	0.2
85	0x3ecccccd	0.4
86	0x3f19999a	0.6
87	0x3f4ccccd	0.8
88	0xbf19999a	-0.6
89	0xbecccccd	-0.4
90	0xbe4ccccd	-0.2
91	0x00000000	0.0
92	0x3e4ccccd	0.2
93	0x3ecccccd	0.4
94	0x3f19999a	0.6
95	0x3f4ccccd	0.8
96	0xbf19999a	-0.6
97	0xbecccccd	-0.4
98	0xbe4ccccd	-0.2
99	0x00000000	0.0
100	0x3e4ccccd	0.2
101	0x3ecccccd	0.4
102	0x3f19999a	0.6
103	0x3f4ccccd	0.8
104	0xbf19999a	-0.6
105	0xbecccccd	-0.4
106	0xbe4ccccd	-0.2
107	0x00000000	0.0
108	0x3e4ccccd	0.2
109	0x3ecccccd	0.4
110	0x3f19999a	0.6
111	0x3f4ccccd	0.8
112	0xbf19999a	-0.6
113	0xbecccccd	-0.4
114	0xbe4ccccd	-0.2
115	0x00000000	0.0
116	0x3e4ccccd	0.2
117	0x3ecccccd	0.4
118	0x3f19999a	0.6
119	0x3f4ccccd	0.8
120	0xbf19999a	-0.6
121	0xbecccccd	-0.4
122	0xbe4ccccd	-0.2
123	0x00000000	0.0
124	0x3e4ccccd	0.2
125	0x3ecccccd	0.4
126	0x3f19999a	0.6
127	0x3f4ccccd	0.8
128	0xbf19999a	-0.6
129	0xbecccccd	-0.4
130	0xbe4ccccd	-0.2
131	0x00000000	0.0
132	0x3e4ccccd	0.2
133	0x3ecccccd	0.4
134	0x3f19999a	0.6
135	0x3f4ccccd	0.8
136	0xbf19999a	-0.6
137	0xbecccccd	-0.4
138	0xbe4ccccd	-0.2
139	0x00000000	0.0
140	0x3e4ccccd	0.2
141	0x3ecccccd	0.4
142	0x3f19999a	0.6
143	0x3f4ccccd	0.8
144	0xbf19999a	-0.6
145	0xbecccccd	-0.4
146	0xbe4ccccd	-0.2
147	0x00000000	0.0
148	0x3e4ccccd	0.2
149	0x3ecccccd	0.4
150	0x3f19999a	0.6
151	0x3f4ccccd	0.8
152	0xbf19999a	-0.6
153	0xbecccccd	-0.4
154	0xbe4ccccd	-0.2
155	0x00000000	0.0
156	0x3e4ccccd	0.2
157	0x3ecccccd	0.4
158	0x3f19999a	0.6
159	0x3f4ccccd	0.8
160	0xbf19999a	-0.6
161	0xbecccccd	-0.4
162	0xbe4ccccd	-0.2
163	0x00000000	0.0
164	0x3e4ccccd	0.2
165	0x3ecccccd	0.4
166	0x3f19999a	0.6
167	0x3f4ccccd	0.8
168	0xbf19999a	-0.6
169	0xbecccccd	-0.4
170	0xbe4ccccd	-0.2
171	0x00000000	0.0
172	0x3e4ccccd	0.2
173	0x3ecccccd	0.4
174	0x3f19999a	0.6
175	0x3f4ccccd	0.8
176	0xbf19999a	-0.6
177	0xbecccccd	-0.4
178	0xbe4ccccd	-0.2
179	0x00000000	0.0
180	0x3e4ccccd	0.2
181	0x3ecccccd	0.4
182	0x3f19999a	0.6
183	0x3f4ccccd	0.8
184	0xbf19999a	-0.6
185	0xbecccccd	-0.4
186	0xbe4ccccd	-0.2
187	0x00000000	0.0
188	0x3e4ccccd	0.2
189	0x3ecccccd	0.4
190	0x3f19999a	0.6
191	0x3f4ccccd	0.8
192	0xbf19999a	-0.6
193	0xbecccccd	-0.4
194	0xbe4ccccd	-0.2
195	0x00000000	0.0
196	0x3e4ccccd	0.2
197	0x3ecccccd	0.4
198	0x3f19999a	0.6
199	0x3f4ccccd	0.8
200	0xbf19999a	-0.6
201	0xbecccccd	-0.4
202	0xbe4ccccd	-0.2
203	0x00000000	0.0
204	0x3e4ccccd	0.2
205	0x3ecccccd	0.4
206	0x3f19999a	0.6
207	0x3f4ccccd	0.8
208	0xbf19999a	-0.6
209	0xbecccccd	-0.4
210	0xbe4ccccd	-0.2
211	0x00000000	0.0
212	0x3e4ccccd	0.2
213	0x3ecccccd	0.4
214	0x3f19999a	0.6
215	0x3f4ccccd	0.8
216	0xbf19999a	-0.6
217	0xbecccccd	-0.4
218	0xbe4ccccd	-0.2
219	0x00000000	0.0
220	0x3e4ccccd	0.2
221	0x3ecccccd	0.4
222	0x3f19999a	0.6
223	0x3f4ccccd	0.8
224	0xbf19999a	-0.6
225	0xbecccccd	-0.4
226	0xbe4ccccd	-0.2
227	0x00000000	0.0
228	0x3e4ccccd	0.2
229	0x3ecccccd	0.4
230	0x3f19999a	0.6
231	0x3f4ccccd	0.8
232	0xbf19999a	-0.6
233	0xbecccccd	-0.4
234	0xbe4ccccd	-0.2
235	0x00000000	0.0
236	0x3e4ccccd	0.2
237	0x3ecccccd	0.4
238	0x3f19999a	0.6
239	0x3f4ccccd	0.8
240	0xbf19999a	-0.6
241	0xbecccccd	-0.4
242	0xbe4ccccd	-0.2
243	0x00000000	0.0
244	0x3e4ccccd	0.2
245	0x3ecccccd	0.4
246	0x3f19999a	0.6
247	0x3f4ccccd	0.8
248	0xbf19999a	-0.6
249	0xbecccccd	-0.4
250	0xbe4ccccd	-0.2
251	0x00000000	0.0
252	0x3e4ccccd	0.2
253	0x3ecccccd	0.4
254	0x3f19999a	0.6
255	0x3f4ccccd	0.8

k1.rk_layers.0.phase_height f4 [128, 8]
0	0x3e4ccccd	0.2
1	0x3ecccccd	0.4
2	0x3f19999a	0.6
3	0x3f4ccccd	0.8
4	0x3f800000	1.0
5	0x3f99999a	1.2
6	0x3fb33333	1.4
7	0x3fcccccd	1.6
8	0x3e4ccccd	0.2
9	0x3ecccccd	0.4
10	0x3f19999a	0.6
11	0x3f4ccccd	0.8
12	0x3f800000	1.0
13	0x3f99999a	1.2
14	0x3fb33333	1.4
15	0x3fcccccd	1.6
16	0x3e4ccccd	0.2
17	0x3ecccccd	0.4
18	0x3f19999a	0.6
19	0x3f4ccccd	0.8
20	0x3f800000	1.0
21	0x3f99999a	1.2
22	0x3fb33333	1.4
23	0x3fcccccd	1.6
24	0x3e4ccccd	0.2
25	0x3ecccccd	0.4
26	0x3f19999a	0.6
27	0x3f4ccccd	0.8
28	0x3f800000	1.0
29	0x3f99999a	1.2
30	0x3fb33333	1.4
31	0x3fcccccd	1.6
32	0x3e4ccccd	0.2
33	0x3ecccccd	0.4
34	0x3f19999a	0.6
35	0x3f4ccccd	0.8
36	0x3f800000	1.0
37	0x3f99999a	1.2
38	0x3fb33333	1.4
39	0x3fcccccd	1.6
40	0x3e4ccccd	0.2
41	0x3ecccccd	0.4
42	0x3f19999a	0.6
43	0x3f4ccccd	0.8
44	0x3f800000	1.0
45	0x3f99999a	1.2
46	0x3fb33333	1.4
47	0x3fcccccd	1.6
48	0x3e4ccccd	0.2
49	0x3ecccccd	0.4
50	0x3f19999a	0.6
51	0x3f4ccccd	0.8
52	0x3f800000	1.0
53	0x3f99999a	1.2
54	0x3fb33333	1.4
55	0x3fcccccd	1.6
56	0x3e4ccccd	0.2
57	0x3ecccccd	0.4
58	0x3f19999a	0.6
59	0x3f4ccccd	0.8
60	0x3f800000	1.0
61	0x3f99999a	1.2
62	0x3fb33333	1.4
63	0x3fcccccd	1.6
64	0x3e4ccccd	0.2
65	0x3ecccccd	0.4
66	0x3f19999a	0.6
67	0x3f4ccccd	0.8
68	0x3f800000	1.0
69	0x3f99999a	1.2
70	0x3fb33333	1.4
71	0x3fcccccd	1.6
72	0x3e4ccccd	0.2
73	0x3ecccccd	0.4
74	0x3f19999a	0.6
75	0x3f4ccccd	0.8
76	0x3f800000	1.0
77	0x3f99999a	1.2
78	0x3fb33333	1.4
79	0x3fcccccd	1.6
80	0x3e4ccccd	0.2
81	0x3ecccccd	0.4
82	0x3f19999a	0.6
83	0x3f4ccccd	0.8
84	0x3f800000	1.0
85	0x3f99999a	1.2
86	0x3fb33333	1.4
87	0x3fcccccd	1.6
88	0x3e4ccccd	0.2
89	0x3ecccccd	0.4
90	0x3f19999a	0.6
91	0x3f4ccccd	0.8
92	0x3f800000	1.0
93	0x3f99999a	1.2
94	0x3fb33333	1.4
95	0x3fcccccd	1.6
96	0x3e4ccccd	0.2
97	0x3ecccccd	0.4
98	0x3f19999a	0.6
99	0x3f4ccccd	0.8
100	0x3f800000	1.0
101	0x3f99999a	1.2
102	0x3fb33333	1.4
103	0x3fcccccd	1.6
104	0x3e4ccccd	0.2
105	0x3ecccccd	0.4
106	0x3f19999a	0.6
107	0x3f4ccccd	0.8
108	0x3f800000	1.0
109	0x3f99999a	1.2
110	0x3fb33333	1.4
111	0x3fcccccd	1.6
112	0x3e4ccccd	0.2
113	0x3ecccccd	0.4
114	0x3f19999a	0.6
115	0x3f4ccccd	0.8
116	0x3f800000	1.0
117	0x3f99999a	1.2
118	0x3fb33333	1.4
119	0x3fcccccd	1.6
120	0x3e4ccccd	0.2
121	0x3ecccccd	0.4
122	0x3f19999a	0.6
123	0x3f4ccccd	0.8
124	0x3f800000	1.0
125	0x3f99999a	1.2
126	0x3fb33333	1.4
127	0x3fcccccd	1.6
128	0x3e4ccccd	0.2
129	0x3ecccccd	0.4
130	0x3f19999a	0.6
131	0x3f4ccccd	0.8
132	0x3f800000	1.0
133	0x3f99999a	1.2
134	0x3fb33333	1.4
135	0x3fcccccd	1.6
136	0x3e4ccccd	0.2
137	0x3ecccccd	0.4
138	0x3f19999a	0.6
139	0x3f4ccccd	0.8
140	0x3f800000	1.0
141	0x3f99999a	1.2
142	0x3fb33333	1.4
143	0x3fcccccd	1.6
144	0x3e4ccccd	0.2
145	0x3ecccccd	0.4
146	0x3f19999a	0.6
147	0x3f4ccccd	0.8
148	0x3f800000	1.0
149	0x3f99999a	1.2
150	0x3fb33333	1.4
151	0x3fcccccd	1.6
152	0x3e4ccccd	0.2
153	0x3ecccccd	0.4
154	0x3f19999a	0.6
155	0x3f4ccccd	0.8
156	0x3f800000	1.0
157	0x3f99999a	1.2
158	0x3fb33333	1.4
159	0x3fcccccd	1.6
160	0x3e4ccccd	0.2
161	0x3ecccccd	0.4
162	0x3f19999a	0.6
163	0x3f4ccccd	0.8
164	0x3f800000	1.0
165	0x3f99999a	1.2
166	0x3fb33333	1.4
167	0x3fcccccd	1.6
168	0x3e4ccccd	0.2
169	0x3ecccccd	0.4
170	0x3f19999a	0.6
171	0x3f4ccccd	0.8
172	0x3f800000	1.0
173	0x3f99999a	1.2
174	0x3fb33333	1.4
175	0x3fcccccd	1.6
176	0x3e4ccccd	0.2
177	0x3ecccccd	0.4
178	0x3f19999a	0.6
179	0x3f4ccccd	0.8
180	0x3f800000	1.0
181	0x3f99999a	1.2
182	0x3fb33333	1.4
183	0x3fcccccd	1.6
184	0x3e4ccccd	0.2
185	0x3ecccccd	0.4
186	0x3f19999a	0.6
187	0x3f4ccccd	0.8
188	0x3f800000	1.0
189	0x3f99999a	1.2
190	0x3fb33333	1.4
191	0x3fcccccd	1.6
192	0x3e4ccccd	0.2
193	0x3ecccccd	0.4
194	0x3f19999a	0.6
195	0x3f4ccccd	0.8
196	0x3f800000	1.0
197	0x3f99999a	1.2
198	0x3fb33333	1.4
199	0x3fcccccd	1.6
200	0x3e4ccccd	0.2
201	0x3ecccccd	0.4
202	0x3f19999a	0.6
203	0x3f4ccccd	0.8
204	0x3f800000	1.0
205	0x3f99999a	1.2
206	0x3fb33333	1.4
207	0x3fcccccd	1.6
208	0x3e4ccccd	0.2
209	0x3ecccccd	0.4
210	0x3f19999a	0.6
211	0x3f4ccccd	0.8
212	0x3f800000	1.0
213	0x3f99999a	1.2
214	0x3fb33333	1.4
215	0x3fcccccd	1.6
216	0x3e4ccccd	0.2
217	0x3ecccccd	0.4
218	0x3f19999a	0.6
219	0x3f4ccccd	0.8
220	0x3f800000	1.0
221	0x3f99999a	1.2
222	0x3fb33333	1.4
223	0x3fcccccd	1.6
224	0x3e4ccccd	0.2
225	0x3ecccccd	0.4
226	0x3f19999a	0.6
227	0x3f4ccccd	0.8
228	0x3f800000	1.0
229	0x3f99999a	1.2
230	0x3fb33333	1.4
231	0x3fcccccd	1.6
232	0x3e4ccccd	0.2
233	0x3ecccccd	0.4
234	0x3f19999a	0.6
235	0x3f4ccccd	0.8
236	0x3f800000	1.0
237	0x3f99999a	1.2
238	0x3fb33333	1.4
239	0x3fcccccd	1.6
240	0x3e4ccccd	0.2
241	0x3ecccccd	0.4
242	0x3f19999a	0.6
243	0x3f4ccccd	0.8
244	0x3f800000	1.0
245	0x3f99999a	1.2
246	0x3fb33333	1.4
247	0x3fcccccd	1.6
248	0x3e4ccccd	0.2
249	0x3ecccccd	0.4
250	0x3f19999a	0.6
251	0x3f4ccccd	0.8
252	0x3f800000	1.0
253	0x3f99999a	1.2
254	0x3fb33333	1.4
255	0x3fcccccd	1.6

k1.rk_layers.0.equal_size_conv.weight f4 [10, 1, 8, 128]
0	0x3be83710	0.007086642
1	0x3c33973c	0.01096135
2	0xbc8da6d8	-0.017291471
3	0xbca273fc	-0.019830696
4	0xbcb6cf50	-0.022315651
5	0x3c2d7e30	0.0105891675
6	0xbcfa53d0	-0.030557543
7	0xbcddf266	-0.027093124
8	0x3ca203c0	0.019777179
9	0xbc950f16	-0.01819567
10	0xbc37e9e0	-0.011225194
11	0xbbc41800	-0.0059843063
12	0x3c569e60	0.013099283
13	0xbcf65054	-0.0300676
14	0x3b9251a0	0.004465297
15	0x3afcf180	0.0019298047
16	0x3cc57cfa	0.024107445
17	0x3b929208	0.0044729747
18	0x3c77039c	0.015076544
19	0x3ba65ee0	0.005077228
20	0xbccb516c	-0.024819098
21	0x3cb1a6e8	0.021686032
22	0xbb616940	-0.003439501
23	0x3b7ea080	0.003885299
24	0xbcbe8fe4	-0.023261972
25	0x3c94b4f8	0.018152699
26	0xbc189d04	-0.009314779
27	0xbcd25964	-0.02567739
28	0x3b832558	0.0040022545
29	0xbb377a60	-0.0027996525
30	0xbc934722	-0.017978255
31	0x3ccade30	0.02476415
32	0xba2abc40	-0.0006513037
33	0x3a17ef40	0.0005795844
34	0xbc6a3448	-0.014294691
35	0xbaa8b2c0	-0.0012870654
36	0xbbcd0050	-0.006256141
37	0xbbbcb668	-0.005759049
38	0xbad62740	-0.0016338602
39	0xbcbd40d8	-0.023102209
40	0xb897b000	-7.233024e-05
41	0x3c78da48	0.015188761
42	0x3bfe2e68	0.007756997
43	0xbcfd7568	-0.030939773
44	0x3c75c000	0.01499939
45	0x3ce480b4	0.027893402
46	0xb99e5480	-0.00030199066
47	0x3c2cd5e8	0.010549046
48	0x3c453b48	0.0120380595
49	0xbc5bbb0c	-0.013411295
50	0xbbc3f560	-0.0059801787
51	0xbcec63d2	-0.028856192
52	0xbca140a8	-0.01968415
53	0x3cba54b4	0.022745468
54	0x3b62b180	0.0034590662
55	0xbbbfcab8	-0.0058530234
56	0xbcfb5ca8	-0.03068383
57	0xbc198a94	-0.0093714185
58	0x3c0f0298	0.008728646
59	0x3c012720	0.007882863
60	0xbca693b6	-0.020334106
61	0x3b98e3f8	0.004665848
62	0x3cbcb0c0	0.0230335
63	0x3bdf5a88	0.006816212
64	0x3cb43c8a	0.022001524
65	0x3c479958	0.012182556
66	0x3cfa58e8	0.030559972
67	0xbc76e3c0	-0.015068948
68	0x39a55c80	0.0003154017
69	0xbba46e40	-0.0050180256
70	0xbcc1f164	-0.023674674
71	0xbc4304b8	-0.0119029805
72	0xbbed4010	-0.007240303
73	0xbc09fb10	-0.008421674
74	0x3c225e44	0.00991017
75	0xbb2aa210	-0.0026036538
76	0x3bea0bb8	0.0071425103
77	0x3b99faf0	0.0046991035
78	0x3c909cc4	0.017652877
79	0x3ca91e28	0.020644262
80	0x3ceb9272	0.028756354
81	0xbb5b74d0	-0.0033486374
82	0xbcd23086	-0.025657903
83	0x3c78f490	0.015195027
84	0x3ccc55ae	0.024943199
85	0x3c95bc8c	0.018278383
86	0x3b0f70b0	0.0021887235
87	0x3c3beab0	0.011469528
88	0xbcd36622	-0.025805537
89	0xbc96ddfe	-0.018416401
90	0x3c0a5248	0.008442469
91	0xba420680	-0.0007401481
92	0xbc18b47c	-0.009320375
93	0x3cec91b6	0.028878074
94	0xba9423c0	-0.0011302158
95	0x3c217bf0	0.009856209
96	0xbc9ee3dc	-0.019395761
97	0xbcf0d396	-0.029397767
98	0xbc6443fc	-0.013932224
99	0xbc4aec74	-0.012385476
100	0x3cd17524	0.025568552
101	0x3cb89b52	0.022535
102	0xbb9f8d38	-0.0048691295
103	0xbc53ea50	-0.012934282
104	0xbb98c8e8	-0.0046626218
105	0x3cc2e328	0.023789957
106	0xbcdf33d2	-0.02724639
107	0xbcf9c338	-0.030488595
108	0x39dcc500	0.00042108446
109	0x3a9da060	0.0012025945
110	0xbc856fee	-0.016288724
111	0x3c8ebc9a	0.017423917
112	0x3cb6093c	0.0222212
113	0xbc50d13c	-0.012745198
114	0xbbf6d720	-0.007532969
115	0x3b4cd280	0.0031253397
116	0x3cb864a4	0.022508927
117	0x3ca96026	0.02067573
118	0x3c9ba27c	0.018998377
119	0xbbcd51b8	-0.006265845
120	0x3cd64d2a	0.026159842
121	0x3bbf6868	0.0058413036
122	0xbcfdf3b0	-0.030999988
123	0xbc1ac5f8	-0.0094466135
124	0xbb88db50	-0.0041765347
125	0xbbdccca0	-0.0067382604
126	0xbcb71172	-0.022347186
127	0xbce10730	-0.027469248
128	0xbcc9adb2	-0.024618957
129	0xbb1c9970	-0.0023895167
130	0xb9c89880	-0.00038260594
131	0x3c629d5c	0.013831463
132	0xbcd4db8c	-0.025983594
133	0xbccb449e	-0.024812993
134	0xbbaf4d30	-0.0053497776
135	0xbc7248d8	-0.014787875
136	0xbc4a3e68	-0.01234398
137	0x3bedf580	0.007261932
138	0x3bd60820	0.0065317303
139	0xbaf6dfa0	-0.0018834956
140	0x3cb9062a	0.022585947
141	0x3a7cdb40	0.0009645708
142	0x3cd1388a	0.025539655
143	0xbb1937b0	-0.002337914
144	0x3cf711e4	0.030159898
145	0xba193500	-0.00058443844
146	0xbca5a118	-0.020218417
147	0xbcbf9a6a	-0.02338906
148	0xbc2c0624	-0.010499511
149	0x3b8cf020	0.004301086
150	0x3cd353f8	0.025796875
151	0x3c943d98	0.018095776
152	0x3c8817aa	0.016612846
153	0x3c18c710	0.009324804
154	0x3ca8716c	0.020561896
155	0xbc955a3c	-0.018231504
156	0xbbec19d8	-0.0072052293
157	0xbcbef190	-0.023308545
158	0xbcbca1ae	-0.023026314
159	0x3869c000	5.5730343e-05
160	0x3cd1b594	0.025599279
161	0xbbb24ef8	-0.0054415427
162	0xbbc2f488	-0.0059495606
163	0x3ceee490	0.029161721
164	0x3c8fdb76	0.017560702
165	0x3ae3e0e0	0.0017385744
166	0x3bab6408	0.0052304305
167	0x3ccb4ff2	0.024818394
168	0x3c921c9a	0.017835904
169	0x3cb7f4be	0.02245557
170	0xbca1ebc6	-0.019765746
171	0xbc8c72a0	-0.017144501
172	0xbcdddc0a	-0.027082462
173	0xbc158c7c	-0.009127732
174	0xbc786874	-0.015161622
175	0xbca1eec6	-0.019767176
176	0xbc447fc8	-0.011993356
177	0xbc94c63a	-0.018160928
178	0x3ca4a3c8	0.020097628
179	0xbcdff190	-0.027336866
180	0x3cf295fe	0.029612537
181	0xbcd09fa2	-0.025466744
182	0xbcb4eef6	-0.022086602
183	0x3b3781f0	0.0028001033
184	0x3c14ccc0	0.009082019
185	0x3c6481d8	0.013946973
186	0x3c80b08e	0.015709188
187	0xbcda242c	-0.026628576
188	0xbcb0cbee	-0.021581616
189	0x3cd104da	0.025515009
190	0x3c853c46	0.016264092
191	0x3b857878	0.004073199
192	0xbc127c28	-0.008940734
193	0x3ccec88c	0.025242113
194	0xbc7e6018	-0.01552584
195	0xbcdaec72	-0.026724074
196	0xbceda28a	-0.029008169
197	0x3cdbcf40	0.026832223
198	0x3b862038	0.0040931962
199	0xbcb8f652	-0.022578392
200	0xbccbb9ee	-0.024868932
201	0x3c889d10	0.016676456
202	0x3c8304e6	0.015993547
203	0x3ce1ee98	0.02757959
204	0xbc1c73b0	-0.009549066
205	0xbcccfdbe	-0.025023337
206	0x3cd056b2	0.025431965
207	0xbc9e4f4c	-0.019324921
208	0x3ca982dc	0.020692281
209	0x3cb5cb1a	0.022191573
210	0xbc39ef5c	-0.011348572
211	0xbc940970	-0.018070906
212	0x3c6bbf90	0.014388934
213	0x3cdf7bd8	0.027280733
214	0xbcedee68	-0.029044345
215	0xbca451ae	-0.02005848
216	0x3cd8a6b2	0.026446674
217	0x3c6bcf18	0.014392637
218	0x3cdfaee4	0.027305074
219	0x3c83b4a8	0.016077355
220	0x3c7a02dc	0.015259471
221	0x3cc7bd40	0.024382234
222	0xbcd94cf0	-0.026525944
223	0x3c934cea	0.017981011
224	0x3c59e7ec	0.013299923
225	0xbc002c50	-0.007823065
226	0xbb27e5e0	-0.0025619194
227	0xbcf1be0c	-0.029509567
228	0xbc7de9ec	-0.015497666
229	0x3bd1ed00	0.0064064264
230	0xbcbc5546	-0.02298988
231	0xbc1e9ef8	-0.009681456
232	0x3ce6e950	0.028187424
233	0xbbb87c08	-0.00563002
234	0xbc5323b0	-0.0128869265
235	0x3cf69010	0.030097991
236	0x3cabc1aa	0.02096637
237	0x3ce77dfa	0.028258312
238	0xbc854834	-0.01626978
239	0x3c9cfe38	0.01916419
240	0xbc20299c	-0.009775545
241	0x3cd9672a	0.02653845
242	0x3cb777b4	0.022395946
243	0xbcafd3b6	-0.021463256
244	0xbcbfceee	-0.023414101
245	0x3c6ff734	0.01464634
246	0x3c954580	0.018221617
247	0xbc96ee50	-0.018424183
248	0x3cc5c09a	0.024139691
249	0xbc3f88a0	-0.011690289
250	0x3c6efd74	0.014586795
251	0x3c20e04c	0.009819102
252	0xbcc38ac6	-0.023869883
253	0x39a63c80	0.00031707063
254	0x3ca7489c	0.020420365
255	0x3c94e0c2	0.01817358

k1.rk_layers.0.equal_size_conv.bias f4 [10]
0	0xbcde0a7c	-0.027104609
1	0x3cbf151a	0.023325492
2	0x3b1c5070	0.0023851655
3	0x3c59c060	0.013290495
4	0xbc39b4c8	-0.0113346055
5	0xbc189928	-0.009313859
6	0xbc11fd1c	-0.008910444
7	0xbcea894e	-0.028629925
8	0xbcb2c13a	-0.021820653
9	0x3c859288	0.016305223
