summary/CNN_ReLUKAN.onnx (onnx, 876360 bytes, 10 tensors)

conv1.weight f4 [16, 1, 3, 3]
0	0xbe8ed98c	-0.2790035
1	0x3d86e1bc	0.06586024
2	0x3e057c10	0.13035607
3	0x3d82f79c	0.06394884
4	0x3dcacaa4	0.09901932
5	0x3e17fef6	0.14843354
6	0x3e90efff	0.28308102
7	0x3e9c2abd	0.30501357
8	0x3ddb98ac	0.10722479
9	0xbe19a7a6	-0.15005359
10	0x3e93bff7	0.28857395
11	0xbe075ab8	-0.132182
12	0x3e6e040a	0.23243728
13	0xbdd1768c	-0.10227689
14	0xbe8281c7	-0.25489637
15	0xbd5c76b8	-0.053824157
16	0x3e8ed465	0.2789642
17	0x3b8a6f40	0.004224688
18	0xbea9184b	-0.33026347
19	0xbdb70056	-0.08935611
20	0xbea812ee	-0.32826942
21	0x3e908c99	0.28232267
22	0xbe0f83c8	-0.14015114
23	0xbe1f311b	-0.15546076
24	0x3e415e2a	0.18883577
25	0x3e76cfb2	0.24102667
26	0x3e961bfd	0.29318228
27	0x3e530e12	0.20610836
28	0x3dd1a570	0.10236633
29	0xbd9f3590	-0.07773888
30	0xbdd88e80	-0.10574055
31	0x3e630066	0.2216812
32	0xbe1bf263	-0.15229182
33	0x3e7e2ba2	0.24821332
34	0xbe798a9b	-0.2436928
35	0x3e0ec482	0.1394215
36	0x3e9ffa21	0.3124552
37	0xbe6a2f10	-0.22869515
38	0x3e08f8de	0.13376185
39	0x3e82c015	0.25537172
40	0x3e9ff511	0.31241658
41	0xb9614000	-0.00021481514
42	0xbc31b280	-0.01084578
43	0xbdcca07c	-0.099915475
44	0x3e1dea10	0.15421319
45	0xbdcab730	-0.098982215
46	0xbda4e30c	-0.08051118
47	0xbe478b0e	-0.19486639
48	0xbdd6eb20	-0.10494065
49	0xbe2a4833	-0.16629104
50	0x3e73fa1a	0.23825875
51	0xbe2b7fa6	-0.16747913
52	0xbe825a33	-0.25459442
53	0x3e5aa6ca	0.21352687
54	0xbe84e52e	-0.259561
55	0x3e983369	0.29726723
56	0xbd425920	-0.047448277
57	0xbe3e5786	-0.18588075
58	0xbe60be28	-0.21947539
59	0xbe531f58	-0.20617425
60	0xbea27dae	-0.3173651
61	0xbe4d7e26	-0.20067653
62	0x3cc885f0	0.024477929
63	0x3ea701e9	0.32618645
64	0xbe9cc5e4	-0.3061973
65	0xbe391f66	-0.18078384
66	0x3e43a28a	0.19104972
67	0x3c952a10	0.018208534
68	0x3e9bbbb7	0.30416653
69	0xbe6c8f10	-0.23101449
70	0x3df67044	0.12033132
71	0xbe24b82e	-0.16085884
72	0xbdaa0580	-0.0830183
73	0x3e810a99	0.25203398
74	0x3e4ca696	0.19985422
75	0xbea5135a	-0.32241327
76	0xbe558a3e	-0.20853516
77	0x3d8afa70	0.067860484
78	0x3e0fe2c8	0.14051354
79	0x3e3b169e	0.18270347
80	0xbc5d2ce0	-0.013499469
81	0xbca95f50	-0.020675331
82	0xbe830e3b	-0.25596794
83	0xbd727928	-0.059197575
84	0xbe6453f3	-0.22297649
85	0x3d618400	0.055057526
86	0x3ea1e7ff	0.3162231
87	0xbb6e9e00	-0.0036410093
88	0x3e70c406	0.23512277
89	0xbe885814	-0.26629698
90	0xbd4132c8	-0.04716757
91	0xbe1242c8	-0.14283288
92	0x3e662976	0.22476754
93	0xba03c000	-0.00050258636
94	0xbe63a463	-0.22230677
95	0xbe6b68c3	-0.22989182
96	0xbe492c0e	-0.19645712
97	0xbe7db996	-0.24777827
98	0xbe0a3e8b	-0.13500421
99	0xbe2ef406	-0.17085275
100	0xbe72c908	-0.237095
101	0x3e007018	0.1254276
102	0xbe1c2700	-0.15249252
103	0x3e874bbf	0.26424977
104	0x3ea51e8d	0.3224987
105	0x3e641282	0.22272685
106	0x3e0c0f4e	0.13677713
107	0xbe73eac6	-0.23820028
108	0x3e104eba	0.14092532
109	0xbe984063	-0.29736623
110	0xbe5a85e3	-0.21340136
111	0x3e861825	0.26190296
112	0x3dcc13bc	0.099647015
113	0xbc69e420	-0.014275581
114	0xbcd84a90	-0.026402742
115	0x3d2cce58	0.042188972
116	0x3db4d764	0.08830145
117	0xbdebe4bc	-0.11518237
118	0xbe352ca8	-0.17692816
119	0x3e5fe81a	0.21865883
120	0x3e13142a	0.1436316
121	0x3e83f63b	0.25773796
122	0xbe09e27e	-0.13465306
123	0x3d4e70b8	0.050400466
124	0x3ce886b0	0.028384537
125	0xbe914c5c	-0.2837857
126	0xbe8aea22	-0.27131754
127	0x3ea50c4b	0.3223594
128	0xbe700a4b	-0.23441426
129	0x3e8e0d61	0.27744582
130	0x3ea3d955	0.3200175
131	0x3d9c5394	0.07633129
132	0xbe2a3223	-0.16620688
133	0xbe814f36	-0.25255746
134	0xbe35f626	-0.1776968
135	0xbe1605c0	-0.14650631
136	0x3e74c29e	0.23902366
137	0xbd85d6c4	-0.06535104
138	0xbdbcb3a0	-0.09213948
139	0xbd6d67b8	-0.057960242
140	0x3e1c832e	0.15284416
141	0x3e9dd349	0.3082526
142	0x3e928bff	0.28622434
143	0x3e84b88d	0.2592205

conv1.bias f4 [16]
0	0xbe074950	-0.1321156
1	0x3e59c2d2	0.21265724
2	0xbd99ea9c	-0.07515451
3	0x3e2d0206	0.16895303
4	0x3dd3d580	0.10343456
5	0x3ea857ad	0.3287939
6	0x3e913395	0.28359666
7	0x3b8c5b40	0.004283339
8	0xbe73bdc8	-0.23802865
9	0xbe2f110e	-0.1709635
10	0x3d4de0e0	0.050263286
11	0xbe5fb8c8	-0.21847832
12	0x3dac6b84	0.084189445
13	0xbe5dff0b	-0.21679322
14	0xbe24ea46	-0.16104993
15	0x3d89502c	0.06704745

conv2.weight f4 [32, 16, 3, 3]
0	0xbd9b1726	-0.075727746
1	0x3d23a352	0.039950676
2	0xbd290920	-0.041268468
3	0x3c0bf0c8	0.008541293
4	0x3d1d8308	0.03845504
5	0x3c3f5728	0.0116784945
6	0xbd80203f	-0.062561505
7	0x3d73eb42	0.05955053
8	0x3d5c60a6	0.05380311
9	0xbd02eb60	-0.031962752
10	0xbd93a03a	-0.07208295
11	0xbda51bd6	-0.0806195
12	0x3d1df9ce	0.03856831
13	0x3d81b7d5	0.06333891
14	0xbb59fea0	-0.003326334
15	0x3cfc0760	0.030765235
16	0x3cffc1e0	0.031220376
17	0x3d276eb0	0.040877044
18	0xbd88e406	-0.06684117
19	0x3d08adbe	0.03336882
20	0xbd82583e	-0.06364487
21	0xbc8e095c	-0.017338447
22	0xbcb99586	-0.022654306
23	0x3d53bdf2	0.051694818
24	0xbd585388	-0.052814037
25	0xbb91bf50	-0.004447855
26	0xbd241156	-0.040055595
27	0xbd8e0bc8	-0.06935841
28	0xbd433598	-0.047658533
29	0xbcda6a06	-0.026661884
30	0x3d6422ca	0.05569724
31	0xbd56bcb8	-0.05242607
32	0x3d82aa07	0.063800864
33	0xbaa47740	-0.0012547746
34	0xbcc20530	-0.023684114
35	0x3d95f4df	0.07322096
36	0x3da9d4dd	0.082925536
37	0x3d87b19d	0.06625674
38	0x3c0aa478	0.008462064
39	0xb91cae00	-0.0001494214
40	0x3cc55cb0	0.024092048
41	0xbc4abb78	-0.012373798
42	0xbca6ad34	-0.020346262
43	0xbd985026	-0.07437162
44	0x3d8bdd11	0.068292744
45	0xbd2608eb	-0.04053585
46	0x3cf3f560	0.02978009
47	0xbd08c35b	-0.03338943
48	0x3c97f4b0	0.018549293
49	0x3d4fcc32	0.050731845
50	0x3da4465d	0.08021233
51	0x3d2d0532	0.042241283
52	0xbd8e075a	-0.06934996
53	0x3cea017c	0.02856516
54	0x3c8f66c4	0.017505057
55	0xbd129ad6	-0.035792194
56	0xbd534fce	-0.05158978
57	0x3d9e11bb	0.077182256
58	0x3d4aca4e	0.04950934
59	0x3d884bfd	0.066551186
60	0xbc84df84	-0.016219862
61	0xbd8ad378	-0.06778616
62	0x3ce81460	0.028330028
63	0x3c526828	0.012842216
64	0xbda1a6e4	-0.0789316
65	0xbd0d13db	-0.034442764
66	0xbcabc590	-0.020968229
67	0x3d414242	0.04718233
68	0xbd4cf69e	-0.05003988
69	0x3d5c03d6	0.053714596
70	0xbd644023	-0.055725228
71	0xbac02c00	-0.001466155
72	0xbd95e128	-0.07318336
73	0x3c548808	0.0129718855
74	0xbd88c7e4	-0.06678751
75	0x3d2f0b6a	0.042735495
76	0xbd642808	-0.05570224
77	0x3bf1f7c0	0.0073842704
78	0x3d272382	0.040805347
79	0x3d471cda	0.0486115
80	0x3b99cbf0	0.0046935007
81	0x3d3514da	0.04420934
82	0x3cfeffd0	0.03112784
83	0xbda57213	-0.080783986
84	0xbc254fc8	-0.010089822
85	0xbbe8e600	-0.0071074963
86	0xbd936612	-0.07197203
87	0x3c5538a0	0.013013989
88	0x3d325842	0.0435412
89	0xbd97f294	-0.07419315
90	0x3d6353da	0.05549989
91	0x3d03b00a	0.032150306
92	0x3da8d079	0.08242888
93	0xbc86fc64	-0.016477771
94	0xbcfdf576	-0.031000834
95	0x3d97a5ef	0.07404696
96	0xbd7284d8	-0.05920872
97	0xbcd936f6	-0.026515465
98	0xbd16351b	-0.03667174
99	0xbd86a3a6	-0.06574182
100	0x3d60533e	0.054766886
101	0x3da49299	0.08035774
102	0x3d9137a5	0.070906915
103	0x3c9bc300	0.019013882
104	0x3d7f91e6	0.062395
105	0xbd6de386	-0.05807831
106	0x3c1b8178	0.009491317
107	0xbd95b4e6	-0.07309894
108	0x3d9efdc1	0.077632435
109	0x3d764e7a	0.060133435
110	0x3cbada74	0.022809245
111	0xbd523550	-0.051320374
112	0x3ce43270	0.027856082
113	0x3cce1ad4	0.025159277
114	0x3ca1cc20	0.019750655
115	0xbcfd594c	-0.03092637
116	0xbd94687e	-0.07246493
117	0xb8807000	-6.124377e-05
118	0xbd866c53	-0.0656363
119	0x3c79bd60	0.015242904
120	0x3b591b60	0.003312789
121	0x3d98a7f5	0.0745391
122	0x3cc038fc	0.023464672
123	0x3d879541	0.06620265
124	0xbc017ef8	-0.007903807
125	0xbda52f27	-0.08065634
126	0x3c96ed14	0.018423595
127	0xbcd6f636	-0.02624045
128	0xbd4e90c6	-0.050431035
129	0xbda49536	-0.08036272
130	0x3d61beaa	0.055113472
131	0x3caf9a64	0.021435924
132	0x3d043f62	0.03228701
133	0x3d0c34a6	0.034229897
134	0x3c9e46ec	0.019320928
135	0xbb33a020	-0.0027408674
136	0x3cf89b3c	0.030347459
137	0x3c06ab28	0.008219518
138	0xbcc0d7bc	-0.02354037
139	0xbd483c73	-0.048885774
140	0x3d3a16da	0.04543195
141	0x3d6a6c46	0.057232164
142	0x3d972c9b	0.07381555
143	0xbda09256	-0.07840411
144	0x3d4ef692	0.050528117
145	0xbcfd8aac	-0.030949913
146	0x3cb9a6c4	0.022662528
147	0x3c425458	0.011860929
148	0xbcf309c6	-0.029667746
149	0xbc8509cc	-0.016240023
150	0x3d15b572	0.036549993
151	0x3a91ccc0	0.0011123642
152	0xbd8881a8	-0.06665355
153	0x3d712916	0.058877073
154	0x3c440880	0.011964917
155	0xbd844a1b	-0.06459447
156	0x3d0ea4c2	0.034825094
157	0x3d438302	0.04773236
158	0x3d90812b	0.07055887
159	0xbd8bd2b3	-0.06827297
160	0xbd8f3e0e	-0.06994258
161	0x3d3fc842	0.04682184
162	0x3d81c301	0.06336022
163	0xbc697e18	-0.0142512545
164	0x3cc81be0	0.024427354
165	0x3d6836be	0.05669283
166	0xbd874e72	-0.06606759
167	0xbc906470	-0.017626017
168	0x3d0ca9e0	0.034341693
169	0xbc6e9f80	-0.014564395
170	0x3d439b42	0.047755487
171	0xbbedea30	-0.0072605833
172	0x3d4d365a	0.05010066
173	0x3d9227dd	0.071365096
174	0xbcea84f6	-0.028627854
175	0xbd4c15be	-0.049825422
176	0xbc462558	-0.012093864
177	0x3d86c195	0.065798916
178	0x3da074d1	0.07834781
179	0xbd12cec0	-0.035841703
180	0xbbeb2cb0	-0.007176958
181	0x3d07f40e	0.033191733
182	0xbd9e49c7	-0.07728916
183	0x3d9b8a11	0.075946935
184	0x3d963035	0.073334135
185	0xbcefbe70	-0.029265612
186	0xbd7c04be	-0.06152796
187	0xbd9ffaf6	-0.07811539
188	0xbda2df57	-0.07952755
189	0x3beb3af0	0.0071786568
190	0xbd592798	-0.053016275
191	0x3d565af2	0.052332826
192	0x3b6ac6a0	0.0035823956
193	0xbcaabc26	-0.02084167
194	0x3d91c00b	0.071167074
195	0x3ca45470	0.020059794
196	0x3d2a80b2	0.04162664
197	0x3d093880	0.03350115
198	0x3da644dd	0.081186034
199	0x3da091b5	0.078402914
200	0x3d9dd9af	0.077075355
201	0xbd7f1eeb	-0.062285345
202	0x3c4c75d8	0.012479268
203	0xbbe62fd0	-0.0070247427
204	0xbcd48810	-0.025943786
205	0xbcc1cd70	-0.02365753
206	0xbd096d28	-0.033551365
207	0x3d8df601	0.06931687
208	0x3d279eb0	0.04092282
209	0xbd8a3547	-0.06748443
210	0xbd7484e0	-0.059697032
211	0x3cd4653c	0.025927179
212	0x3c9e1cd4	0.019300856
213	0x3d11f6d8	0.0356358
214	0x3c120200	0.00891161
215	0x3da207cd	0.07911644
216	0xbd78c670	-0.06073612
217	0xbd28431e	-0.041079633
218	0xbd0195ab	-0.031636875
219	0x3d81c325	0.06336049
220	0xbcb03380	-0.021508932
221	0xbd9562e0	-0.072942495
222	0x3cf58410	0.029970199
223	0xbd8dbfc4	-0.06921342
224	0xbd585480	-0.05281496
225	0xbd17200e	-0.036895804
226	0xbd01e700	-0.03171444
227	0xbd4820c8	-0.048859388
228	0xbd762670	-0.06009525
229	0x3d05e8ce	0.032692723
230	0x3d132d8e	0.035932116
231	0xbd88b3e8	-0.066749394
232	0xbd89e9b6	-0.0673403
233	0x3bae4080	0.0053177476
234	0x3b88baf0	0.0041726753
235	0x3da7df09	0.081968375
236	0xbb81bb80	-0.0039591193
237	0xbd440376	-0.047854863
238	0xbda148b4	-0.07875195
239	0x3d8e8be5	0.069602765
240	0xbd66247b	-0.056187134
241	0xbd81cf16	-0.06338327
242	0xbc9d8c50	-0.019231945
243	0xbd8c091c	-0.06837675
244	0xbd608c60	-0.054821372
245	0xbca539bc	-0.020169131
246	0xbd785d28	-0.060635716
247	0xbd9b765a	-0.07590933
248	0xbd171956	-0.036889397
249	0x3d909fdb	0.0706174
250	0x3d391dc2	0.045194395
251	0x3d18dbb2	0.037318893
252	0x3d8ddfc1	0.06927443
253	0xbda90dfc	-0.082546204
254	0xbc9a07a4	-0.018802471
255	0xbc2570d8	-0.010097705

conv2.bias f4 [32]
0	0xbce9289c	-0.028461747
1	0xbcb1ad8c	-0.021689199
2	0x3ce40330	0.027833551
3	0x3c8c5a9c	0.01713305
4	0x3d888dad	0.066676475
5	0x3d996b9d	0.07491229
6	0xbbae18d0	-0.0053130165
7	0x3d8e79a3	0.06956794
8	0x3d1c16ee	0.038107805
9	0xbb998cc0	-0.004685968
10	0x3d824e19	0.06362552
11	0x3d8a5d1f	0.06756043
12	0xbd6e2128	-0.05813709
13	0xbccd6b6c	-0.025075637
14	0x3d91be89	0.0711642
15	0xbd253b56	-0.04033979
16	0xbc9a3250	-0.018822819
17	0xbc83dd90	-0.01609686
18	0xbbd33c10	-0.006446369
19	0xbd976cd3	-0.073938034
20	0x3da30409	0.07959754
21	0xbc9f5570	-0.01944992
22	0xbd9c7138	-0.07638782
23	0xbcacf250	-0.021111637
24	0xbba5beb0	-0.005058132
25	0xbd1a6083	-0.037689697
26	0x3ad71140	0.0016408339
27	0x3be62b00	0.007024169
28	0xbd618cf0	-0.05506605
29	0xbcebf330	-0.028802484
30	0xbd003a1e	-0.031305425
31	0x3c42acc0	0.011882007

fc1.weight f4 [128, 1568]
0	0xbba22714	-0.004948506
1	0x3ca49728	0.020091608
2	0x3c19bd10	0.009383455
3	0x3c08b658	0.008344255
4	0xbc8c535c	-0.017129593
5	0xbc39c20b	-0.011337767
6	0x3c81b9c4	0.01583565
7	0xbc9d5dd5	-0.019209782
8	0x3b18e580	0.0023330152
9	0x3c829c22	0.01594359
10	0x3cc2941c	0.023752265
11	0xbc595768	-0.013265468
12	0x3ac6a560	0.0015155487
13	0xbbe94928	-0.0071193166
14	0xbc814110	-0.015778095
15	0xbc943aa4	-0.018094368
16	0xbbfeb320	-0.007772818
17	0x3ba617e0	0.005068764
18	0xbc954ff7	-0.018226607
19	0xbbf0e4a8	-0.0073514767
20	0xbc41901d	-0.011814144
21	0x3befca70	0.0073178336
22	0xbc216b7c	-0.009852286
23	0x3c3f7e78	0.011687867
24	0xbab0d270	-0.001349045
25	0x3ca77b92	0.020444665
26	0xbc1f1b04	-0.009711031
27	0x3c9660fe	0.018356796
28	0x3c10e4f4	0.008843649
29	0x3ca79796	0.020458024
30	0xbbf06498	-0.0073362105
31	0x3c272e28	0.010203876
32	0x3ca23dbe	0.019804832
33	0xbcc29f5e	-0.023757633
34	0xbc9c6899	-0.019092845
35	0xbc40068e	-0.011720313
36	0xbca98ff7	-0.02069853
37	0x3bdaa378	0.006672319
38	0x3c5e5760	0.0135706365
39	0x3c59394c	0.01325829
40	0xbcad55c8	-0.021159068
41	0xbbb543e0	-0.005531773
42	0x3bf78710	0.0075539425
43	0x3c9253ee	0.017862286
44	0x3c786760	0.015161365
45	0xbca2ad3d	-0.019857997
46	0xbab2ae00	-0.0013632178
47	0xbbe0f7f4	-0.006865496
48	0x3b803b88	0.0039133467
49	0x3cc51128	0.024056032
50	0x3c6aaa48	0.014322825
51	0xbc9067a5	-0.017627547
52	0xbc7e39fb	-0.015516753
53	0xbbf6b36c	-0.007528713
54	0x3c074894	0.00825705
55	0xbc879eb9	-0.016555177
56	0xbc290133	-0.010315227
57	0x3c1a544c	0.009419512
58	0x3ca83dac	0.02053722
59	0xbbde150c	-0.0067774113
60	0x3cbc0ba2	0.022954766
61	0xbc665175	-0.014057507
62	0xbb944a58	-0.004525464
63	0x3c03b418	0.008038543
64	0x3a11fba0	0.0005568806
65	0x3bc58c98	0.006028723
66	0x3c7ba080	0.01535809
67	0xbc59c6ed	-0.0132920565
68	0x3caba52a	0.02095278
69	0xbae746c0	-0.0017644987
70	0xbbc53ecc	-0.006019449
71	0x3b8b3718	0.004248511
72	0x3ca5ea6c	0.020253383
73	0x3a4c3900	0.0007790476
74	0xbcc523ea	-0.024064977
75	0xbb113a38	-0.0022159945
76	0x3bfafc88	0.0076594986
77	0x3c4595fc	0.012059685
78	0xbc329545	-0.010899846
79	0xbb327c88	-0.002723487
80	0xbcb914ad	-0.022592867
81	0x3ca9c942	0.02072585
82	0x3ba160fc	0.0049248915
83	0x3c8a7872	0.016903136
84	0xbbc05864	-0.005869912
85	0x3ccc8086	0.024963629
86	0x3ccc358c	0.024927877
87	0xbb7e78d8	-0.0038829353
88	0x3cca4a50	0.024693638
89	0x3cbec402	0.023286823
90	0x3c63b6d0	0.013898566
91	0x3bc86390	0.0061153844
92	0x3cbac55c	0.022799186
93	0xbc9f5d0b	-0.019453546
94	0xbcb4ece9	-0.022085624
95	0x3aeda4c0	0.0018130764
96	0xbb4f0980	-0.0031591356
97	0xbc256177	-0.010094038
98	0x3c002448	0.00782115
99	0x3b239508	0.0024960656
100	0xbb703a88	-0.003665598
101	0xbc3d6a71	-0.011561022
102	0xbc18a884	-0.009317521
103	0x3b9ea618	0.0048415773
104	0xbcc140fe	-0.023590561
105	0x3c52b1e4	0.012859795
106	0xbb991a38	-0.004672315
107	0xbc9e8dac	-0.019354664
108	0xbc9ba99f	-0.01900178
109	0xbb28f610	-0.002578143
110	0xbcc89866	-0.024486732
111	0x3c0564b4	0.008141685
112	0xbc5f34a1	-0.013623388
113	0xbadacbe0	-0.001669284
114	0x3bc91c08	0.006137375
115	0xbca17b12	-0.019712005
116	0xbc89ecf9	-0.01683663
117	0xbace1470	-0.0015722644
118	0x3c6f63e8	0.014611222
119	0xbc7782fe	-0.015106915
120	0xbc935cf0	-0.017988652
121	0xbb7b1ed0	-0.0038317926
122	0x3c5f335c	0.013623085
123	0x3c68d010	0.014209762
124	0xbcac5b5d	-0.02103966
125	0x3c16fd70	0.009215698
126	0x3ca7909e	0.020454701
127	0xbbd99314	-0.0066398475
128	0xbc8988ce	-0.016788866
129	0xbcb1f19e	-0.021721657
130	0xbca9afb1	-0.020713659
131	0xbcc5d193	-0.024147784
132	0xbc051248	-0.008122034
133	0x3c59dfa8	0.013297953
134	0x3ca08d2c	0.019598566
135	0x3ca29418	0.019846007
136	0xbbdf8258	-0.006820958
137	0x3c528d98	0.012851141
138	0x3bafbf78	0.005363401
139	0xbcacf2a0	-0.021111786
140	0xbc7273c6	-0.01479811
141	0x3c1e34e8	0.0096561685
142	0x3cb763ba	0.02238642
143	0xbc9fd5ef	-0.019511191
144	0x3cb9f27c	0.022698633
145	0xbc3b9ebf	-0.011451422
146	0x3c7bc928	0.015367784
147	0x3cc26802	0.023731235
148	0x3b025df0	0.0019892417
149	0xbcb05fc9	-0.021530049
150	0x3be9c330	0.007133864
151	0xbbe81948	-0.007083092
152	0xbcae5ed8	-0.02128546
153	0xbb0a2ee0	-0.0021085069
154	0x3afcd990	0.0019290913
155	0xbc8d0b3a	-0.017217267
156	0xbb601278	-0.0034190696
157	0xbc6aa4b2	-0.014321493
158	0x3c7c432c	0.015396874
159	0x3b377550	0.0027993508
160	0xbc3d35a9	-0.011548438
161	0xbcaa73cb	-0.020807168
162	0xbc9cbc62	-0.019132797
163	0xbbda4558	-0.0066610985
164	0x3c458208	0.012054928
165	0xbcce3342	-0.025170926
166	0x3c1bc91c	0.009508397
167	0xbc8e6494	-0.017381944
168	0x3c6f37b8	0.014600687
169	0x3ba8e994	0.005154798
170	0x3c723760	0.01478371
171	0x3c9d8cfa	0.019232262
172	0xbaeea500	-0.0018207133
173	0xbc2465a5	-0.010034
174	0xbcb8b7f3	-0.022548651
175	0xbc8a6232	-0.016892526
176	0xbc3906e6	-0.011293149
177	0xbca5cf80	-0.020240545
178	0x3c0c8c90	0.008578435
179	0x3c3f97d0	0.01169391
180	0x3c33b1e8	0.010967709
181	0x3c80f896	0.015743535
182	0xbccc3655	-0.024928251
183	0xbc45a6a4	-0.012063656
184	0xbccb5b41	-0.024823787
185	0xbcbb6f8e	-0.022880342
186	0xbc887f2a	-0.016662199
187	0xbc72350b	-0.014783154
188	0x3ccd3c8c	0.025053285
189	0xbcc2004d	-0.023681784
190	0x3acfed90	0.0015863646
191	0x3bbb2e80	0.0057123303
192	0xbb545220	-0.0032397583
193	0x3c9b2dec	0.018942796
194	0xbcbc58b2	-0.022991512
195	0xbbdfabd8	-0.0068259053
196	0xbc408d69	-0.011752465
197	0xbc1fc654	-0.009751875
198	0x3c08737c	0.008328315
199	0xbc662a02	-0.014048101
200	0x3be64f10	0.007028468
201	0xbc2e2444	-0.010628764
202	0xbc6059a3	-0.013693246
203	0xba304680	-0.00067243725
204	0xbca68cda	-0.020330835
205	0x3c7109bc	0.0147117935
206	0xbcbc73b6	-0.023004394
207	0xbc595692	-0.013265269
208	0x3c42ea98	0.011896752
209	0x3cc09b9e	0.023511704
210	0x3c21dbac	0.009879034
211	0x3c2ad6f4	0.010427225
212	0xbaad3ec0	-0.0013217553
213	0xbc8091da	-0.015694547
214	0x3c89312a	0.016747076
215	0xbb5f24d8	-0.003404906
216	0xbaac24a0	-0.0013133474
217	0x3bed89c0	0.007249087
218	0xbc2ed1d9	-0.010670149
219	0xbc70e151	-0.014702157
220	0x3ca4bc90	0.020109445
221	0xbcc92fec	-0.024558984
222	0xbc814702	-0.01578093
223	0xbae3ac30	-0.0017370041
224	0x3c508b34	0.012728501
225	0x3cacf108	0.021111026
226	0xbc862606	-0.016375553
227	0xbb892e7c	-0.0041864496
228	0xbc68e981	-0.014215828
229	0xbbb828fc	-0.00562012
230	0x3cb0df3a	0.021590818
231	0xbc353961	-0.0110610435
232	0xbc42a28b	-0.011879574
233	0x3bacd0ec	0.005273929
234	0x3c77a220	0.015114337
235	0xbc054268	-0.008133508
236	0x3bfebdd0	0.0077740923
237	0xbbc56c40	-0.0060248673
238	0xbcbdf04b	-0.02318587
239	0x3bb34c34	0.0054717306
240	0x3ca5a66e	0.020220961
241	0xbc8265dc	-0.015917711
242	0x3c763864	0.015028093
243	0xbc977e7a	-0.018492926
244	0x3c68e38c	0.014214408
245	0x3c97506e	0.018470969
246	0xbbd6ff80	-0.0065612197
247	0xbb1032d0	-0.0022002943
248	0xbbf073ec	-0.0073380377
249	0xbb849cc8	-0.00404701
250	0xbc43931a	-0.011936927
251	0xb9a18c00	-0.0003081262
252	0x3c8b3ef2	0.016997788
253	0x3c465df4	0.012107361
254	0xbb3d4240	-0.00288786
255	0x3c7a55bc	0.01527923

fc1.bias f4 [128]
0	0xbbc7c38c	-0.006096309
1	0x3c521310	0.012821928
2	0xbc959c36	-0.018262964
3	0xbc6ade67	-0.014335251
4	0xba0ff2c0	-0.00054911897
5	0xbc1b61b2	-0.009483742
6	0x3c3baab8	0.011454277
7	0x3c9958e2	0.01871914
8	0x3a93b3a0	0.0011268742
9	0xbb731ec8	-0.0037097204
10	0x3b8e5ed4	0.0043448005
11	0xbc5fbc99	-0.013655805
12	0xbc5d9993	-0.0135253845
13	0xbb2c74d0	-0.0026314743
14	0x3c8d3144	0.017235406
15	0xbb22a350	-0.002481658
16	0xbc4b0f25	-0.012393747
17	0x3cc7e312	0.024400268
18	0x3c8cc6e6	0.017184686
19	0xbc981128	-0.018562868
20	0x3ba4b1b4	0.0050260667
21	0x3c98a622	0.018633906
22	0xbc97ce27	-0.018530918
23	0xbcb72b3e	-0.022359487
24	0x3b2885a8	0.002571443
25	0x3b97acf4	0.004628772
26	0x3c21c750	0.00987418
27	0x3ca78f50	0.020454079
28	0x3be5a588	0.0070082583
29	0xbc5a5f65	-0.013328408
30	0xbcbb67b0	-0.02287659
31	0x3c803204	0.01564885
32	0xbcb6cc93	-0.022314345
33	0x3c2a09f8	0.010378353
34	0x3c22dd7c	0.009940501
35	0x3941e980	0.000184929
36	0x3c151ca4	0.009101067
37	0x3c50557c	0.012715694
38	0x3ca163bc	0.019700877
39	0xbc5e970c	-0.013585817
40	0x3cc1c8d8	0.02365534
41	0xbc2250b7	-0.009906939
42	0x3be08e10	0.0068528727
43	0x3c58427c	0.013199445
44	0xbca6fde8	-0.020384744
45	0x3c8615ae	0.01636776
46	0xbc8f80e3	-0.017517513
47	0x3bb604c0	0.0055547655
48	0xbc35393a	-0.011061007
49	0x3cb29566	0.021799754
50	0x3c909402	0.0176487
51	0xbc2cdfd2	-0.01055141
52	0xbc05baf0	-0.008162245
53	0xbaece750	-0.0018074308
54	0xbbdd1e2c	-0.0067479815
55	0x3cb662c4	0.022263892
56	0x3cb76bee	0.022390332
57	0x3bde76a8	0.0067890473
58	0x3c0b4584	0.008500461
59	0xbcbfeca5	-0.02342827
60	0x3a428960	0.0007420983
61	0x3c9d08a4	0.01916916
62	0x3cc23716	0.023707908
63	0x3cbd745c	0.023126774
64	0xbc7ce0a3	-0.015434417
65	0x3c1ff2f0	0.009762511
66	0xb9f10340	-0.00045969523
67	0xbc4e7598	-0.012601279
68	0xbc17d6d2	-0.009267526
69	0x3a6c7640	0.0009020306
70	0x3b87dd78	0.004146274
71	0x3b2cdf40	0.0026378185
72	0xbc5400a8	-0.01293961
73	0x3be65310	0.007028945
74	0x3b25e0f0	0.0025311075
75	0x3c1a3398	0.009411715
76	0xbb90b5cc	-0.004416203
77	0x3c109f7c	0.008827087
78	0x3c820c24	0.01587493
79	0xbbcc8b94	-0.006242225
80	0xbc92dbf7	-0.017927153
81	0x3a61d6e0	0.0008615088
82	0xbc9212ee	-0.017831292
83	0xbbfc44c4	-0.007698627
84	0xbc9294c4	-0.017893203
85	0x3bc322ec	0.0059550907
86	0x3bed0cf0	0.0072342083
87	0xbb4137f0	-0.0029482804
88	0x3c2275fc	0.009915825
89	0x3c1654a8	0.009175457
90	0x3ba6a450	0.0050855055
91	0x3bb9da48	0.005671773
92	0xbc5a6adf	-0.013331144
93	0xbc87cfb7	-0.016578538
94	0x3c94d7e4	0.01816935
95	0xbc5b6c0f	-0.013392462
96	0x3c814de4	0.015784211
97	0xbc4203f0	-0.011841759
98	0xbc8e7726	-0.017390799
99	0xbbba9028	-0.0056934543
100	0xbbd20b5c	-0.0064100455
101	0x3caba268	0.020951465
102	0x3baa5cc8	0.0051990487
103	0x3b4334f8	0.002978621
104	0xbb022958	-0.0019861069
105	0x3c400e18	0.01172211
106	0x3cb76d70	0.022391051
107	0xbc91cc54	-0.017797627
108	0x3ba57d60	0.0050503463
109	0x3c32c07c	0.01091015
110	0x3b8eb374	0.0043548886
111	0x3c962a04	0.018330581
112	0xbc394732	-0.011308478
113	0xbc0d1dc2	-0.008613052
114	0x3b983a4c	0.0046456214
115	0x3c3faa94	0.011698384
116	0x3c6d74f8	0.01449322
117	0xbb2ea1c8	-0.0026646722
118	0x3cb00c58	0.021490261
119	0xbb706428	-0.0036680792
120	0xbb3d19a8	-0.0028854404
121	0xbcb4f42a	-0.022089083
122	0x3bb31ce4	0.0054660905
123	0x3caec74e	0.02133527
124	0xbc0e6d62	-0.008693071
125	0xbcbe34ac	-0.023218475
126	0xbaa9c600	-0.0012952685
127	0x3ca5b19a	0.020226289

k1.rk_layers.0.phase_low f4 [128, 8]
0	0xbf19999a	-0.6
1	0xbecccccd	-0.4
2	0xbe4ccccd	-0.2
3	0x00000000	0.0
4	0x3e4ccccd	0.2
5	0x3ecccccd	0.4
6	0x3f19999a	0.6
7	0x3f4ccccd	0.8
8	0xbf19999a	-0.6
9	0xbecccccd	-0.4
10	0xbe4ccccd	-0.2
11	0x00000000	0.0
12	0x3e4ccccd	0.2
13	0x3ecccccd	0.4
14	0x3f19999a	0.6
15	0x3f4ccccd	0.8
16	0xbf19999a	-0.6
17	0xbecccccd	-0.4
18	0xbe4ccccd	-0.2
19	0x00000000	0.0
20	0x3e4ccccd	0.2
21	0x3ecccccd	0.4
22	0x3f19999a	0.6
23	0x3f4ccccd	0.8
24	0xbf19999a	-0.6
25	0xbecccccd	-0.4
26	0xbe4ccccd	-0.2
27	0x00000000	0.0
28	0x3e4ccccd	0.2
29	0x3ecccccd	0.4
30	0x3f19999a	0.6
31	0x3f4ccccd	0.8
32	0xbf19999a	-0.6
33	0xbecccccd	-0.4
34	0xbe4ccccd	-0.2
35	0x00000000	0.0
36	0x3e4ccccd	0.2
37	0x3ecccccd	0.4
38	0x3f19999a	0.6
39	0x3f4ccccd	0.8
40	0xbf19999a	-0.6
41	0xbecccccd	-0.4
42	0xbe4ccccd	-0.2
43	0x00000000	0.0
44	0x3e4ccccd	0.2
45	0x3ecccccd	0.4
46	0x3f19999a	0.6
47	0x3f4ccccd	0.8
48	0xbf19999a	-0.6
49	0xbecccccd	-0.4
50	0xbe4ccccd	-0.2
51	0x00000000	0.0
52	0x3e4ccccd	0.2
53	0x3ecccccd	0.4
54	0x3f19999a	0.6
55	0x3f4ccccd	0.8
56	0xbf19999a	-0.6
57	0xbecccccd	-0.4
58	0xbe4ccccd	-0.2
59	0x00000000	0.0
60	0x3e4ccccd	0.2
61	0x3ecccccd	0.4
62	0x3f19999a	0.6
63	0x3f4ccccd	0.8
64	0xbf19999a	-0.6
65	0xbecccccd	-0.4
66	0xbe4ccccd	-0.2
67	0x00000000	0.0
68	0x3e4ccccd	0.2
69	0x3ecccccd	0.4
70	0x3f19999a	0.6
71	0x3f4ccccd	0.8
72	0xbf19999a	-0.6
73	0xbecccccd	-0.4
74	0xbe4ccccd	-0.2
75	0x00000000	0.0
76	0x3e4ccccd	0.2
77	0x3ecccccd	0.4
78	0x3f19999a	0.6
79	0x3f4ccccd	0.8
80	0xbf19999a	-0.6
81	0xbecccccd	-0.4
82	0xbe4ccccd	-0.2
83	0x00000000	0.0
84	0x3e4ccccd	0.2
85	0x3ecccccd	0.4
86	0x3f19999a	0.6
87	0x3f4ccccd	0.8
88	0xbf19999a	-0.6
89	0xbecccccd	-0.4
90	0xbe4ccccd	-0.2
91	0x00000000	0.0
92	0x3e4ccccd	0.2
93	0x3ecccccd	0.4
94	0x3f19999a	0.6
95	0x3f4ccccd	0.8
96	0xbf19999a	-0.6
97	0xbecccccd	-0.4
98	0xbe4ccccd	-0.2
99	0x00000000	0.0
100	0x3e4ccccd	0.2
101	0x3ecccccd	0.4
102	0x3f19999a	0.6
103	0x3f4ccccd	0.8
104	0xbf19999a	-0.6
105	0xbecccccd	-0.4
106	0xbe4ccccd	-0.2
107	0x00000000	0.0
108	0x3e4ccccd	0.2
109	0x3ecccccd	0.4
110	0x3f19999a	0.6
111	0x3f4ccccd	0.8
112	0xbf19999a	-0.6
113	0xbecccccd	-0.4
114	0xbe4ccccd	-0.2
115	0x00000000	0.0
116	0x3e4ccccd	0.2
117	0x3ecccccd	0.4
118	0x3f19999a	0.6
119	0x3f4ccccd	0.8
120	0xbf19999a	-0.6
121	0xbecccccd	-0.4
122	0xbe4ccccd	-0.2
123	0x00000000	0.0
124	0x3e4ccccd	0.2
125	0x3ecccccd	0.4
126	0x3f19999a	0.6
127	0x3f4ccccd	0.8
128	0xbf19999a	-0.6
129	0xbecccccd	-0.4
130	0xbe4ccccd	-0.2
131	0x00000000	0.0
132	0x3e4ccccd	0.2
133	0x3ecccccd	0.4
134	0x3f19999a	0.6
135	0x3f4ccccd	0.8
136	0xbf19999a	-0.6
137	0xbecccccd	-0.4
138	0xbe4ccccd	-0.2
139	0x00000000	0.0
140	0x3e4ccccd	0.2
141	0x3ecccccd	0.4
142	0x3f19999a	0.6
143	0x3f4ccccd	0.8
144	0xbf19999a	-0.6
145	0xbecccccd	-0.4
146	0xbe4ccccd	-0.2
147	0x00000000	0.0
148	0x3e4ccccd	0.2
149	0x3ecccccd	0.4
150	0x3f19999a	0.6
151	0x3f4ccccd	0.8
152	0xbf19999a	-0.6
153	0xbecccccd	-0.4
154	0xbe4ccccd	-0.2
155	0x00000000	0.0
156	0x3e4ccccd	0.2
157	0x3ecccccd	0.4
158	0x3f19999a	0.6
159	0x3f4ccccd	0.8
160	0xbf19999a	-0.6
161	0xbecccccd	-0.4
162	0xbe4ccccd	-0.2
163	0x00000000	0.0
164	0x3e4ccccd	0.2
165	0x3ecccccd	0.4
166	0x3f19999a	0.6
167	0x3f4ccccd	0.8
168	0xbf19999a	-0.6
169	0xbecccccd	-0.4
170	0xbe4ccccd	-0.2
171	0x00000000	0.0
172	0x3e4ccccd	0.2
173	0x3ecccccd	0.4
174	0x3f19999a	0.6
175	0x3f4ccccd	0.8
176	0xbf19999a	-0.6
177	0xbecccccd	-0.4
178	0xbe4ccccd	-0.2
179	0x00000000	0.0
180	0x3e4ccccd	0.2
181	0x3ecccccd	0.4
182	0x3f19999a	0.6
183	0x3f4ccccd	0.8
184	0xbf19999a	-0.6
185	0xbecccccd	-0.4
186	0xbe4ccccd	-0.2
187	0x00000000	0.0
188	0x3e4ccccd	0.2
189	0x3ecccccd	0.4
190	0x3f19999a	0.6
191	0x3f4ccccd	0.8
192	0xbf19999a	-0.6
193	0xbecccccd	-0.4
194	0xbe4ccccd	-0.2
195	0x00000000	0.0
196	0x3e4ccccd	0.2
197	0x3ecccccd	0.4
198	0x3f19999a	0.6
199	0x3f4ccccd	0.8
200	0xbf19999a	-0.6
201	0xbecccccd	-0.4
202	0xbe4ccccd	-0.2
203	0x00000000	0.0
204	0x3e4ccccd	0.2
205	0x3ecccccd	0.4
206	0x3f19999a	0.6
207	0x3f4ccccd	0.8
208	0xbf19999a	-0.6
209	0xbecccccd	-0.4
210	0xbe4ccccd	-0.2
211	0x00000000	0.0
212	0x3e4ccccd	0.2
213	0x3ecccccd	0.4
214	0x3f19999a	0.6
215	0x3f4ccccd	0.8
216	0xbf19999a	-0.6
217	0xbecccccd	-0.4
218	0xbe4ccccd	-0.2
219	0x00000000	0.0
220	0x3e4ccccd	0.2
221	0x3ecccccd	0.4
222	0x3f19999a	0.6
223	0x3f4ccccd	0.8
224	0xbf19999a	-0.6
225	0xbecccccd	-0.4
226	0xbe4ccccd	-0.2
227	0x00000000	0.0
228	0x3e4ccccd	0.2
229	0x3ecccccd	0.4
230	0x3f19999a	0.6
231	0x3f4ccccd	0.8
232	0xbf19999a	-0.6
233	0xbecccccd	-0.4
234	0xbe4ccccd	-0.2
235	0x00000000	0.0
236	0x3e4ccccd	0.2
237	0x3ecccccd	0.4
238	0x3f19999a	0.6
239	0x3f4ccccd	0.8
240	0xbf19999a	-0.6
241	0xbecccccd	-0.4
242	0xbe4ccccd	-0.2
243	0x00000000	0.0
244	0x3e4ccccd	0.2
245	0x3ecccccd	0.4
246	0x3f19999a	0.6
247	0x3f4ccccd	0.8
248	0xbf19999a	-0.6
249	0xbecccccd	-0.4
250	0xbe4ccccd	-0.2
251	0x00000000	0.0
252	0x3e4ccccd	0.2
253	0x3ecccccd	0.4
254	0x3f19999a	0.6
255	0x3f4ccccd	0.8

k1.rk_layers.0.phase_height f4 [128, 8]
0	0x3e4ccccd	0.2
1	0x3ecccccd	0.4
2	0x3f19999a	0.6
3	0x3f4ccccd	0.8
4	0x3f800000	1.0
5	0x3f99999a	1.2
6	0x3fb33333	1.4
7	0x3fcccccd	1.6
8	0x3e4ccccd	0.2
9	0x3ecccccd	0.4
10	0x3f19999a	0.6
11	0x3f4ccccd	0.8
12	0x3f800000	1.0
13	0x3f99999a	1.2
14	0x3fb33333	1.4
15	0x3fcccccd	1.6
16	0x3e4ccccd	0.2
17	0x3ecccccd	0.4
18	0x3f19999a	0.6
19	0x3f4ccccd	0.8
20	0x3f800000	1.0
21	0x3f99999a	1.2
22	0x3fb33333	1.4
23	0x3fcccccd	1.6
24	0x3e4ccccd	0.2
25	0x3ecccccd	0.4
26	0x3f19999a	0.6
27	0x3f4ccccd	0.8
28	0x3f800000	1.0
29	0x3f99999a	1.2
30	0x3fb33333	1.4
31	0x3fcccccd	1.6
32	0x3e4ccccd	0.2
33	0x3ecccccd	0.4
34	0x3f19999a	0.6
35	0x3f4ccccd	0.8
36	0x3f800000	1.0
37	0x3f99999a	1.2
38	0x3fb33333	1.4
39	0x3fcccccd	1.6
40	0x3e4ccccd	0.2
41	0x3ecccccd	0.4
42	0x3f19999a	0.6
43	0x3f4ccccd	0.8
44	0x3f800000	1.0
45	0x3f99999a	1.2
46	0x3fb33333	1.4
47	0x3fcccccd	1.6
48	0x3e4ccccd	0.2
49	0x3ecccccd	0.4
50	0x3f19999a	0.6
51	0x3f4ccccd	0.8
52	0x3f800000	1.0
53	0x3f99999a	1.2
54	0x3fb33333	1.4
55	0x3fcccccd	1.6
56	0x3e4ccccd	0.2
57	0x3ecccccd	0.4
58	0x3f19999a	0.6
59	0x3f4ccccd	0.8
60	0x3f800000	1.0
61	0x3f99999a	1.2
62	0x3fb33333	1.4
63	0x3fcccccd	1.6
64	0x3e4ccccd	0.2
65	0x3ecccccd	0.4
66	0x3f19999a	0.6
67	0x3f4ccccd	0.8
68	0x3f800000	1.0
69	0x3f99999a	1.2
70	0x3fb33333	1.4
71	0x3fcccccd	1.6
72	0x3e4ccccd	0.2
73	0x3ecccccd	0.4
74	0x3f19999a	0.6
75	0x3f4ccccd	0.8
76	0x3f800000	1.0
77	0x3f99999a	1.2
78	0x3fb33333	1.4
79	0x3fcccccd	1.6
80	0x3e4ccccd	0.2
81	0x3ecccccd	0.4
82	0x3f19999a	0.6
83	0x3f4ccccd	0.8
84	0x3f800000	1.0
85	0x3f99999a	1.2
86	0x3fb33333	1.4
87	0x3fcccccd	1.6
88	0x3e4ccccd	0.2
89	0x3ecccccd	0.4
90	0x3f19999a	0.6
91	0x3f4ccccd	0.8
92	0x3f800000	1.0
93	0x3f99999a	1.2
94	0x3fb33333	1.4
95	0x3fcccccd	1.6
96	0x3e4ccccd	0.2
97	0x3ecccccd	0.4
98	0x3f19999a	0.6
99	0x3f4ccccd	0.8
100	0x3f800000	1.0
101	0x3f99999a	1.2
102	0x3fb33333	1.4
103	0x3fcccccd	1.6
104	0x3e4ccccd	0.2
105	0x3ecccccd	0.4
106	0x3f19999a	0.6
107	0x3f4ccccd	0.8
108	0x3f800000	1.0
109	0x3f99999a	1.2
110	0x3fb33333	1.4
111	0x3fcccccd	1.6
112	0x3e4ccccd	0.2
113	0x3ecccccd	0.4
114	0x3f19999a	0.6
115	0x3f4ccccd	0.8
116	0x3f800000	1.0
117	0x3f99999a	1.2
118	0x3fb33333	1.4
119	0x3fcccccd	1.6
120	0x3e4ccccd	0.2
121	0x3ecccccd	0.4
122	0x3f19999a	0.6
123	0x3f4ccccd	0.8
124	0x3f800000	1.0
125	0x3f99999a	1.2
126	0x3fb33333	1.4
127	0x3fcccccd	1.6
128	0x3e4ccccd	0.2
129	0x3ecccccd	0.4
130	0x3f19999a	0.6
131	0x3f4ccccd	0.8
132	0x3f800000	1.0
133	0x3f99999a	1.2
134	0x3fb33333	1.4
135	0x3fcccccd	1.6
136	0x3e4ccccd	0.2
137	0x3ecccccd	0.4
138	0x3f19999a	0.6
139	0x3f4ccccd	0.8
140	0x3f800000	1.0
141	0x3f99999a	1.2
142	0x3fb33333	1.4
143	0x3fcccccd	1.6
144	0x3e4ccccd	0.2
145	0x3ecccccd	0.4
146	0x3f19999a	0.6
147	0x3f4ccccd	0.8
148	0x3f800000	1.0
149	0x3f99999a	1.2
150	0x3fb33333	1.4
151	0x3fcccccd	1.6
152	0x3e4ccccd	0.2
153	0x3ecccccd	0.4
154	0x3f19999a	0.6
155	0x3f4ccccd	0.8
156	0x3f800000	1.0
157	0x3f99999a	1.2
158	0x3fb33333	1.4
159	0x3fcccccd	1.6
160	0x3e4ccccd	0.2
161	0x3ecccccd	0.4
162	0x3f19999a	0.6
163	0x3f4ccccd	0.8
164	0x3f800000	1.0
165	0x3f99999a	1.2
166	0x3fb33333	1.4
167	0x3fcccccd	1.6
168	0x3e4ccccd	0.2
169	0x3ecccccd	0.4
170	0x3f19999a	0.6
171	0x3f4ccccd	0.8
172	0x3f800000	1.0
173	0x3f99999a	1.2
174	0x3fb33333	1.4
175	0x3fcccccd	1.6
176	0x3e4ccccd	0.2
177	0x3ecccccd	0.4
178	0x3f19999a	0.6
179	0x3f4ccccd	0.8
180	0x3f800000	1.0
181	0x3f99999a	1.2
182	0x3fb33333	1.4
183	0x3fcccccd	1.6
184	0x3e4ccccd	0.2
185	0x3ecccccd	0.4
186	0x3f19999a	0.6
187	0x3f4ccccd	0.8
188	0x3f800000	1.0
189	0x3f99999a	1.2
190	0x3fb33333	1.4
191	0x3fcccccd	1.6
192	0x3e4ccccd	0.2
193	0x3ecccccd	0.4
194	0x3f19999a	0.6
195	0x3f4ccccd	0.8
196	0x3f800000	1.0
197	0x3f99999a	1.2
198	0x3fb33333	1.4
199	0x3fcccccd	1.6
200	0x3e4ccccd	0.2
201	0x3ecccccd	0.4
202	0x3f19999a	0.6
203	0x3f4ccccd	0.8
204	0x3f800000	1.0
205	0x3f99999a	1.2
206	0x3fb33333	1.4
207	0x3fcccccd	1.6
208	0x3e4ccccd	0.2
209	0x3ecccccd	0.4
210	0x3f19999a	0.6
211	0x3f4ccccd	0.8
212	0x3f800000	1.0
213	0x3f99999a	1.2
214	0x3fb33333	1.4
215	0x3fcccccd	1.6
216	0x3e4ccccd	0.2
217	0x3ecccccd	0.4
218	0x3f19999a	0.6
219	0x3f4ccccd	0.8
220	0x3f800000	1.0
221	0x3f99999a	1.2
222	0x3fb33333	1.4
223	0x3fcccccd	1.6
224	0x3e4ccccd	0.2
225	0x3ecccccd	0.4
226	0x3f19999a	0.6
227	0x3f4ccccd	0.8
228	0x3f800000	1.0
229	0x3f99999a	1.2
230	0x3fb33333	1.4
231	0x3fcccccd	1.6
232	0x3e4ccccd	0.2
233	0x3ecccccd	0.4
234	0x3f19999a	0.6
235	0x3f4ccccd	0.8
236	0x3f800000	1.0
237	0x3f99999a	1.2
238	0x3fb33333	1.4
239	0x3fcccccd	1.6
240	0x3e4ccccd	0.2
241	0x3ecccccd	0.4
242	0x3f19999a	0.6
243	0x3f4ccccd	0.8
244	0x3f800000	1.0
245	0x3f99999a	1.2
246	0x3fb33333	1.4
247	0x3fcccccd	1.6
248	0x3e4ccccd	0.2
249	0x3ecccccd	0.4
250	0x3f19999a	0.6
251	0x3f4ccccd	0.8
252	0x3f800000	1.0
253	0x3f99999a	1.2
254	0x3fb33333	1.4
255	0x3fcccccd	1.6

k1.rk_layers.0.equal_size_conv.weight f4 [10, 1, 8, 128]
0	0xbccf5362	-0.025308315
1	0xbce42438	-0.027849302
2	0xbcf92410	-0.030412704
3	0xbc32f150	-0.010921791
4	0x3c6dffc8	0.014526315
5	0x3c3f2b90	0.011668101
6	0xbcb80114	-0.022461452
7	0x3c3e3dc8	0.0116114095
8	0xbcde9008	-0.027168289
9	0x3cc1b230	0.023644537
10	0xbc652e54	-0.013988096
11	0xbc2ea410	-0.010659233
12	0x3a11d340	0.000556279
13	0x3cfc2622	0.030779902
14	0x3ca565b0	0.02019009
15	0xbbc18db0	-0.005906783
16	0x3ab7fa60	0.001403641
17	0x3cedb850	0.029018551
18	0x3c721694	0.014775891
19	0xbbdc44d8	-0.006722074
20	0xbce291c0	-0.02765739
21	0x3bb29e28	0.0054509826
22	0x3c827776	0.015926104
23	0xbc81ee94	-0.015860833
24	0xbce3f6f2	-0.027827714
25	0x3c32402c	0.010879558
26	0xbcfb587a	-0.030681837
27	0x3a54f6c0	0.0008123927
28	0xbb3a7600	-0.002845168
29	0x3898cc00	7.285923e-05
30	0xbc2bad44	-0.010478321
31	0xbc61adf0	-0.01377438
32	0x3c64fd48	0.013976403
33	0xbbccaec8	-0.0062464215
34	0x3bec4050	0.007209815
35	0xbb5506e0	-0.0032505319
36	0xbc1fc7f0	-0.009752259
37	0xbc939d28	-0.018019274
38	0xbc85d80a	-0.016338367
39	0xbc1fd9a0	-0.009756476
40	0x3b490e50	0.0030678697
41	0x3c3130c8	0.010814853
42	0xbb9c4408	-0.004768852
43	0x3bb4a8b0	0.005513273
44	0xbcc03ffc	-0.02346801
45	0xbcf0e5f2	-0.029406521
46	0x3c217388	0.009854205
47	0x3caff91e	0.021481093
48	0xbc17d5b8	-0.009267263
49	0x3afcfe60	0.0019301884
50	0xbc71c708	-0.014756925
51	0x3be94a28	0.007119436
52	0x3c92444a	0.017854828
53	0x3ba276a8	0.0049579926
54	0x3c402c84	0.011729363
55	0xbcb13b66	-0.021634769
56	0x3c649ec4	0.013953868
57	0x3c963a40	0.018338323
58	0x3cc56ca8	0.024099663
59	0xb9b62380	-0.00034740195
60	0x3c95a35c	0.018266372
61	0x3a259f00	0.00063179433
62	0x3c39281c	0.011301067
63	0x3cf50a76	0.029912215
64	0x3b941ca8	0.0045200177
65	0x3a48ac00	0.00076550245
66	0xbc21125c	-0.009831037
67	0xbcefca4a	-0.029271264
68	0x3b91be80	0.004447758
69	0x3c97259c	0.01845055
70	0xbced0b94	-0.028936185
71	0x3c2184b0	0.009858295
72	0x3c40ca60	0.011767
73	0xbcea6336	-0.02861176
74	0xbc198be0	-0.009371728
75	0x3c9de13c	0.01927244
76	0xbc631578	-0.013860099
77	0xbc1f7628	-0.0097327605
78	0xbcbcec9e	-0.023062047
79	0x3ca4b09e	0.020103749
80	0xbbf7ed50	-0.0075661317
81	0x3cdac864	0.026706882
82	0xbb612620	-0.0034355
83	0xbc192024	-0.009346042
84	0x3c8cad38	0.01717244
85	0x3c95d012	0.018287692
86	0x3c5afee4	0.013366435
87	0xbcfbd06c	-0.030739032
88	0xbcf661f0	-0.030075997
89	0x3c7a6150	0.01528199
90	0x3cdc6f5a	0.026908565
91	0x3b974408	0.0046162643
92	0x3a78df00	0.0009493679
93	0xbcdf93d8	-0.027292177
94	0xbce4fcbe	-0.027952548
95	0x3cc33ea6	0.023833584
96	0x3c601198	0.01367607
97	0x3ce92bcc	0.028463267
98	0xbc64a6ec	-0.013955813
99	0x3cc2f846	0.023800027
100	0xbcc2f3a4	-0.023797818
101	0x3cdd6bba	0.027028907
102	0x3ce5fa88	0.028073564
103	0xbbe02638	-0.0068404935
104	0x3cf9d14c	0.030495308
105	0xbc442ae0	-0.011973113
106	0xbc850cd8	-0.016241476
107	0xbc565dcc	-0.013083886
108	0xbc5caad8	-0.013468467
109	0x3bf829a8	0.007573325
110	0x3cc8c9ea	0.024510343
111	0xbb427ea0	-0.0029677525
112	0xbb9db398	-0.004812669
113	0xbbe6fa88	-0.0070489086
114	0x3c58d74c	0.0132349245
115	0x3c8941d8	0.01675503
116	0x3c67cba8	0.0141476765
117	0xbce9250e	-0.028460052
118	0xbcef8bca	-0.029241461
119	0xbc08d60c	-0.008351814
120	0x3c9f056a	0.019411761
121	0xbc2f4400	-0.010697365
122	0xbb45b1c0	-0.0030165762
123	0x3c98fa28	0.018673971
124	0x3a8e3ca0	0.0010851808
125	0xbc66d95c	-0.014089908
126	0xbccf13dc	-0.025278024
127	0xbc5a9a58	-0.0133424625
128	0x3ccb8c74	0.024847247
129	0xbc8c4eae	-0.017127361
130	0xbc613480	-0.013745427
131	0xbcdba874	-0.026813723
132	0x3cd3af14	0.02584032
133	0xbcb1365c	-0.021632366
134	0xbca04da0	-0.019568264
135	0xbc4fd374	-0.012684692
136	0xbc82232e	-0.015885916
137	0xbc19f770	-0.009397373
138	0xbc2cfd40	-0.010558426
139	0xbb22ad80	-0.0024822652
140	0xbc6358f8	-0.013876192
141	0xbafb39a0	-0.0019166954
142	0x3c3e7700	0.0116250515
143	0xbbc7e3c0	-0.006100148
144	0x3c0b19a8	0.008490004
145	0xbcdf7bc6	-0.0272807
146	0x3c7acbd4	0.0153073855
147	0xbbae0398	-0.005310487
148	0xbbb75798	-0.005595159
149	0xbb860e30	-0.0040910468
150	0xbc5d0cb4	-0.013491798
151	0x3b0b3840	0.0021243244
152	0xbcf59fb8	-0.029983386
153	0xbac3aa20	-0.001492802
154	0x3c9c1930	0.01905498
155	0x3ceda3c2	0.02900875
156	0x3c95a2ae	0.018266048
157	0x3b492f90	0.0030698515
158	0x3c4c50a4	0.012470398
159	0x3cb9dac0	0.022687316
160	0xbcdaaf64	-0.02669496
161	0xbce9911c	-0.028511576
162	0x3ce7d8da	0.028301645
163	0x3c218100	0.009857416
164	0x3cb43af4	0.022000767
165	0xbc4ce4e4	-0.012505744
166	0xbc589108	-0.013218172
167	0x3b34e620	0.0027602986
168	0x3cc14a46	0.023594987
169	0x3ba69378	0.0050834976
170	0xbc7df06c	-0.015499216
171	0x39684a00	0.00022152811
172	0x3cefa52a	0.029253561
173	0xbc87587a	-0.016521681
174	0x3cc6184a	0.024181504
175	0x3bb7e088	0.005611483
176	0xbca93f62	-0.020660106
177	0xbc8b4c78	-0.017004237
178	0x3cae4fe6	0.021278333
179	0xbccef3d6	-0.025262754
180	0x3ca9cc3e	0.020727273
181	0x3b5c4400	0.0033609867
182	0xbaa1d700	-0.00123474
183	0xbcc71386	-0.024301302
184	0x3c73742c	0.0148592405
185	0xbc355084	-0.01106656
186	0x3c88bd92	0.016691957
187	0x3c75ce74	0.015002836
188	0x3c7a0f0c	0.0152623765
189	0x3cff024e	0.031129029
190	0xbca476d4	-0.020076193
191	0x3cb1ed44	0.021719582
192	0xbc810266	-0.015748214
193	0xbcb7f800	-0.022457123
194	0xbb0463f0	-0.002020117
195	0xbc44ca08	-0.012011059
196	0xbcf45132	-0.029823873
197	0xbc83d28c	-0.016091608
198	0xbc397cec	-0.011321288
199	0xbc8a1944	-0.01685775
200	0x3c5f21a4	0.01361886
201	0x3b3aaff0	0.0028486215
202	0xbcbe8d1e	-0.02326065
203	0x3cde388e	0.027126577
204	0x3cd7a0e6	0.02632184
205	0xbcbea652	-0.023272667
206	0xbb9ed630	-0.0048473105
207	0xbc5ea604	-0.013589386
208	0xbb1fb330	-0.0024368279
209	0x3cc387d8	0.023868486
210	0xbc054474	-0.008133996
211	0xbc8ddbbc	-0.017316692
212	0x3cb31ee6	0.02186532
213	0xbc807362	-0.015680019
214	0xba77d180	-0.000945352
215	0xbc47995c	-0.01218256
216	0x3c0cc0e4	0.008590911
217	0xbcac3fdc	-0.021026544
218	0x3c0bec1c	0.00854018
219	0xbc3057b0	-0.010763094
220	0x3cd33a9c	0.025784783
221	0xbcc28ae6	-0.023747873
222	0xbcc8cc8e	-0.024511602
223	0xbc95c21c	-0.018281035
224	0xbcc9ae42	-0.024619225
225	0xba0b0140	-0.00053026155
226	0xbcaa40e4	-0.020782895
227	0x3ca9456c	0.020662986
228	0x3c361e24	0.0111155845
229	0x3ccc9d18	0.024977252
230	0x3c61be1c	0.013778236
231	0xbc98782e	-0.018611994
232	0xbb1c7020	-0.0023870543
233	0xbce1d7de	-0.027568754
234	0xbc291840	-0.010320723
235	0xbc75c034	-0.014999438
236	0x3cbf5dea	0.023360211
237	0x3c8be30a	0.017076034
238	0x3c902dd6	0.017599981
239	0x3cfa42c4	0.030549414
240	0x3b0223b0	0.0019857697
241	0x3bc54188	0.006019775
242	0x3ce50008	0.027954116
243	0xbca36dfc	-0.019949906
244	0x3cfd8b5c	0.03095024
245	0x3cb8ab26	0.022542547
246	0xbc8be772	-0.017078135
247	0x3996f580	0.0002879314
248	0xbbe44ed8	-0.0069674067
249	0x3c3387b4	0.010957647
250	0xbcd53f6e	-0.026031222
251	0xbc016a6c	-0.007898908
252	0xbc8bb73c	-0.017055146
253	0xbc9b0ec6	-0.018927943
254	0x3c843336	0.0161377
255	0xbc7f7c18	-0.015593551

k1.rk_layers.0.equal_size_conv.bias f4 [10]
0	0xbc375390	-0.011189356
1	0x3c4f4a88	0.012652047
2	0x3c96b426	0.018396448
3	0xbcb0089a	-0.021488477
4	0xbc258b44	-0.010104004
5	0x3ce9f12e	0.028557386
6	0xbc8295d8	-0.015940592
7	0x3ce31c28	0.027723387
8	0x3c4b9828	0.012426414
9	0xbbd37a48	-0.006453786
