summary/DenseMLP.onnx (onnx, 438336 bytes, 21 tensors)

layers.0.weight f4 [64, 784]
000000 ec c9 90 bc e0 58 9d bc 66 08 f3 3c 9c 77 c5 bb
       -0.017674409 -0.019207418 0.02966709 -0.0060262214
000010 00 23 15 3b ea 8f bf bc 40 0b 32 ba e0 44 95 3a
       0.0022756457 -0.023384053 -0.00067918375 0.0011388324
000020 e8 48 b5 bc ae 68 9d 3c 8a 6a fd bc f8 ad bc bc
       -0.022129491 0.019214954 -0.03093459 -0.023032174
000030 78 8b 43 3c 05 23 b0 bc 15 a0 04 3d a8 1e f1 3b
       0.011935107 -0.021501074 0.03237923 0.007358391
000040 3d 69 11 bd 00 cc 8b b9 20 c8 9e bc 86 e4 69 bc
       -0.035500754 -0.00026664138 -0.019382536 -0.014275676
000050 a2 f1 0a bd f6 1a 09 bd 3c 3c 07 3c 78 97 1c bc
       -0.033921845 -0.033472978 0.008254107 -0.009557597
000060 f0 9d 9e 3b c0 d5 85 3c a3 f2 0d 3d 83 dd 0c bd
       0.004840605 0.016337276 0.034655225 -0.034390938
000070 c2 f5 d7 3c 30 7b 46 3c a0 ba 60 bb 48 0f ad bb
       0.026362304 0.012114331 -0.0034290925 -0.0052813627
000080 30 9f a4 3c c3 8d 9a bc f2 4d 87 3c 2e b7 64 bc
       0.020095438 -0.018866425 0.01651666 -0.013959689
000090 63 0e be bc f8 6c 00 3c 98 70 b2 bc 83 81 86 bc
       -0.02320022 0.00783848 -0.021782205 -0.016419178
0000a0 2e 95 ee bc c0 18 bf 3a 80 98 20 3a 80 5e 59 ba
       -0.029123869 0.001457952 0.000612624 -0.00082919747
0000b0 7e 51 a1 bc aa 01 bc bc 26 eb 21 bc 3a 24 07 bd
       -0.019692179 -0.022950012 -0.009882724 -0.032993533
0000c0 60 82 6f 3c f0 a0 b2 bb dc 63 05 bd b0 69 78 3c
       0.014618486 -0.005451314 -0.032565936 0.015161917
0000d0 3c 3e 39 bc 6c 79 bf 3c 1c f1 cb bc e0 cc 7d bc
       -0.011306342 0.023373328 -0.024895243 -0.015490741
0000e0 87 ed 8c bc 18 07 6f bc d9 1b 08 3d b2 b2 f8 3c
       -0.017203106 -0.014589094 0.033229683 0.030358646
0000f0 7a 87 94 3c 0c a2 a3 bc d7 0e 11 bd f8 42 d5 bb
       0.018131007 -0.01997473 -0.035414543 -0.0065082274
000100 f0 52 1b 3b 40 f5 6d ba 38 3e b0 bc 8a 53 da bc
       0.0023700558 -0.00090773776 -0.021514043 -0.026651163
000110 80 cb f6 3b 10 c9 dd 3b 1e 72 80 bc b0 d3 d9 3b
       0.0075315833 0.0067683533 -0.015679415 0.0066475496
000120 0f e2 0f 3d 80 5a 9d bb aa 4c a3 3c 0b 3d 07 3d
       0.035127696 -0.004802048 0.019934017 0.0330172
000130 b0 b2 3b 3c eb b1 06 3d c4 d3 6c 3c 2a 5b c1 bc
       0.011456177 0.03288452 0.014454786 -0.02360304
000140 9a 65 8f 3c 5a 52 83 3c b0 aa 93 bc 80 0f 0e bd
       0.017504502 0.01603048 -0.018025726 -0.03468275
000150 9e af f4 bc 66 73 95 3c 14 8a 70 3c b5 98 a1 bc
       -0.029868897 0.018243503 0.014681358 -0.019726137
000160 b7 4f 91 bc 8e dc e3 3c c6 2f 12 bd b6 9b b9 3c
       -0.017738206 0.02781513 -0.03569009 0.022657257
000170 18 e9 67 bc a0 ba 5b bb 10 27 35 3b c4 aa 0c 3c
       -0.014154695 -0.0033527985 0.0027641691 0.008585636
000180 ae aa ae bc ca 7f c8 3c 25 66 ed bc 43 d2 cd bc
       -0.02132162 0.024474997 -0.02897937 -0.025124675
000190 20 9f fb 3a 44 15 52 3c b8 62 15 bc 0e 8a 9c 3c
       0.0019197203 0.012822453 -0.009117775 0.019108798
0001a0 30 f1 e0 bb c2 32 f4 3c 90 40 4c 3c 84 2a 24 3c
       -0.0068646893 0.02980936 0.012466565 0.010019902
0001b0 16 b0 08 bd 5a ff 9e 3c 2a 17 fa 3c fc 20 3c bc
       -0.033371054 0.01940887 0.030528624 -0.011482473
0001c0 2e e3 dd 3c 40 de 4d 3c a3 6a c3 bc 9e c5 cd 3c
       0.027085867 0.012565196 -0.02385456 0.025118645
0001d0 b6 91 fc 3c e0 21 c3 3b 1c 9b f3 bb 86 45 d3 3c
       0.0308312 0.005954966 -0.007434262 0.025789987
0001e0 41 be 00 3d 24 33 08 bd 35 9c 04 bd 31 03 05 3d
       0.03143144 -0.033251897 -0.032375533 0.032473747
0001f0 78 cc d1 bc 44 7f 0e bc 94 5d fb bb 80 df ed 39
       -0.025610194 -0.008697335 -0.0076710675 0.00045370683
000200 46 88 fb 3c d0 0e 64 bb 1c d2 3f bc da 14 f4 bc
       0.030704629 -0.0034798868 -0.011707809 -0.029795099
000210 6a a2 55 bc 80 f3 1a bb b3 07 0e 3d d8 5c c3 3c
       -0.013039211 -0.0023643672 0.03467531 0.023847982
000220 60 4d 3a bc 3e aa aa bc 19 af 02 3d f2 62 03 bc
       -0.011370987 -0.02083313 0.031905267 -0.008019196
000230 d3 90 b9 bc a3 a2 b0 bc 5e cb c9 bc 0e be fd 3c
       -0.022652065 -0.021561926 -0.024633106 0.030974414
000240 00 a2 72 b9 ca 97 f1 3c 2e 59 ce bc be 22 c4 3c
       -0.00023139268 0.029491324 -0.025189009 0.023942348
000250 40 dc 94 3b fb 45 0d bd 18 51 86 3c 30 7d d2 3c
       0.0045428574 -0.034490567 0.01639609 0.02569446
000260 4a f2 b6 bc f8 66 c8 bc d0 40 9e 3c d6 4a f6 3c
       -0.02233233 -0.024463162 0.019318014 0.030064981
000270 3e 87 86 bc ee 7b 0e bd c3 42 b6 bc ba fd a1 3c
       -0.01642191 -0.034786157 -0.022248631 0.019774307
000280 24 62 ad bb 2a fe 89 3c 45 c9 11 3d 20 a5 a2 bc
       -0.0052912403 0.016844828 0.035592336 -0.019854128
000290 a9 10 07 3d cc bc 8f 3c 60 70 fe 3a 32 48 be 3c
       0.032974873 0.01754608 0.0019412152 0.023227785
0002a0 d0 6e 77 3c fe 47 de bc 80 a6 2a 3c 4a 44 ab bc
       0.015102103 -0.027133938 0.010415673 -0.020906586
0002b0 58 b5 bb 3b 53 6c c1 bc 08 2b e4 bb 08 eb 0f 3c
       0.005728405 -0.023611223 -0.0069631375 0.008784063
0002c0 90 80 86 3c f0 80 85 3b 60 50 db 3b 88 1c 5b 3c
       0.016418725 0.0040742084 0.006692931 0.013373502
0002d0 90 f9 9f bc 00 9a af 3a 78 83 4a bc 6a 46 b2 bc
       -0.01952818 0.0013397336 -0.012360446 -0.021762092
0002e0 a2 dc 87 3c 80 29 6e 3c 88 92 f9 bc 10 45 d8 bc
       0.016584698 0.014536262 -0.03046538 -0.026400119
0002f0 80 70 94 bb 04 5d 63 3c dc 1e 59 3c 1c 7d d3 bb
       -0.0045300126 0.013877157 0.013251986 -0.006454123
000300 92 f4 ee 3c 3c 7d ab bc d4 b1 9a bb 40 05 24 ba
       0.029169355 -0.02093374 -0.004720906 -0.0006256886
000310 68 04 2d 3c 72 42 0d bc 42 1c ec 3c 2a fb c7 3c
       0.010560133 -0.008621799 0.028822068 0.024411757
000320 20 36 ae bc 93 70 9b bc 1c a4 4c bc d8 1d 3b bc
       -0.021266043 -0.018974578 -0.012490299 -0.0114206895
000330 e8 35 e7 3b be 73 ed 3c dc d4 04 3c 20 53 9c 3a
       0.0070559867 0.028985854 0.00810739 0.0011926629
000340 bc cf 2d 3c 20 1a 23 bb c3 66 08 bd d2 cf 71 bc
       0.01060861 -0.0024887398 -0.033301126 -0.014759021
000350 c1 25 04 3d c4 d3 11 bd f8 af ec bb 57 48 06 3d
       0.032262567 -0.035602346 -0.0072231255 0.032783832
000360 d7 8c 81 bc 60 2b 82 3a c4 b6 41 3c 15 82 b1 bc
       -0.015814228 0.000993114 0.01182336 -0.021668473
000370 00 91 72 3b a0 96 cc bc 38 b7 85 3c bc a0 8d bc
       0.0037012696 -0.024974167 0.016322717 -0.017288558
000380 de 60 e8 3c 1c 85 bf 3c 51 31 09 3d 78 ab be 3b
       0.028366502 0.023378901 0.033494297 0.0058187805
000390 af 51 09 3d 45 16 f1 bc 24 42 f4 bb a6 7b a2 3c
       0.033525165 -0.029429564 -0.0074541736 0.01983435
0003a0 5c e4 d4 3c 40 a3 39 3c 1c 0b b4 bb 10 11 c8 3b
       0.025987796 0.011330426 -0.0054944884 0.0061055496
0003b0 94 5c 44 3c 08 77 02 bd a4 b3 91 3c 68 c1 4e 3c
       0.011984963 -0.0318518 0.017785855 0.012619354
0003c0 a6 17 ee 3c 3f 06 09 3d c8 e7 dc bb d8 62 b1 bc
       0.02906401 0.033453222 -0.0067414977 -0.021653578
0003d0 7e 8e b9 bc 90 44 ee 3b 80 12 cf 39 90 6a 70 bb
       -0.022650953 0.007271357 0.000394959 -0.003668461
0003e0 08 5d c6 3b 1e 53 fb bc 05 93 f0 bc 5c 3c a8 bc
       0.0060535707 -0.030679282 -0.02936698 -0.020536594
0003f0 d0 0e 5e bb 62 bf dc 3c e4 c5 30 3c 8e 85 e9 bc
       -0.003388334 0.026946727 0.010789368 -0.028506067

layers.0.bias f4 [64]
000000 a6 12 5f bc 6a e8 b8 bc 00 65 f6 3b 47 31 02 3d
       -0.013615286 -0.022571761 0.0075193644 0.031785276
000010 06 20 21 bc c5 9b bf bc 92 35 be 3c 20 0a 7d 3c
       -0.009834295 -0.023389706 0.023218904 0.0154443085
000020 48 84 94 bb d9 ed 05 3d 15 17 8d bc eb 54 09 bd
       -0.0045323707 0.032697532 -0.01722292 -0.03352825
000030 00 99 f0 bb cc 1b ec bc e5 35 fb bc e1 71 06 3d
       -0.007342458 -0.028821848 -0.030665347 0.032823447
000040 e3 11 04 3d f6 f7 b5 3c ce b0 97 3c 65 06 0c 3d
       0.03224362 0.022212964 0.018516924 0.034185786
000050 fa 7a eb 3c 58 43 45 3c ff 02 09 3d a0 00 1c bb
       0.028745163 0.012039982 0.033450123 -0.0023804083
000060 62 ec f4 3c 5c bf ff bb fc 18 c2 3c 88 f8 bf 3b
       0.029897872 -0.0078047942 0.023693554 0.0058584847
000070 00 c3 ac bb ba 2c 85 bc d3 f1 09 3d 92 79 93 3c
       -0.0052722692 -0.016256679 0.033677887 0.018002305
000080 30 c8 03 3b 40 cc 39 3c 52 4c e4 3c 53 5a 0f bd
       0.0020108335 0.011340201 0.027868424 -0.03499825
000090 7b 31 01 3d 49 64 07 3d d7 a8 0e bd 68 9c 81 3c
       0.03154133 0.033054624 -0.034828987 0.01582165
0000a0 68 4f b4 3b a0 ca fe 3a 2e 99 56 bc 30 2c cf 3b
       0.00550263 0.0019439049 -0.013098044 0.006322406
0000b0 43 01 ec bc d5 ad c7 bc c5 14 b3 bc 40 65 0f 3c
       -0.028809195 -0.024374882 -0.02186049 0.008752167
0000c0 f8 39 b3 bc b2 ba 10 bc e0 72 b8 3c 68 b0 f9 bc
       -0.021878228 -0.008833574 0.022515714 -0.030479625
0000d0 14 13 74 3c ce 81 f1 bc a5 41 0c 3d 2a d5 f8 bc
       0.014897127 -0.029480841 0.03424229 -0.030375082
0000e0 d0 74 77 3b 0e 5f 84 bc 98 74 89 bb 00 ea c7 3c
       0.0037758835 -0.016158607 -0.0041948073 0.024403572
0000f0 08 58 86 3b 60 db 9e ba fe 5b 8d 3c 5c 57 5a 3c
       0.0040998496 -0.0012119822 0.01725578 0.013326492

layers.1.weight f4 [64, 64]
000000 bc a1 60 3d 7a 93 b6 3d bc 77 51 bd 40 7a 95 bc
       0.054841742 0.08914848 -0.05113958 -0.01824677
000010 dc b4 3c bd 10 fa 54 bd d8 64 90 bc d8 30 5c 3d
       -0.04607092 -0.05199629 -0.017626211 0.05375752
000020 60 af c6 bc 64 d4 3b bd 04 48 b4 3d 1c b9 2c 3d
       -0.024253547 -0.04585685 0.088027984 0.04216872
000030 68 eb 42 bd f0 90 b1 bc a0 16 ae bb b8 24 32 bd
       -0.047587782 -0.021675557 -0.0053127557 -0.04349205
000040 54 d3 a8 bd 00 2d e4 bd 18 59 d9 bc 30 11 b6 3c
       -0.08243433 -0.111413956 -0.026531741 0.022224993
000050 40 88 08 bb 06 4a e8 bd 60 8f 3b 3c 52 8c 8f 3d
       -0.0020833164 -0.11342244 0.0114477575 0.07009186
000060 6c 1b f8 3d a0 b6 3e bd 94 2c d7 3d 28 37 39 bd
       0.12114605 -0.046560884 0.105065495 -0.045218617
000070 ba c3 95 3d 98 9a 4b bd c0 60 57 bb 80 ba 8e 3d
       0.073127225 -0.04970798 -0.0032864064 0.06969166
000080 f8 9f fa 3c 3e 05 94 bd d0 af da bc 50 4c bd 3c
       0.030593857 -0.07227562 -0.026695162 0.023107678
000090 f8 75 91 bd c4 ef 89 bd 78 0d 8d bd e0 84 35 bc
       -0.07102579 -0.06735185 -0.068873346 -0.011079043
0000a0 5e 27 a3 3d 44 ee 98 3d a8 8e 49 3d 18 70 82 3d
       0.07966493 0.074673206 0.049208313 0.063690364
0000b0 34 94 8f bd c0 91 0d bb 90 d7 e7 bd 98 8b ab bc
       -0.070106894 -0.0021601766 -0.11320412 -0.020940587
0000c0 d6 f0 cb 3d 66 e0 88 3d 36 65 93 3d 40 87 99 bd
       0.09958045 0.066834256 0.07197039 -0.074965
0000d0 b0 52 43 3d b4 33 fa bd d6 6e c2 3d f4 a7 8f bd
       0.04768628 -0.12216893 0.094937965 -0.070144564
0000e0 5c 31 97 3d 40 e1 3a bc 4c 73 df bd e2 4e f2 3d
       0.073824614 -0.011406243 -0.10910663 0.11831452
0000f0 58 31 bd 3c 3c d1 6a bd e4 89 9b bd 20 11 ae 3c
       0.023094818 -0.057328448 -0.0759466 0.0212484
000100 60 f5 34 bd d8 d9 f1 bc 14 ee 18 bd cc 24 7e bd
       -0.04417932 -0.029522821 -0.037336424 -0.06204681
000110 38 8a 04 3d c2 8c d8 bd 6c 66 4e 3d ec 98 e8 bd
       0.03235838 -0.105737224 0.050390646 -0.113572925
000120 66 13 a7 3d 00 d7 30 bb c0 0c 1f 3d 00 2e 81 3a
       0.08157997 -0.0026983619 0.03883052 0.0009855628
000130 30 14 86 3d 04 1c 21 3d b0 b5 6f 3c 98 d6 4d bd
       0.06546819 0.03933336 0.01463072 -0.05025348
000140 58 8c a3 bc 38 a6 92 bc 80 eb 43 3d e0 35 75 3c
       -0.019964382 -0.017901525 0.047832012 0.014966458
000150 e8 56 9d 3c a6 9a dc 3d 80 c6 ea 3c c4 e0 7d bd
       0.01920648 0.10771684 0.028659105 -0.06198193
000160 54 b6 f6 3d d8 d9 ab bc e8 c6 99 bd 40 bf 3e 3b
       0.12046495 -0.0209779 -0.075086415 0.0029105693
000170 90 34 53 bd 5c 6b b8 3d a0 d2 c7 3b 30 d2 a4 3c
       -0.0515638 0.09004852 0.0060981065 0.020119756
000180 54 49 19 3d b8 96 3e 3d 10 39 85 bc 38 e2 d7 3d
       0.037423447 0.046530455 -0.016262561 0.10541195
000190 78 ee 49 3d 8e 62 ef 3d 98 ab d4 bc e0 58 2d bc
       0.049299687 0.1168872 -0.025960729 -0.0105802715
0001a0 20 59 b8 3c ee ec bb 3d d0 9b ca 3d d8 39 d2 3d
       0.022503436 0.0917605 0.09893 0.10264939
0001b0 9c 58 96 3d 86 6a ca 3d ae 1d a6 3d b0 30 14 3d
       0.0734112 0.09883599 0.0811113 0.036179245
0001c0 10 53 da bd c4 15 36 bd be d3 a4 3d aa c7 e1 3d
       -0.10660374 -0.04445435 0.08048199 0.11024411
0001d0 22 2b fa 3d 1a 97 d1 3d ca 77 d7 3d b8 af ea bd
       0.12215258 0.102338985 0.10520895 -0.11459297
0001e0 f0 6a d1 3c 1c 1e 37 3d 1c e3 8e 3d ce 11 8f 3d
       0.025563687 0.04470645 0.069769114 0.06985818
0001f0 e0 cd 3d 3d fc 38 6f bd 48 da ab bc 84 a4 c0 bd
       0.046338916 -0.058403954 -0.020978108 -0.09406379
000200 14 23 fc 3d 38 5f b6 3c 80 e7 da bb 8c 1d cf bd
       0.12311378 0.0222622 -0.006680429 -0.101130575
000210 2e aa 98 bd 4c 94 39 bd fe 84 e1 3d b8 6f ac 3c
       -0.07454334 -0.045307443 0.11011694 0.021049365
000220 e8 e7 f8 bc 08 73 81 bc 00 74 a0 ba c8 71 5d 3d
       -0.030384019 -0.015801921 -0.0012241602 0.05406359
000230 f0 4d 9e bc 8e e1 dd 3d d2 d6 ed bd 60 71 5f 3d
       -0.019324273 0.10834037 -0.11613239 0.054551482
000240 88 4a a8 3c 78 02 e6 bd 3c 56 ea bd 42 1e ed 3d
       0.020543352 -0.112309396 -0.11442229 0.11578037
000250 10 68 0c 3c 6c 3c 8b bd 3a 58 c0 bd 70 b3 1b bc
       0.008569732 -0.06798634 -0.09391828 -0.00950323
000260 ec c7 32 3d e2 96 c4 3d c0 61 0a bb c0 69 d7 bc
       0.04364769 0.09599091 -0.0021115392 -0.026295543
000270 b6 01 86 bd 7a bd fd 3d 10 53 ee bc 4e 72 b5 3d
       -0.06543295 0.123896554 -0.029092342 0.088596925
000280 14 cf d9 bd c0 40 83 3d 00 54 d5 bd 90 ee 80 3d
       -0.106352 0.064088345 -0.10416412 0.06295502
000290 c0 ae b5 3b 7a 45 d6 bd e4 6e d3 3d 48 c7 36 bd
       0.0055445135 -0.1046247 0.10323885 -0.044623643
0002a0 78 92 8d bd f4 b4 ad 3d e4 03 cf 3d 80 77 34 3d
       -0.06912702 0.0848178 0.10108164 0.044059277
0002b0 c4 e1 f2 bd d4 98 78 bd 1e f0 e3 bd 18 5b 0f 3d
       -0.118594676 -0.060692623 -0.11129783 0.034998983
0002c0 5a e2 c3 3d f8 84 1f bd 9a 2e b0 3d c2 9d ef 3d
       0.095646575 -0.03894517 0.086026385 0.11700012
0002d0 94 f1 54 3d bc 25 9f bd 52 64 bf 3d 80 b3 82 bb
       0.0519882 -0.07770869 0.093453065 -0.003988683
0002e0 34 3f 90 3d e0 6c 47 3d 60 b5 ff bd 62 c4 83 bd
       0.07043305 0.048687816 -0.124857664 -0.064339414
0002f0 e4 4b 9b bd 18 f0 ac bc b8 35 f1 3c ea f5 f1 bd
       -0.07582834 -0.02111058 0.02944456 -0.118144825
000300 10 e4 df 3d a8 ef 44 bd 90 f5 61 3c 28 f4 df bc
       0.10932171 -0.048080117 0.013791457 -0.027338102
000310 70 b5 8a bc 04 4b 35 3d 88 f5 da bc e0 f3 da 3c
       -0.01693222 0.044260994 -0.026728407 0.026727617
000320 00 8a 2a 3b a0 88 a6 bc 5a 5d ce bd ba bb a0 3d
       0.0026022196 -0.02032882 -0.10076399 0.07848306
000330 78 e0 38 bd ee c8 82 3d f6 e4 ff 3d f8 45 7b bd
       -0.045135945 0.063859805 0.12494843 -0.061346024
000340 d4 02 e7 bd 60 e4 07 bd 78 04 5d 3d a0 d0 29 bd
       -0.11279836 -0.03317678 0.05395934 -0.041458726
000350 30 89 a4 bd b8 5e a0 bd 80 91 0a bc 68 fb 29 bd
       -0.08033979 -0.07830566 -0.0084575415 -0.041499525
000360 a8 18 ab bc 40 ba 00 3b f0 17 80 bc d0 ab 30 bc
       -0.02088578 0.0019642264 -0.015636414 -0.010783151
000370 a6 83 e6 bd 58 8a d1 bc 20 9d 87 3b c6 75 da bd
       -0.11255579 -0.025578663 0.004138604 -0.10666995
000380 a2 bc 96 3d 0c d1 cc 3d d4 da 55 bd 7a 0e e3 bd
       0.073601976 0.1000081 -0.052210644 -0.110867456
000390 14 33 f5 3d 6a 78 f7 bd 00 97 f3 ba 8e 6a cc bd
       0.11972633 -0.12083514 -0.001858443 -0.09981261
0003a0 c0 73 13 3b 40 07 a3 bd 74 bd ce bd e2 b8 e9 bd
       0.0022499412 -0.07960367 -0.10094729 -0.11412217
0003b0 00 80 3a 37 ec 52 d1 bd c0 1d cd bd f4 38 43 3d
       1.1116266e-05 -0.10220894 -0.1001544 0.047661737
0003c0 ae 5f 91 bd cc b0 5a bd 74 11 a4 bd b0 3f b3 bc
       -0.070983276 -0.053391263 -0.080111414 -0.021880955
0003d0 ec e4 d5 3d 8c 47 c4 bd b0 28 a1 3d d0 da 2f bc
       0.10444054 -0.09583959 0.07869089 -0.010733321
0003e0 d8 cf b1 3d 80 bf ef 3d c8 77 55 bd c0 5e e7 bb
       0.08682221 0.117064476 -0.052116185 -0.0070608556
0003f0 c0 ad 7a bc 16 03 ca 3d 28 6c 40 3d 74 fb 69 bd
       -0.015300214 0.0986387 0.046978146 -0.05712457

layers.1.bias f4 [64]
000000 90 4d ce 3c a8 8c e8 3c 1a d5 b8 bd 72 45 bf 3d
       0.025183469 0.028387383 -0.09025021 0.093394175
000010 28 90 97 bc 94 f3 4e 3d 70 e1 da bd 38 67 f2 bd
       -0.018501356 0.050525263 -0.1068753 -0.11836094
000020 fe 15 b6 3d 60 6e 40 bd 18 c5 9c bc 08 96 27 3d
       0.088909134 -0.04698026 -0.01913695 0.040914565
000030 dc c4 16 3d d8 70 8e 3d da 3d ce 3d a0 57 79 bc
       0.036808833 0.06955117 0.10070391 -0.015218645
000040 80 72 16 bb 08 04 42 bd a0 6c aa 3d d0 f2 bc bc
       -0.002295643 -0.047367126 0.083215 -0.023065
000050 54 39 ff 3d 40 00 89 bc 7e 7a 8c bd ac f1 34 3d
       0.12462106 -0.016723752 -0.06859301 0.04417579
000060 a8 9f fa 3c dc b1 0b 3d 68 ad e1 bd ba e8 c4 bd
       0.030593708 0.034105167 -0.11019403 -0.096147016
000070 a6 67 cf 3d b0 e8 fd 3c 7c 1b 77 3d 88 af 46 bd
       0.10127191 0.030994743 0.060328946 -0.048507243
000080 82 f7 a1 bd d4 a4 23 3d c0 62 2d 3b 62 3f 91 3d
       -0.079085365 0.039952114 0.0026456565 0.070921674
000090 18 39 22 bd d0 4b 7b 3d d6 6d 95 bd a4 06 3e bd
       -0.03960523 0.061351597 -0.0729634 -0.04639305
0000a0 a8 6d 12 bd fc 8d 14 bd 38 cf 85 bc ca a7 9d bd
       -0.035749108 -0.03626822 -0.016334161 -0.07698019
0000b0 10 f6 ab 3d f0 4f 73 bc a6 46 cd bd 50 7a a5 bc
       0.08396542 -0.014850602 -0.10023241 -0.020199925
0000c0 f8 8d 21 bd bc f0 01 3d 42 e4 d2 3d 0c 0d 8b 3d
       -0.039442033 0.031723723 0.10297443 0.06789598
0000d0 e0 e2 17 3d c8 67 d3 bd 00 87 7a 3a 26 4f ca bd
       0.0370816 -0.10322529 0.000955686 -0.098783776
0000e0 bc 6e 1a 3d c0 ae 29 bc 26 6d a0 3d a0 ab 9e bc
       0.03770326 -0.010356605 0.078333184 -0.019368947
0000f0 10 06 12 3c 2c 41 3d bd 24 fc b0 3d 2e d0 e2 bd
       0.008912578 -0.04620473 0.08641842 -0.110748634

layers.2.weight f4 [64, 64]
000000 56 fd c9 3d c0 38 11 bb 0e 6c bd 3d 90 a9 a0 bd
       0.09862773 -0.002215907 0.092491254 -0.078448415
000010 a8 68 86 bc b0 f8 50 3c 40 f8 fa 3d ac 31 60 bd
       -0.016407326 0.012754604 0.12254381 -0.05473487
000020 8e b0 b2 3d ea c8 f4 bd 90 d4 8d bc 44 46 79 bd
       0.087250814 -0.11952384 -0.017313272 -0.060858026
000030 44 c5 e8 3d 90 c0 06 3c 98 cd b9 3c 8c cf 52 3d
       0.113657504 0.008224621 0.022681043 0.051467463
000040 40 38 6b bb c0 40 13 3b c0 53 39 3c a0 63 68 3c
       -0.0035891682 0.0022469014 0.011311471 0.014183909
000050 94 15 bf bd b4 45 54 3d 56 fc 96 bd 40 7f c3 bc
       -0.093302876 0.051824287 -0.07372348 -0.023864388
000060 80 81 5f bd c0 09 8d bb 90 1c df 3c 7c cd 28 3d
       -0.05456686 -0.004304141 0.0272353 0.04121159
000070 bc 68 87 bd 80 57 9f 3c be 3f d9 3d fe 49 9a 3d
       -0.06611773 0.019450903 0.10607861 0.07533644
000080 68 90 9b 3c ee b8 8f 3d b0 bc 70 bd 2e 2f c7 3d
       0.018989757 0.070176944 -0.058773696 0.09725796
000090 30 4a 8e 3d ee 66 d7 3d 20 bc fd bb 04 f1 44 bd
       0.06947744 0.10517679 -0.0077433735 -0.048081413
0000a0 d2 2e 86 bd 80 4a cb bb 10 03 88 bc 00 48 73 bd
       -0.06551899 -0.0062039495 -0.016603023 -0.059394836
0000b0 20 17 0b 3d 68 90 45 bd 34 e1 a4 3d 8c c7 19 bd
       0.0339576 -0.04823342 0.080507666 -0.03754382
0000c0 30 2d e3 bd a8 9a 7e bd 1a e7 f6 bd 1a 18 8d 3d
       -0.11092603 -0.06215921 -0.12055798 0.06889363
0000d0 68 72 a9 bc 44 6f 14 3d 3c 9c d0 3d c4 41 ed 3d
       -0.020684436 0.036238924 0.10186049 0.115848094
0000e0 d6 d6 f4 3d 4e bc d5 bd 00 87 29 ba 0c 86 fc 3d
       0.11955039 -0.10436307 -0.0006466955 0.12330255
0000f0 50 cd 64 bc 16 c8 fd 3d ca bd d1 bd 68 1e df 3d
       -0.013964966 0.12391679 -0.102412775 0.108944714
000100 74 21 17 3d d0 a5 d1 3d de 0d df bd 38 c5 fa 3d
       0.036897138 0.10236704 -0.10891317 0.12244648
000110 16 a9 e2 bd 30 df 9c 3d 38 7b 6c bd 0a f6 9f bd
       -0.11067407 0.07659757 -0.057734698 -0.078106
000120 48 43 cc 3d 72 33 93 bd 80 da 8a ba 42 84 ae bd
       0.099737704 -0.07187547 -0.0010593683 -0.0852132
000130 f8 72 5b bd 1c 48 8e bd de 99 80 3d 38 89 8e bd
       -0.05357644 -0.069473475 0.06279348 -0.06959766
000140 7a f4 d2 3d 88 9a ec bc 30 35 ea bd f0 04 c1 3c
       0.103005365 -0.02888228 -0.11435926 0.023561925
000150 10 b5 ed 3d 30 66 f9 3d 18 2a 41 bd 80 c2 a9 3b
       0.116068006 0.12177694 -0.047159284 0.005180657
000160 98 d7 c5 3d d8 9a a3 bc ca 08 df 3d 70 4b 2e bd
       0.09660262 -0.019971296 0.10890348 -0.04255241
000170 32 ce a9 3d 42 a1 ee 3d 24 c8 8a bd 04 84 7a 3d
       0.08291282 0.11651851 -0.06776455 0.061161056
000180 b8 71 ea 3c 98 ad 0f bd 08 2a 2f bd 98 19 d2 3d
       0.028618678 -0.03507766 -0.042764693 0.10258788
000190 80 10 1b 3d 88 85 cb 3c 9c e3 b9 3d 76 f8 89 bd
       0.037857533 0.024843946 0.09076616 -0.06736843
0001a0 c6 0d 99 bd 20 e3 e0 3b b0 46 ca bd 74 16 63 bd
       -0.0747333 0.006863013 -0.09876764 -0.055441335
0001b0 0c 7a ee 3d 00 0c 45 3b a0 0f 42 bc e0 21 38 bd
       0.11644372 0.0030066967 -0.011844546 -0.04495418
0001c0 64 69 18 bd f8 cf 86 3d 8e 9a ea bd d8 cc 9b 3d
       -0.037209883 0.06582636 -0.1145526 0.0760743
0001d0 44 4a e2 bd 7a d6 ba 3d c0 70 43 bb 9a 92 a7 3d
       -0.11049321 0.091229394 -0.0029821843 0.08182259
0001e0 58 dc b5 bc f8 17 0c 3d fc 7f 39 3d 8c c8 29 3d
       -0.022199795 0.034202546 0.04528807 0.041451022
0001f0 96 42 e8 bd 2e 3e a8 bd 00 3b eb 3a f6 06 ba bd
       -0.11340825 -0.08214985 0.001794666 -0.09083359
000200 a6 46 a8 bd 20 76 0d bc 2e 3c f4 3d c0 ca 0f 3c
       -0.082166 -0.00863412 0.11925541 0.008776367
000210 a8 df 9b 3c 38 c5 e2 bc 28 31 8c bd 68 df 55 3d
       0.019027546 -0.027681932 -0.06845313 0.05221501
000220 40 84 76 3b 20 7d d7 3b 70 f2 e9 bc d0 7a 36 bd
       0.0037615448 0.0065761954 -0.028557986 -0.044550717
000230 e8 00 a6 bd e0 cf 55 bd 26 4b 85 3d 7e 85 d2 bd
       -0.081056416 -0.0522002 0.06508474 -0.10279368
000240 0e df d2 3d 60 05 bc bb a6 76 a1 3d c0 83 b2 3d
       0.102964506 -0.0057379454 0.078839585 0.087165356
000250 08 ba dd bc 20 f8 66 3c 74 0f 8d 3d 88 a8 7e bd
       -0.027066246 0.014097244 0.06887713 -0.062172443
000260 96 dc bf 3d 04 23 03 bd 9c 83 fd bd a8 8e d6 bd
       0.09368245 -0.032015815 -0.12378618 -0.10476428
000270 e0 90 a0 3b 72 36 f4 bd a4 49 b9 bd 10 cd 75 3c
       0.004900083 -0.11924447 -0.09047249 0.015002504
000280 fc b8 53 bd fc b8 4c 3d a8 3b 3d bd 40 cf 9b bb
       -0.051690087 0.049981102 -0.04619947 -0.0047549307
000290 1c 98 af bd b0 da 3b 3c c4 a2 b2 3d 00 09 a1 ba
       -0.085739344 0.011465713 0.08722451 -0.0012286007
0002a0 90 81 ab bc 40 32 73 bc 20 7e 0d 3d a8 2d 56 bd
       -0.020935804 -0.0148435235 0.03454411 -0.052289635
0002b0 36 75 bb bd e8 b5 f1 bd c8 07 c9 bd d8 d9 fd 3c
       -0.091532156 -0.11802274 -0.09815937 0.030987665
0002c0 10 6c 4d 3d e2 9c da 3d c8 1e 47 bd 1e 89 c1 bd
       0.050151885 0.10674454 -0.04861334 -0.09449981
0002d0 0c 55 6c bd 58 c2 94 3c a0 9d 6a 3c 30 d9 0f 3c
       -0.057698295 0.018159077 0.014319807 0.008779809
0002e0 80 a0 c2 3a bc 73 c8 bd 70 55 f9 3d d4 9b 53 3d
       0.0014848858 -0.097876996 0.12174499 0.05166228
0002f0 a8 d6 0c 3d 4e ae f6 3d e0 86 5b bc c0 64 a6 3c
       0.0343844 0.12044965 -0.013398856 0.020311713
000300 fe da f1 3d f8 ae e6 bc 38 b5 8e 3d a4 a8 1e 3d
       0.118093476 -0.028159603 0.069681585 0.038735047
000310 18 43 c3 3d 20 71 11 bc e8 00 0f bd fe 8a 82 3d
       0.095342815 -0.008877069 -0.034912974 0.06374167
000320 40 d8 d3 3d 90 eb 30 3d 66 c1 9e bd 1a 96 d5 3d
       0.10343981 0.0431934 -0.077517316 0.1042902
000330 f0 ce 66 3c aa 2f 8b bd 6c 5c 05 bd 58 3e ad 3c
       0.014087424 -0.067962006 -0.032558843 0.021147892
000340 b0 fd 6f 3c 40 f1 5c 3b 40 a5 37 bd 98 8f a0 bc
       0.014647886 0.0033713132 -0.04483533 -0.01959972
000350 dc 5c 96 3d 14 5e e9 bd 68 ce b4 3d 50 c1 3f 3c
       0.0734193 -0.11394897 0.08828431 0.011703804
000360 ea b8 a9 bd 68 81 66 bd 50 73 99 bd 20 64 bf bc
       -0.08287223 -0.056275755 -0.07492697 -0.023363173
000370 2a 03 d2 3d 80 3e 83 ba d0 c9 25 3c 80 6b c4 bd
       0.1025451 -0.0010013133 0.010118917 -0.095908165
000380 22 f0 c4 bd ea 19 b7 3d 4e 7c a5 3d 18 29 d7 3d
       -0.09616114 0.089404896 0.0808035 0.10505885
000390 d0 d6 e5 bd 7e db dc bd c0 50 d8 bb fa 2d cc 3d
       -0.11222613 -0.10784052 -0.006601423 0.09969707
0003a0 da b7 97 bd a8 09 aa 3c 30 c9 51 3c 38 4d e4 3c
       -0.07408114 0.020756558 0.0128043145 0.027868852
0003b0 e0 32 de bd a0 eb 87 bb 2c 6e 49 3d dc ff ad bd
       -0.108495474 -0.0041479617 0.049177334 -0.08496067
0003c0 48 a9 71 3d e0 0e 60 bd e0 a0 14 bd 90 29 81 3d
       0.05899933 -0.054701686 -0.036286235 0.063067555
0003d0 48 05 91 bc b0 88 7c bc 3c c8 4e bd dc dd a5 bd
       -0.017702714 -0.015413448 -0.050483927 -0.08098957
0003e0 d8 37 f1 3d 3c d6 01 bd 50 f7 69 3d 6c dd e8 3d
       0.117782295 -0.03169845 0.05712062 0.11370358
0003f0 20 f7 1f bd 50 d7 4a bd aa 7f d5 3d ec f6 90 bd
       -0.039054036 -0.049521744 0.104247406 -0.070783466

layers.2.bias f4 [64]
000000 ba ba 9b 3d f8 29 a4 3d dc cd 05 bd 94 80 0b 3d
       0.07603975 0.080158174 -0.032667026 0.03405817
000010 d4 6d d4 3d 16 16 d6 bd 24 2a 5e bd d8 bf 97 bc
       0.103725106 -0.10453431 -0.054239407 -0.018524095
000020 16 dc b4 3d a0 97 f2 bc 4c cb 23 3d 72 74 c7 3d
       0.088310406 -0.029613316 0.0399888 0.09739007
000030 10 14 be 3d 04 d7 9d 3d 18 8b c5 3c 9e ae ce 3d
       0.0928117 0.077070266 0.024114177 0.10091899
000040 80 45 71 3b c0 80 bf bc a8 05 90 bd 30 9a 60 3c
       0.0036815107 -0.023376822 -0.07032329 0.013708636
000050 a8 2b 9d 3c 30 98 6e 3d 58 52 fd 3c 08 78 dd bd
       0.019185856 0.058250606 0.030923054 -0.1081391
000060 54 35 3f bd 38 52 48 3d ac f8 16 bd e0 fa 60 bd
       -0.046681717 0.048906535 -0.036858246 -0.054926753
000070 14 4f 9b 3d 7e e2 a4 bd 34 3b c3 bd 00 13 07 3b
       0.07583442 -0.080510125 -0.095327765 0.002061069
000080 b8 8f f9 3c e8 60 b5 3d fc 60 89 bd 10 37 33 3c
       0.030464038 0.08856374 -0.067079514 0.010938421
000090 60 06 a3 bd b4 4f 01 bd b0 01 ed bd 62 44 ca 3d
       -0.079602 -0.03157015 -0.115725875 0.09876324
0000a0 e0 03 db bb 0a 9a cf 3d ba ef ec 3d 80 cb ed 3b
       -0.0066838115 0.101368025 0.11569162 0.007256925
0000b0 70 83 57 bc b0 3b a9 3d 70 59 58 bc c0 38 31 bb
       -0.013153896 0.082633376 -0.013204917 -0.0027041882
0000c0 30 38 23 bd 80 1c 6c 3b 44 42 1a bd 90 97 24 bc
       -0.039848506 0.003602773 -0.037660852 -0.010045901
0000d0 6e 7e 84 3d c4 91 0f bd 74 51 95 3d b6 1d d3 bd
       0.06469427 -0.035051122 0.072909266 -0.10308401
0000e0 82 9f ab 3d a0 03 e7 bc 70 2c d3 3c 2e 6e 82 bd
       0.08380033 -0.02819997 0.025778025 -0.06368671
0000f0 20 a1 ab bd 16 44 8e bd be 04 bc bd d0 83 a1 bd
       -0.083803415 -0.0694658 -0.09180592 -0.07886469

layers.3.weight f4 [64, 64]
000000 cc 7f 27 bd 50 71 46 3d c8 9c d5 3c c8 80 92 3c
       -0.04089336 0.048447907 0.026075736 0.017883673
000010 98 df 2d 3d de e9 f9 bd 04 48 9d 3d b8 81 8d bd
       0.042449564 -0.1220281 0.076797515 -0.069095075
000020 d8 7b d0 bd e0 34 1f 3c ae 12 f1 bd 98 c4 e1 bd
       -0.10179871 0.009717196 -0.11771141 -0.110238254
000030 26 e2 d3 bd 4e 9a 86 bd bc 50 f0 3d 98 4b a1 bc
       -0.10345869 -0.065724 0.11734149 -0.019689366
000040 08 27 87 bd be 24 98 bd 0e e7 8f bd 64 32 82 3d
       -0.065992415 -0.07428883 -0.07026492 0.063572675
000050 ee 27 b8 bd a0 ff 74 bc 06 7a d0 bd 06 b9 b8 bd
       -0.08991991 -0.014953524 -0.10179524 -0.090196654
000060 d0 d9 da 3d 64 e1 20 3d 38 30 25 bd 92 65 ef bd
       0.10686076 0.03927745 -0.040329188 -0.11689295
000070 d2 ee c9 bd 30 07 55 3c 4a 09 91 bd 4a 51 c3 3d
       -0.098600045 0.013002202 -0.0708185 0.09536989
000080 c0 07 41 bd b4 6f d5 3d 8a 26 cc 3d 78 31 82 bd
       -0.04712653 0.10421696 0.09968288 -0.06357092
000090 18 be a1 3c f8 eb ea bd 1e 5b dd 3d 64 49 ff 3d
       0.019743964 -0.11470789 0.10808395 0.1246517
0000a0 c0 d1 a9 bb a2 70 e7 bd bc 17 c5 3d d8 e5 ff 3d
       -0.005182475 -0.1130078 0.096236676 0.12495011
0000b0 60 77 ab bd e4 2c 69 bd 40 3e 74 3c 30 78 93 3c
       -0.08372378 -0.056927577 0.01490742 0.018001646
0000c0 d0 67 e7 3d de f8 f8 3d 90 c2 4f 3c e0 49 19 3c
       0.112990975 0.12156843 0.012680665 0.009355992
0000d0 30 ee 29 3d c4 78 49 3d 78 cf 70 bd 80 73 76 bc
       0.04148692 0.049187437 -0.058791608 -0.015042186
0000e0 6c 08 2c 3d e8 46 e3 bc 68 c9 ce 3d 10 49 df 3d
       0.04200022 -0.027743772 0.10097009 0.109026074
0000f0 c6 cf 8b bd e0 b6 4c 3d a0 be e0 3c c4 12 4c 3d
       -0.06826739 0.04997909 0.027434647 0.049822584
000100 b0 82 40 bc de ea de bd 28 d8 8a bd fa 9f 8b bd
       -0.011749908 -0.10884641 -0.0677951 -0.068176225
000110 30 68 64 3c 20 e2 4f 3c 7a 45 e8 3d a8 5a c1 3d
       0.013940856 0.01268819 0.113413766 0.094411194
000120 b6 04 8a bd fa 7a f9 bd 80 53 df 3b 80 22 d0 3b
       -0.0673918 -0.12181659 0.006815374 0.006351769
000130 4a ca 9e 3d e8 fb da bc c4 8b bb 3d b8 1d 9e 3d
       0.07753427 -0.026731446 0.091575176 0.07720512
000140 0c 62 fa 3d 64 cd a8 3d 2c ed ff bd 5e c4 a0 3d
       0.12225732 0.082423 -0.12496409 0.07849954
000150 d0 c1 0e 3c 00 87 71 ba 6e 5c a4 3d d0 96 13 bc
       0.008713201 -0.0009213537 0.08025442 -0.0090081245
000160 20 64 e5 3b 1c 31 5a 3d 7a 31 f5 3d e0 34 2a bc
       0.007000461 0.05326949 0.119723275 -0.010388583
000170 6e c9 c7 bd e8 f1 fb bc 42 13 c2 bd 00 99 ff 3b
       -0.097552165 -0.030754998 -0.094763294 0.0078002214
000180 30 ef de bc 26 bf 96 3d 44 8d 7f 3d b4 21 1b bd
       -0.027213663 0.073606774 0.06239058 -0.03787394
000190 6e aa 8a bd 66 37 8b 3d de 2b 93 bd 1c b1 96 bd
       -0.06770788 0.06797676 -0.071861014 -0.07358
0001a0 34 ee 0c 3d e0 0b 53 3d c8 a6 90 bc e0 f2 95 3c
       0.034406856 0.051524997 -0.017657652 0.018304288
0001b0 a8 c7 af bd 2c 20 af bd 80 1d 21 3c d8 bc 32 bd
       -0.08583003 -0.08551058 0.0098336935 -0.043637127
0001c0 a0 03 8b 3d 72 47 a3 3d 00 0e 11 bb 80 20 3a 3c
       0.06787801 0.079726115 -0.0022133589 0.011360288
0001d0 4e 28 86 bd 70 28 a6 3c 94 b7 43 3d 3a d7 fb 3d
       -0.06550656 0.020282954 0.047782496 0.122969106
0001e0 d8 f8 ec 3d 46 e3 cd bd 58 79 d8 3d bc 91 d9 3d
       0.11570901 -0.100531146 0.105700195 0.106235
0001f0 00 32 80 ba 70 9f 2d bc c6 52 d2 3d b0 e4 27 bc
       -0.0009780526 -0.010597095 0.10269694 -0.010247394
000200 a0 55 09 3d 3e b9 d6 bd 50 f3 80 3d 96 81 af 3d
       0.033528924 -0.10484551 0.06296408 0.085696384
000210 9e 6c e0 3d ac cc bb bd 48 25 46 3d 54 bc d9 3d
       0.10958217 -0.091698974 0.048375398 0.10631624
000220 2c d2 88 3d 60 68 c2 bd d4 5b 32 bd f0 2a c4 bd
       0.06680712 -0.09492564 -0.043544605 -0.09578502
000230 b4 ca f7 bd 42 fe d1 3d 80 d2 d6 3d fc 9e b2 bd
       -0.120992094 0.10253574 0.104893684 -0.0872173
000240 04 c5 2c bd 02 11 ee bd f8 02 a1 bd 3c 08 c4 3d
       -0.042180076 -0.11624338 -0.07861894 0.09571883
000250 1a ec c6 bd 20 e1 97 3d a8 aa 45 3d 86 6b be 3d
       -0.097130015 0.07415986 0.048258454 0.09297852
000260 44 7d 6f bd dc af b4 3d 94 3a a7 3d 58 0a b8 bd
       -0.058469072 0.08822605 0.0816547 -0.08986348
000270 80 f9 e9 ba de ff f8 3d 68 2f 74 bd 78 43 97 bc
       -0.0017850846 0.12158178 -0.059615523 -0.018464789
000280 18 1b 7f bd 48 cd 8b bc c4 0d 86 bd f6 a3 f1 bd
       -0.062281698 -0.01706566 -0.06545594 -0.11798851
000290 9c 6b e3 bd 84 3b d6 3d 60 6b 40 bc 9c a8 5d bd
       -0.11104509 0.104605705 -0.01174435 -0.054115877
0002a0 fe 9a c8 bd 92 71 d0 3d 82 d0 fd bd 48 23 ca 3d
       -0.097951874 0.10177912 -0.12393285 0.098700106
0002b0 38 ad 60 3d 62 4f 8f bd 60 76 3f bd 46 cc a4 3d
       0.054852694 -0.06997563 -0.04674375 0.080467746
0002c0 f6 29 ea bd 98 88 fd 3d 98 65 f4 3d 70 0d e3 bd
       -0.11433785 0.12379569 0.1193344 -0.110865474
0002d0 e6 30 99 bd 5a 46 c7 bd a4 cb 9e bd ce 0b 8e 3d
       -0.0748003 -0.09730215 -0.07753685 0.06935845
0002e0 00 5c d6 39 d2 1d b9 bd 8c 46 06 3d 9c 20 5f 3d
       0.00040885806 -0.09038891 0.032782122 0.054474458
0002f0 b0 a8 07 bd c8 d2 24 bd d8 3c fb bd fc 44 75 bd
       -0.033119857 -0.04024008 -0.122674644 -0.05988024
000300 fa d4 81 bd 40 0b c8 3c 12 af d4 bd a2 d0 89 bd
       -0.0633945 0.024419427 -0.103849545 -0.06729247
000310 78 d3 f5 bc de 7a a3 3d e0 50 0c 3d 66 6b f3 3d
       -0.030008063 0.079824194 0.034256816 0.11885719
000320 c0 88 3f bc e0 c7 54 3d 5a d2 df bd 40 9b 7c 3b
       -0.011690319 0.05194843 -0.10928793 0.0038544685
000330 a0 06 b8 bd ee 21 97 bd b4 74 40 bd f4 f9 be bd
       -0.089856386 -0.073795184 -0.046986297 -0.093250185
000340 5c 07 74 bd c0 87 d4 3d e8 32 58 3d 6c 4b 98 3d
       -0.05957733 0.10377455 0.052782923 0.074362606
000350 3a 66 ed 3d b0 5a 1a 3c 0c 8d 52 3d 90 05 1f 3d
       0.11591764 0.009421036 0.051404044 0.038823664
000360 76 92 9b bd fe ed 9a bd 54 db 37 3d d0 be 61 bc
       -0.075962946 -0.07564925 0.044886902 -0.013778403
000370 28 b3 56 3d 54 fe c3 3d 84 ac 1c bd c0 0f 47 bd
       0.05241695 0.095699936 -0.03825046 -0.048599005
000380 da d4 f5 3d c8 6a e7 3c b0 bb 85 bd 28 79 8a bd
       0.12003489 0.02824916 -0.06529939 -0.0676139
000390 76 27 b4 3d 4c bc 9c bd d0 d3 dd bc 00 5d 1a bc
       0.08796589 -0.07653102 -0.02707854 -0.009421587
0003a0 c4 0f a2 bd 3c 06 cd bd 00 64 09 3a bc 0a 10 bd
       -0.07913163 -0.10010955 0.00052410364 -0.035166487
0003b0 74 7b 38 bd e4 b1 95 bd 08 55 ef 3d 00 8c 62 3d
       -0.04503961 -0.073093206 0.1168614 0.055309296
0003c0 6c a4 28 3d a0 21 c7 bd 58 0a ad bd c0 ed ee bc
       0.04117243 -0.0972321 -0.084492385 -0.029166102
0003d0 98 07 f9 3d 60 51 71 3d 80 d1 9f 3b 6e 1a ca bd
       0.121596515 0.058915496 0.0048772693 -0.09868322
0003e0 a8 82 8f 3d f8 2a 49 3d be a0 8b 3d d8 26 bc 3d
       0.070073426 0.049113244 0.068177685 0.09187096
0003f0 c6 43 a6 3d 68 bf af 3c 28 c1 f3 bd 30 bc b5 3c
       0.081183955 0.021453574 -0.11902076 0.022184461

layers.3.bias f4 [64]
000000 80 30 ef bd c0 31 68 3b e0 22 2d bc 00 b2 2f 3c
       -0.116791725 0.0035430044 -0.010567397 0.010723591
000010 f0 74 ed 3d c0 9e fd 3c f2 d5 c0 3d 88 b3 d4 3c
       0.1159457 0.030959487 0.09415807 0.025964513
000020 46 41 b8 3d c4 ff a1 3d 00 29 ed 3b 7c 8e 95 bd
       0.08996825 0.079101115 0.0072375536 -0.07302567
000030 f4 41 13 3d 40 46 7d bb 30 1f 1a 3d 44 00 e2 bd
       0.03595157 -0.0038646609 0.0376274 -0.11035207
000040 28 0b f8 bd b8 7c d5 3c b0 3c 3d bc d4 0b 3e bd
       -0.12111503 0.026060447 -0.011550114 -0.046398
000050 2c 5f 73 3d 0c dd e9 3d 22 93 df bd e0 d8 28 3d
       0.059416935 0.114191145 -0.10916735 0.041222453
000060 5c 3f a9 bd 30 e4 a1 bd 90 eb ff 3d 30 8e 59 bd
       -0.08264038 -0.079048514 0.12496102 -0.053114116
000070 f0 47 ef 3c 28 14 af 3d b4 b1 e4 3d 00 41 db bb
       0.029209107 0.085487664 0.11166707 -0.006691098
000080 e8 d1 58 3d f6 7e e3 3d dc c1 2e bd 26 aa 85 3d
       0.052934557 0.111082 -0.042665347 0.06526594
000090 78 9d e1 bd 4c cc 4b 3d 9e 8c f0 bd d6 60 e0 bd
       -0.11016363 0.04975538 -0.117455706 -0.1095597
0000a0 24 c1 82 bd 9c 26 94 3d f8 5b f6 3d 3a e7 be 3d
       -0.06384495 0.07233927 0.120292604 0.09321447
0000b0 1c 54 1f 3d b0 4e 19 3c 50 35 79 3d 54 b6 53 3d
       0.038898572 0.0093571395 0.06084186 0.051687554
0000c0 60 56 db 3d a4 a4 41 3d ce 8e 87 bd c6 af fd bd
       0.10709834 0.047276154 -0.06619035 -0.12387042
0000d0 50 38 12 bc 08 29 54 bd ba 71 80 3d 4a dd d6 3d
       -0.008924559 -0.051796943 0.062716916 0.10491426
0000e0 cc d0 64 bd 14 cb e5 3d f2 e0 af bd f0 47 3d 3c
       -0.055863187 0.11220375 -0.08587827 0.011552796
0000f0 8e 65 dd bd ba 0c d6 3d 96 04 d6 3d b6 70 82 3d
       -0.10810386 0.10451646 0.104500934 0.06369154

weights_past.0 f4 [64, 64]
000000 f8 5c ac 3d f0 5c a5 3d aa 33 cd 3d 32 2a a9 bd
       0.0841617 0.08074367 0.1001962 -0.08260001
000010 2c 39 db 3d 20 75 2a bc 20 17 37 bd 2e 07 a9 bd
       0.10704264 -0.010403901 -0.044699788 -0.082533225
000020 76 a1 98 3d 9c 42 2a bd e8 f0 a5 3d 84 b6 9c 3d
       0.07452671 -0.04156743 0.0810259 0.076519996
000030 e6 fa b9 bd e0 1a ba bc 30 bf 84 bc ec e5 04 3d
       -0.09081058 -0.022717893 -0.016204447 0.032445833
000040 58 7a a1 bd c0 81 87 3b 70 74 b9 bc 00 98 d3 3c
       -0.07884663 0.0041353405 -0.02263853 0.025829315
000050 f2 d6 84 bd ee 2c d9 bd cc a8 f8 3d 6e 4c 83 bd
       -0.0648631 -0.10604273 0.121415704 -0.06411062
000060 14 72 6b bd 60 46 bc 3c 10 7d 71 bc f0 15 94 3d
       -0.05748184 0.022982776 -0.01473929 0.07230747
000070 50 cd 3e 3d 4a bb 92 3d c0 cd 09 3d d4 a3 fc 3d
       0.04658252 0.07164629 0.033643484 0.12335935
000080 c0 90 21 bd b8 85 9e bc bc 33 d2 bd ec 39 d8 bd
       -0.039444685 -0.019350871 -0.10263774 -0.10557923
000090 1c 3a 06 3d 28 83 af 3d c8 7f 4a 3d 88 a9 ed 3c
       0.03277026 0.08569938 0.049438268 0.029011503
0000a0 30 26 98 3c 64 a3 ab bd f2 85 d0 3d 8c 57 87 3d
       0.018572897 -0.08380774 0.10181798 0.06608495
0000b0 08 15 01 bd 1a 6e a2 bd ce a5 f9 bd c0 c1 cc bd
       -0.031514198 -0.079311565 -0.12189828 -0.099978924
0000c0 0a d2 c1 bd f0 2b b7 3c 24 be fa 3d 00 93 6e bb
       -0.0946389 0.022359818 0.12243298 -0.0036403537
0000d0 28 08 d2 bc 68 4b 9e 3d f6 4b f7 3d 44 d9 a4 3d
       -0.025638655 0.07729226 0.12075035 0.08049253
0000e0 44 03 69 3d 88 f9 86 bc 28 54 a1 3d 94 44 f5 bd
       0.05688788 -0.016476408 0.0787738 -0.11975971
0000f0 00 00 74 38 e0 b4 af 3b 00 d8 a8 b8 70 b1 a1 3c
       5.8174133e-05 0.005362138 -8.0510974e-05 0.01973793
000100 20 c2 a2 3c 74 06 b7 bd 4e f1 9c bd 98 34 a8 bd
       0.019867957 -0.08936778 -0.07663213 -0.082131565
000110 7c e6 d4 3d 3a c5 bf 3d a4 97 20 3d 52 80 a1 3d
       0.10395524 0.0936379 0.039207116 0.07885803
000120 06 15 ac 3d 68 2d a4 3c 50 f6 45 3d 6c f1 83 bd
       0.084024474 0.020041183 0.048330605 -0.06442532
000130 00 05 cb ba 9e 51 e4 3d 8c b8 72 3d 90 c3 7f 3d
       -0.0015489161 0.1114838 0.05925803 0.062442362
000140 54 89 5c 3d 36 24 9b bd 7a 82 f8 bd 40 40 65 3b
       0.053841904 -0.07575266 -0.121342614 0.0034980923
000150 8e 85 d8 bd e8 88 c7 bd 68 07 ad bd 6e bb b6 bd
       -0.105723485 -0.0974291 -0.08448678 -0.08922468
000160 1c 22 a4 bd b8 d2 e6 bd d4 4b b1 3d 6c 6f 53 3d
       -0.08014318 -0.1127066 0.08657041 0.051619932
000170 00 62 bb bc 76 63 f9 bd 90 ed 5c 3d 00 08 51 bc
       -0.022873878 -0.12177174 0.053937495 -0.012758255
000180 d0 44 d1 bd 08 08 b8 bc 1c e7 4e bd 58 8d 97 3c
       -0.10218203 -0.022464767 -0.05051337 0.018500015
000190 92 3b c6 bd 00 f9 f2 bc ee 26 bf bd 14 5c 76 3d
       -0.09679331 -0.029659748 -0.09333597 0.060146406
0001a0 8c a1 00 bd 40 71 7d bb 0c 61 d9 3d 10 63 45 3d
       -0.031404063 -0.0038672239 0.10614213 0.048190176
0001b0 06 56 a1 3d f0 15 03 3d 7c 54 86 bd a6 8a d1 3d
       0.07877736 0.032003343 -0.06559083 0.10231523
0001c0 c6 0d c6 3d 00 66 3b ba 48 40 78 3d 06 d1 80 3d
       0.09670596 -0.0007148683 0.06060818 0.06289868
0001d0 7c ea f8 3d 00 c7 f9 bb c0 bd 01 bb 6c ec 48 3d
       0.12154099 -0.0076225996 -0.0019796938 0.049053594
0001e0 0c f9 ed bd 80 e8 db bc 36 c0 e9 bd 6a 4c c0 3d
       -0.116197675 -0.026844263 -0.114136145 0.09389575
0001f0 62 99 94 3d c0 e6 0f bd 40 f9 b1 3c 4c 41 18 bd
       0.07255818 -0.03513217 0.021725297 -0.037171647
000200 00 cf 79 bd b8 bb eb 3c 52 0a e9 bd b0 ea 65 3d
       -0.060988426 0.028776035 -0.113789216 0.05613202
000210 7e 10 b2 3d 10 a3 ef bd c0 9f ab bb 6c ff eb bd
       0.08694552 -0.117010236 -0.0052375495 -0.11523327
000220 b8 8b af 3d b8 23 a8 3d 6c c4 05 3d 60 c6 20 3d
       0.08571571 0.08209938 0.032658026 0.039251685
000230 96 e5 94 bd e4 61 b4 3d 1c 24 ce 3d 1a 71 c8 3d
       -0.072703525 0.08807734 0.10065481 0.097871974
000240 72 2e a3 bd 74 10 20 3d b0 ef c8 3d b6 19 f8 bd
       -0.07967843 0.03907819 0.09811342 -0.12114279
000250 00 ae e1 b9 f0 ef 73 bc 60 66 25 3d c8 fb f7 3c
       -0.00043044984 -0.0148887485 0.040380836 0.030271426
000260 60 48 76 bc 14 d2 f3 bd c0 e6 63 bb a6 e1 e9 3d
       -0.015031904 -0.119053036 -0.003477499 0.11419992
000270 30 6b a0 bd 0c 4c f1 bd fe f3 ef 3d c2 99 fd 3d
       -0.078329444 -0.11782083 0.1171646 0.123828426
000280 86 3c f6 3d 7a 86 ae 3d 1c e1 2d 3d b8 a0 9a bc
       0.12023263 0.08521743 0.04245101 -0.018875465
000290 00 c2 b3 3a c4 95 00 bd 70 8f 02 3d 14 8f 21 bd
       0.0013714433 -0.031392828 0.031875074 -0.03944309
0002a0 74 f3 7f bd c4 d8 6b 3d 98 6c c7 bc a2 7b ab 3d
       -0.062488034 0.05757977 -0.024343774 0.083731905
0002b0 90 eb 07 bc ea a4 f3 bd b2 d2 92 3d 5c 5c ab 3d
       -0.008295909 -0.11896689 0.07169093 0.083672255
0002c0 78 28 f9 3c 04 b2 b9 bd 88 12 dd bc cc 72 7b bd
       0.030414805 -0.09067157 -0.026986375 -0.061388776
0002d0 c8 84 22 3d 98 fd 61 bd e8 29 60 3d c6 b4 ba 3d
       0.03967741 -0.055173486 0.054727465 0.09116511
0002e0 7c 3c a7 bd 90 d2 9c 3c 50 91 ec bc b8 33 90 bc
       -0.08165833 0.019143373 -0.028877884 -0.017602786
0002f0 b0 a7 13 bc b0 c8 ac 3c f0 1b dd bc dc 10 45 bd
       -0.009012148 0.021091789 -0.02699086 -0.04811178
000300 58 3e c7 3c 20 0d b0 bc f0 c9 73 3d 68 61 8b bc
       0.02432172 -0.021490633 0.059518754 -0.01701422
000310 b0 00 d4 3c 80 39 99 3d d8 4a fb bc 22 7e 8c 3d
       0.025879234 0.074816704 -0.030675337 0.068599954
000320 92 80 a4 bd dc eb ed 3d ac 49 a8 3d 60 a2 37 bd
       -0.08032335 0.11617252 0.08217177 -0.044832587
000330 08 c5 6f 3d 80 d6 c9 3c 7e 95 8e 3d 10 4d 7c 3c
       0.058537513 0.024638414 0.06962107 0.0153992325
000340 48 45 6c 3d fc 19 f0 3d 60 1a b0 bd 40 0d 9d 3b
       0.05768326 0.11723706 -0.08598781 0.0047928393
000350 f4 7b 78 bd f0 ba 4a 3d 3c dd 95 3d 98 f1 f7 3c
       -0.060665086 0.049494684 0.07317588 0.030266568
000360 be a5 b6 3d 80 69 2c bd d8 b5 07 3d fe 98 86 bd
       0.089183316 -0.0420928 0.033132404 -0.0657215
000370 16 d2 bd bd d8 9c bc bd 4a d8 da bd e0 ca 6a bc
       -0.09268586 -0.09209603 -0.10685785 -0.014330596
000380 9e 94 e2 3d f4 69 1e 3d d8 e4 8d 3d 14 c8 97 bd
       0.11063503 0.038675264 0.06928414 -0.07411209
000390 d4 e6 e1 bd 26 80 f4 3d 24 76 64 3d 68 f2 6a bd
       -0.11030355 0.11938505 0.05577673 -0.057360083
0003a0 c0 1e e8 3b 28 41 f4 3c 52 b6 8c bd 0e ad 82 3d
       0.007083744 0.029816225 -0.06870712 0.06380664
0003b0 a0 6d e8 3b 68 08 cc 3c 08 be 31 3d 90 3e 2c bc
       0.0070931464 0.024906352 0.04339412 -0.010512963
0003c0 20 3f 7d 3c 74 1a 05 bd c2 b7 ee bd 26 b4 9b 3d
       0.015456945 -0.03249593 -0.11656143 0.0760272
0003d0 68 43 8b 3c 24 f5 16 3d 20 f5 ed bb d0 39 97 bc
       0.016999915 0.036854878 -0.007261887 -0.018460184
0003e0 08 63 e6 3d 2a cb a7 bd d4 9c e6 bd 9a 11 ea bd
       0.112493575 -0.08193047 -0.11260381 -0.114291385
0003f0 28 1c 8d bc 30 36 d5 3d 60 5e 5c 3c c6 35 b3 3d
       -0.01722534 0.10410726 0.013450235 0.08750491

weights_past.1 f4 [64, 64]
000000 98 89 c2 3d c0 9c b4 bd ae 40 ab bd ec b2 cb 3d
       0.094989 -0.0881896 -0.08361946 0.09946236
000010 68 f5 d1 3d 56 fd d5 bd fc ec 4b 3d 62 76 a0 3d
       0.10251886 -0.104487106 0.049786553 0.0783508
000020 e8 d4 7d 3d 4c d3 2c 3d 58 e4 f7 3c 04 a4 8d bd
       0.06197062 0.042193696 0.03026025 -0.06916049
000030 44 dc ff 3d d0 f3 69 3c 9c 70 65 3d 3c 76 24 3d
       0.12493184 0.014279321 0.056015596 0.04015182
000040 80 4f 42 3b bc 03 5d 3d 20 f5 62 3d fc fa e9 3d
       0.0029649436 0.05395864 0.05540955 0.114248246
000050 5c 02 40 bd 80 2b 3d 3d 10 13 b9 3c c0 3a c4 3d
       -0.04687725 0.046184063 0.022592098 0.09581518
000060 98 bd 66 3d 00 c3 6e 3d a8 39 20 bd 74 b0 bb bd
       0.056333154 0.058291435 -0.039117485 -0.09164515
000070 b0 5a 06 3d 88 69 ad bc dc e7 2d 3d 90 97 c9 3d
       0.03280133 -0.021168485 0.042457446 0.098433614
000080 a8 8f d8 3c 54 69 b1 bd 56 40 af 3d e0 85 14 3c
       0.026435688 -0.08662668 0.08557193 0.009065121
000090 52 df ba bd 90 0c d5 bc e0 18 fe bb 5c 29 c5 bd
       -0.09124626 -0.026006967 -0.00775443 -0.09627029
0000a0 b0 eb 5d bc d8 a4 bf bc 40 a7 80 3c a0 ad 86 3d
       -0.013544962 -0.023394033 0.015704751 0.06576085
0000b0 6c 50 e4 3d 40 d6 c7 bb 28 d3 d7 3d 5c e6 4b 3d
       0.11148152 -0.0060985386 0.10538322 0.049780235
0000c0 30 a6 a9 bc e0 4b bb 3b 7e ac f5 3d 84 17 b9 bd
       -0.020709127 0.005715832 0.11995791 -0.090376884
0000d0 30 e6 4d bc 5a a3 f5 3d 50 3b 19 bd 54 70 b6 3d
       -0.012567088 0.119940475 -0.03741008 0.08908144
0000e0 40 c7 3d 3c 86 d3 bf 3d 98 ec ea 3c 78 98 a7 3c
       0.011583149 0.09366517 0.02867727 0.020458445
0000f0 88 51 bb 3c 90 f4 00 bc 40 40 c9 bd 50 dc 3b 3d
       0.022866026 -0.007870808 -0.09826708 0.045864403
000100 d8 e9 c3 bd 4c 32 0f 3d 0c c0 b4 bd c8 d8 35 bd
       -0.095660865 0.034960076 -0.088256925 -0.04439619
000110 f2 f7 aa 3d 08 68 d3 3d 08 34 ae bd d6 0a de bd
       0.08348073 0.10322577 -0.08506018 -0.108419105
000120 64 1c 20 3d d4 8a b7 3d ea 47 90 3d 3c 04 b5 3d
       0.039089575 0.08962026 0.070449665 0.08838698
000130 68 02 a8 3c e0 06 af 3d 44 52 78 3d 4e 57 8b 3d
       0.02050896 0.08546233 0.06062533 0.068037614
000140 30 e2 bd 3c b0 c1 0f 3d ae 16 a2 3d 1a f9 81 3d
       0.023179144 0.035096824 0.07914482 0.063463405
000150 60 83 61 3c 90 55 08 bd ca ca 90 3d 7a 06 c6 3d
       0.013764232 -0.033284724 0.07069929 0.09669204
000160 68 03 21 bd 80 49 dd 3d c6 7b e7 bd 72 06 ad bd
       -0.03930989 0.10805035 -0.11302905 -0.08448495
000170 f8 50 8d 3c 96 63 94 bd 60 ff 99 bc 10 13 42 3d
       0.017250523 -0.07245557 -0.01879853 0.04738146
000180 10 30 84 bc 26 04 e5 bd 5e cf c9 3d ee 82 e1 3d
       -0.0161362 -0.11182432 0.09854005 0.11011301
000190 62 d6 ce 3d 72 fd b3 bd 10 63 7f bd 20 f6 35 3c
       0.10099484 -0.08788575 -0.062350333 0.011106044
0001a0 bc 3e 3b bd e2 f3 ca 3d a8 38 b7 bd 80 5a 20 3d
       -0.045714125 0.09909798 -0.08946353 0.039148808
0001b0 38 0b 18 3d 62 dc f7 3d cc 4c 35 3d 90 be ab bd
       0.037120074 0.121025816 0.044262692 -0.08385956
0001c0 5c 49 c1 bd 9e fd f7 3d f0 1a c0 3d f8 0c f7 bd
       -0.0943782 0.121089205 0.09380138 -0.120630205
0001d0 de ba a3 3d cc 21 e3 bd a6 c1 9c 3d 1e 9b e7 bd
       0.079946265 -0.110904306 0.07654123 -0.11308883
0001e0 40 52 92 3b f4 6e 4a 3d a0 d7 65 3c 46 70 82 bd
       0.0044653714 0.04942222 0.01402846 -0.06369071
0001f0 0a 6e e8 3d 2c e6 1e 3d 00 cb 6e bb 70 3a 93 3d
       0.11349113 0.038793728 -0.0036436915 0.071888804
000200 5c 14 11 bd f6 88 8b bd 08 5e 6d bd 4c 7c 3f bd
       -0.035419807 -0.068132326 -0.057951003 -0.046749398
000210 3a 25 a8 bd c8 e4 3b bd a0 11 da bd 86 63 aa bd
       -0.082102254 -0.04587248 -0.10647893 -0.08319764
000220 50 ba 17 bc 56 25 c8 3d 6c c5 7f 3d a0 0c 8a 3c
       -0.009260729 0.09772746 0.062444136 0.016851723
000230 60 84 7a 3c e4 a2 ae bd 98 b8 e0 3d 6a 80 a7 3d
       0.01529035 -0.08527163 0.109727085 0.0817879
000240 94 33 42 bd 20 ea 7e bc ac f3 19 bd 6c e5 b5 3d
       -0.04741247 -0.015558749 -0.0375859 0.088816494
000250 c0 08 a9 bd a8 52 26 3d 8c 06 14 3d d8 d5 e1 3d
       -0.08253622 0.04060617 0.036139056 0.110271156
000260 40 5c 4d bd 02 1c ce 3d 24 fa 1a bd 54 06 40 3d
       -0.050136805 0.10063936 -0.03783621 0.046881035
000270 a6 e9 a6 bd 00 6f c4 ba 54 0e a4 3d 7a 8c cd bd
       -0.08150034 -0.0014986694 0.080105454 -0.100365594
000280 10 73 1d 3d d6 1d d2 bd f2 50 ed 3d 2c 67 fb bd
       0.03843981 -0.10259597 0.11587705 -0.12275538
000290 3c 64 86 bd e8 3a 85 3c 70 8b 9b bd 78 9e b6 bd
       -0.06562087 0.01626344 -0.07594955 -0.08916944
0002a0 7c 8a ff 3d 0c 66 87 3d 62 59 91 3d c0 a7 58 3d
       0.12477586 0.06611261 0.070971265 0.052894354
0002b0 78 04 5a 3d 72 1a 8d 3d 88 e1 b3 bd c4 14 bf 3d
       0.053226918 0.0688981 -0.08783251 0.093301326
0002c0 60 86 b1 3c 3c b0 69 3d 18 32 d1 bd d0 86 98 bd
       0.02167052 0.057052836 -0.10214633 -0.074475884
0002d0 4e 93 dc 3d c0 43 f6 3b 40 6d de bc 6c 43 36 3d
       0.10770284 0.0075154006 -0.027151704 0.044497892
0002e0 00 24 9c b9 18 c3 a9 bd 06 f2 e0 bd 14 cf ff bd
       -0.0002978146 -0.08289164 -0.10983662 -0.12490669
0002f0 de d3 e7 3d 46 80 93 3d 48 91 e1 bd 38 e4 e1 bc
       0.11319707 0.072022006 -0.11014038 -0.027574643
000300 d8 0d f8 bc a0 57 a9 3b 28 c5 81 3d 20 be 88 3d
       -0.030280039 0.0051679164 0.06336433 0.066768885
000310 b8 3b 7e 3d 96 ee ec 3d 86 53 c9 bd 40 63 d8 bc
       0.06206867 0.11568944 -0.09830384 -0.026414514
000320 60 d8 83 bd dc 22 87 bd 46 4e 9b 3d 6e 32 e7 bd
       -0.06437755 -0.06598446 0.07583289 -0.112889156
000330 ac 1d ff bd 4c 5c a5 3d dc cd e5 bd 34 de d4 bd
       -0.12456831 0.08074245 -0.11220905 -0.103939444
000340 bc af 1f 3d 3c 8b a1 3d 98 5b 3e 3d 30 bd 9b 3d
       0.038985953 0.07887885 0.04647407 0.07604444
000350 fa f5 a7 bd 9c 3a 72 bd 96 92 d6 3d 28 5c eb bc
       -0.08201213 -0.059137926 0.10477178 -0.028730467
000360 40 a2 df 3c 14 88 c1 bd d4 a9 0a 3d 44 0a e3 3d
       0.027299047 -0.09449783 0.033853367 0.110859424
000370 80 6b 02 3b dc 9e 50 3d 66 ea b5 3d d4 fd 12 bd
       0.00199005 0.05093275 0.088825986 -0.0358866
000380 d2 06 bf bd 02 4a 98 3d 44 6f 96 bd 28 eb d0 bd
       -0.09327473 0.07435991 -0.07345441 -0.102011025
000390 60 f0 b4 bd f2 3e 81 3d 3c 11 88 3d 22 ba d9 3d
       -0.088349104 0.06310834 0.06643912 0.10631205
0003a0 62 f4 c5 bd c8 d8 0a 3d 00 89 8e 3b b0 9c 50 3c
       -0.09665753 0.033898145 0.0043498278 0.01273267
0003b0 f4 44 6c 3d 50 90 50 bc 0a 63 bb 3d 10 7b 2b 3d
       0.057682946 -0.012729719 0.091497496 0.04186541
0003c0 0a e6 ef bd 92 ed ef 3d 00 0e 27 3b d0 95 e5 3c
       -0.11713798 0.11715235 0.0025490522 0.028025538
0003d0 80 67 98 3c 4e c8 f3 bd d4 c3 ba 3d 8a 2e a5 bd
       0.01860404 -0.119034395 0.091193825 -0.08065517
0003e0 e4 a8 e0 3d a8 36 74 bd 50 12 76 3d a0 5e 21 3c
       0.10969713 -0.059622437 0.060076058 0.0098492205
0003f0 84 2c ab bd 4c fd 42 bd c0 61 a9 bd c6 85 9d 3d
       -0.083581 -0.047604844 -0.082705975 0.07691531
