trained/CNN_SiLUKAN.pth (torch, 875760 bytes, 10 tensors)

conv1.weight f4 [16, 1, 3, 3]
000000 20 13 97 be d7 d5 48 be 02 a4 ca 3d 27 b7 97 be
       -0.2950678 -0.19612823 0.09894563 -0.29631922
000010 18 a5 e8 bd c2 98 d9 3e b1 44 2c be f8 10 d1 3e
       -0.11359614 0.42499357 -0.16823079 0.4083326
000020 9d 99 9f bc b0 b1 94 be 08 5c 37 be ed 30 b6 bc
       -0.019482428 -0.29041815 -0.17906201 -0.022240127
000030 a1 7f 86 3e b5 4c 74 be 4a c5 b8 3e 63 8e 2c 3e
       0.26269248 -0.23857386 0.3608802 0.16851191
000040 1f 26 32 bd f7 03 44 be 36 96 12 3d 4d 62 93 3e
       -0.043493386 -0.19142137 0.035787784 0.28785935
000050 66 ac a3 be 0b e8 a5 bd b3 d6 4a 3e 69 2c d4 bd
       -0.31967467 -0.08100899 0.19808464 -0.10360033
000060 81 6e 01 3e 54 f8 11 be 3b cd 2b bd 71 1e 81 3e
       0.1263981 -0.14254886 -0.04194377 0.25218537
000070 8b 0f 54 bc bf 31 9f be 8b 27 08 3e 4e 54 9e 3e
       -0.012943159 -0.3109264 0.13296334 0.30923694
000080 18 05 91 bd 32 db 7c 3e 31 92 a6 3e 5e c8 b1 3c
       -0.0708105 0.24692991 0.3253341 0.021701988
000090 ad 88 46 be d1 1d 15 3e 3f 89 26 3e 19 00 e8 3c
       -0.19388075 0.14562155 0.16263293 0.028320359
0000a0 99 7e 1a be af c6 1b 3c 06 1d 95 3e 0a 56 c5 3e
       -0.15087356 0.009507819 0.29123706 0.38542205
0000b0 ae 02 5f 3d cd 39 83 3e f2 18 9b 3e bb 37 91 3e
       0.054445915 0.25630036 0.3029247 0.2836283
0000c0 33 0e 79 3e 1a c3 95 3e b0 94 1f be 2d 76 e1 be
       0.24321823 0.29250413 -0.15584064 -0.44035473
0000d0 01 d4 c3 bd 15 f3 14 bd f2 08 05 3e 1c a4 8b 3e
       -0.09561921 -0.036364634 0.12991694 0.27273643
0000e0 01 71 a1 be 73 56 3b bc 41 80 9f 3b c2 fc 8f 3e
       -0.31531528 -0.011434185 0.004867584 0.28122526
0000f0 71 d5 3f ba 9c ed 65 be d8 ad 58 3e 21 a6 d1 3e
       -0.0007317877 -0.22453922 0.21160066 0.4094706
000100 df 00 a0 3e 80 19 10 be c0 24 3f 3e 52 0b 54 be
       0.31250665 -0.14072227 0.18666363 -0.20707443
000110 9e aa 90 be 48 a9 ad 3e f3 4c a8 be df b8 4d be
       -0.2825517 0.33918214 -0.32871208 -0.20090054
000120 b7 4f b7 3e de f2 9c 3e 30 ca 85 be 4d 90 d4 3d
       0.35803005 0.30654043 -0.2613082 0.10379086
000130 f9 7a f8 3c 0e e6 a7 be 6d 47 31 be d2 d2 90 bd
       0.030332075 -0.32792705 -0.17312403 -0.07071461
000140 2b 36 76 3e f1 25 80 be 23 ff 92 3e 1d 40 ca bc
       0.24044101 -0.25028947 0.2871028 -0.024688775
000150 42 b2 48 bd 63 4a 6a be 00 9f ed ba 81 90 c1 bd
       -0.048998125 -0.22879939 -0.0018129051 -0.0945139
000160 f9 18 33 be 34 3c ac be e2 85 93 be 54 44 a0 be
       -0.17489995 -0.3363968 -0.28813082 -0.3130213
000170 4b 3a 55 bd 5b 2e 11 3e f1 11 15 bd 48 ac cb bb
       -0.052057546 0.1417784 -0.036394063 -0.006215606
000180 81 6b a9 3e b4 15 8a 3e 3e 25 32 be 49 7a 98 be
       0.3308983 0.26969683 -0.1739702 -0.29780796
000190 bd 40 d5 bd d6 05 8a be 58 50 8d 3d cf 69 9c be
       -0.104127385 -0.26957577 0.0690009 -0.30549476
0001a0 25 da 9b be 5c 20 4f 3e 02 1a c0 3e b9 f7 d8 3d
       -0.3043987 0.20227188 0.37519842 0.10594124
0001b0 60 69 35 be 50 5b a2 3e 26 ab be be 30 e9 5a bd
       -0.17715979 0.3171029 -0.3723995 -0.05344504
0001c0 3a f9 c9 bd 23 1e 2e bd a5 09 be 3e e9 96 aa 3e
       -0.09861989 -0.04250921 0.37116733 0.3331826
0001d0 68 d9 7c be dc 27 14 be 45 c9 b6 3d 40 77 4c be
       -0.24692309 -0.1446833 0.08925108 -0.19967365
0001e0 57 28 80 3e 41 42 bc 3e de 4b 5b be 08 f6 9c be
       0.25030777 0.36769298 -0.2141566 -0.30656457
0001f0 2c 22 8d bd 39 a7 a4 3e 7c 71 f3 3d be 1a 9c 3d
       -0.068912834 0.3215883 0.1188688 0.07622288
000200 f8 ca 69 3e 2e 17 4e 3e fb 93 96 3d 5e a2 1c 3e
       0.22831333 0.2012603 0.07352444 0.15296313
000210 66 8c cc 3d 7b e9 99 be 28 f3 a3 be 74 dd fb 3c
       0.099877164 -0.30060944 -0.3202145 0.030745246
000220 d9 ff 6e 3d 39 73 b3 3e 28 00 0a 3e 21 69 9a be
       0.058349464 0.35048845 0.13476622 -0.30158332
000230 51 d3 d7 3e c7 b5 1b 3e c4 c6 fd bd 8f 7e 24 3e
       0.4215341 0.15206061 -0.12391427 0.16063903

conv1.bias f4 [16]
000000 5d 4d 88 be 64 89 a5 bc 8a 0a cd bd 50 c3 71 3e
       -0.26621523 -0.020207115 -0.10011776 0.23609662
000010 fd af 5a be 98 62 fa bc c2 65 6a be df 0d 24 3e
       -0.21356197 -0.030564591 -0.2289038 0.16020916
000020 09 54 62 be e2 1d 91 3e 9f a3 ff bd 95 d1 fc 3d
       -0.2210237 0.2834311 -0.1248238 0.12344662
000030 74 25 5e 3e 83 24 c8 3d ff bc a6 3e 6f c3 c5 bd
       0.21693975 0.09772589 0.32566068 -0.096564166

conv2.weight f4 [32, 16, 3, 3]
000000 25 a1 e5 3d 85 36 fd 3d 95 7b c0 3d 6d b2 7e 3d
       0.112123765 0.123639144 0.093985714 0.06218188
000010 22 83 5b bd cd 7a 34 3d 7e 00 cd 3d 3e 8b 26 be
       -0.053591855 0.044062424 0.100098595 -0.16264054
000020 9b f3 8b 3c 56 73 86 bd 69 bd 6a bd e6 59 6c bd
       0.017083934 -0.06564967 -0.05730954 -0.05770292
000030 80 c9 3a bd a0 ab 9c bd 01 56 02 3d 95 fa 38 3d
       -0.04560232 -0.07649922 0.0318203 0.04516085
000040 43 6d 8d bc 4e 51 00 3d b9 79 78 3d 6e a1 d5 3d
       -0.017264014 0.03132754 0.06066296 0.10431181
000050 da 1e d1 3d a8 f4 b3 bc b7 12 5d 3d 56 c7 76 bc
       0.102109626 -0.021967247 0.053972926 -0.015062174
000060 a1 80 44 3c 95 3d 84 3d 38 f2 99 bd 1e cf 63 3d
       0.011993558 0.06457058 -0.07516903 0.055617444
000070 34 99 85 3d d7 7e ba bd be 8c c7 3d db d5 0e bd
       0.06523362 -0.09106224 0.09743641 -0.034871917
000080 5f 3d 85 3a 16 50 d2 3d fc fe 00 3e 8a 42 45 3d
       0.0010165385 0.102691814 0.12597269 0.04815916
000090 a9 35 3a 3d a8 c2 cb 3c 1a 76 a1 bc e5 3f d5 3d
       0.04546133 0.024873093 -0.019709636 0.104125775
0000a0 58 1b 1b 3c 4a 6d 7b bd 14 fa b6 3d ae 2b 18 3d
       0.0094669685 -0.061383523 0.08934417 0.03715103
0000b0 4b 2a 79 3b 24 b1 69 3c 20 b6 8d 3d 3c 28 90 bd
       0.0038019593 0.014263425 0.06919503 -0.07038924
0000c0 17 0d 2d 3d f7 2e 44 bd 1d 87 4f bc 55 27 6a bd
       0.04224881 -0.04789635 -0.012666491 -0.057166416
0000d0 2c aa 53 3c 34 25 74 3d de 73 af bd 2c 73 6f bd
       0.01291899 0.059605792 -0.08567022 -0.058459446
0000e0 61 b9 4e bd de 6f 8f bc df aa 06 3d a7 2f 99 bc
       -0.05046976 -0.017509397 0.0328778 -0.01869948
0000f0 f8 1c 80 3d da b9 f4 bb 13 b1 1d bd fc 6f d5 bd
       0.06255525 -0.0074684443 -0.03849895 -0.1042175
000100 5e d3 c6 bc 22 24 35 3d 01 c0 d3 bb 64 ca 85 3d
       -0.02427071 0.044223912 -0.0064620976 0.065327436
000110 87 93 c1 bc 3d 5b 85 bd 81 71 82 3d fb be cb 3c
       -0.023629917 -0.06511543 0.063693054 0.02487134
000120 44 a7 8f bd 37 8a f7 3c 6f 77 32 3d ff fc bf 3c
       -0.07014325 0.030217273 0.043570932 0.023436068
000130 36 f4 c2 3d ea 44 9d 3c 65 1e a1 bd 7c 12 5d 3d
       0.09519236 0.0191979 -0.078671254 0.053972706
000140 c1 c0 16 3d dd d0 ed bc ef b5 c6 bb a4 a9 5d bd
       0.03680492 -0.029030258 -0.0060641686 -0.05411686
000150 8f a7 b9 bd fa 27 65 3c b6 2a 8f 3d cc 57 b1 bd
       -0.090651624 0.013986582 0.06990568 -0.08659324
000160 54 90 d1 bd f5 ee 5b bd 03 62 d0 bd bd 8f 72 bb
       -0.102326065 -0.053694684 -0.10174944 -0.0037011944
000170 e2 e6 c3 bd b7 64 a7 bd 97 14 9e bd 16 2a 2a bd
       -0.09565522 -0.08173507 -0.07718771 -0.041544043
000180 6c f2 66 bd 64 23 15 3d 0d 56 00 3d ec 7c 9e bd
       -0.056383535 0.036410704 0.031332064 -0.07738671
000190 a3 2c 32 3d f4 82 36 3d 14 56 a9 bb 1c 6f 84 bd
       0.0434996 0.04455848 -0.005167732 -0.06466505
0001a0 99 14 d2 3c 52 42 bb bd 29 69 50 3c 1a 0c 70 bc
       0.025644587 -0.09143509 0.012720385 -0.014651323
0001b0 03 82 99 bd 9e 0e 6a 3d 47 24 cb bc 9d 49 11 3d
       -0.07495501 0.057142846 -0.024797572 0.035470594
0001c0 b6 ed 61 bc 5f bd 81 bd d6 f9 56 bd 98 1f 33 bd
       -0.013789585 -0.06334948 -0.052484356 -0.043731302
0001d0 1d ef bc 3d df 62 47 bb eb ce 8a bd 05 d1 78 bd
       0.09225295 -0.0030423922 -0.06777748 -0.06074621
0001e0 ed e2 b4 bc 68 35 0b bd 00 70 24 3d 30 27 18 bd
       -0.022080863 -0.03398648 0.040145874 -0.037146747
0001f0 86 e2 30 3c bd 70 32 3d 5e 8a 8e bd f5 f3 aa 3d
       0.010796195 0.043564547 -0.06959985 0.08347312
000200 ef e1 1e bc 4c a2 39 3c d1 68 1a 3d c4 56 8c bd
       -0.009697421 0.0113301985 0.037697617 -0.06852487
000210 cf 10 84 bc ff 12 f5 3b 6c 95 d9 3b 22 3e 67 bd
       -0.016121296 0.007479071 0.006640127 -0.05645574
000220 dd 73 b0 3c 0e 39 78 bd 01 7b a4 bc 5c a4 83 bd
       0.021539623 -0.060601287 -0.020078184 -0.064278334
000230 b2 1c 01 bd a8 ea c5 3d 96 5b 42 bd b7 9b 88 bc
       -0.031521507 0.09663898 -0.047450624 -0.016675813
000240 9e 59 35 bd 6f 96 7f bd 73 a5 9d bc e5 b2 48 3c
       -0.04427492 -0.062399324 -0.019243931 0.012249683
000250 cd 95 31 3d c3 68 28 3c 79 a3 8a bd fb 76 01 bd
       0.04335575 0.010278883 -0.06769461 -0.03160761
000260 5e 53 84 bd 5b 96 95 3d 97 08 f4 3c 4a 62 1a 3d
       -0.064612135 0.07304069 0.029789252 0.037691392
000270 2e a2 44 3d 37 b3 52 3c 6e f8 2a 3d 20 cc 9c bd
       0.04800623 0.012860111 0.041740827 -0.07656121
000280 4f 29 9b 3d 7d 79 a7 3d bb d2 43 bd db 76 27 3c
       0.07576238 0.08177469 -0.04780839 0.010221208
000290 44 aa 10 3d 36 a9 ff bc f3 ce 34 bd 00 df ae bd
       0.035318628 -0.031208616 -0.044142675 -0.085386276
0002a0 30 6d 94 bd d6 ea 93 bd b5 86 ba bd 16 aa 2a bd
       -0.07247388 -0.07222526 -0.091077246 -0.041666113
0002b0 ef e0 0d bd 8d 86 0b be d4 0c 25 bd 86 77 39 bd
       -0.03463834 -0.13625546 -0.040295437 -0.045280002
0002c0 85 c3 03 3d 58 52 96 bd a4 d1 3e 3d be d3 0b 3d
       0.032168884 -0.073399246 0.046586648 0.03413748
0002d0 6b e4 d8 3d 39 3c 48 3d 81 b6 61 bd 5e f8 b6 3d
       0.10590442 0.048885558 -0.05510569 0.08934091
0002e0 71 15 c0 3c 91 96 15 bd 84 e1 c5 3d af 38 6d 3c
       0.023447724 -0.036520544 0.09662154 0.014478846
0002f0 99 e5 e8 bb b1 90 85 bd 31 99 44 bd 59 7a be bc
       -0.0071074483 -0.06521738 -0.047997657 -0.0232517
000300 7a f0 cb 3c 40 23 d8 bd e4 c4 59 bd e5 3c d6 3d
       0.024894942 -0.105535984 -0.053166285 0.104608335
000310 0c 80 64 3d 46 3d f6 3c 6b 08 82 3d c3 42 86 bb
       0.055786178 0.030058514 0.06349262 -0.004097314
000320 43 be 99 bc 2c 39 50 3d c2 d1 9b 3d ba 1d 43 bd
       -0.018767482 0.050835773 0.076083675 -0.04763577
000330 09 78 24 bd 4e 3f d2 3d 85 fe 8c 3d 4f 36 1b bd
       -0.040153537 0.10265981 0.06884483 -0.03789359
000340 6f 64 54 bd f6 17 82 3d 09 80 3b 3c a8 a3 5c 3b
       -0.051853593 0.063522264 0.0114441 0.0033666883
000350 90 4e ee bd 2a 4b 1e 3d 43 d8 1d bd bd 44 6a 3d
       -0.11636078 0.0386459 -0.03853632 0.05719446
000360 b3 e7 6f 3c 05 50 94 3a 09 21 00 bd 9f bd 98 bd
       0.014642644 0.0011315352 -0.031281505 -0.07458042
000370 a4 47 bd bd 8a df b1 3c 4c f3 93 3d 46 bd 54 3c
       -0.0924218 0.021713037 0.072241396 0.012984579
000380 ac 8f a4 bd a2 54 17 3d 30 5b bc 3b 74 b2 bb 3d
       -0.08035216 0.036945947 0.005748175 0.091648966
000390 fc 43 b8 bd 40 44 ea bc fd bd 80 bd e8 6c 5e bc
       -0.08997342 -0.028596997 -0.062862374 -0.01357577
0003a0 dd c3 2d bd 2c 2b 8a bc ad 28 e3 3d 7f a3 47 3d
       -0.042423118 -0.01686629 0.11091743 0.048739906
0003b0 6b 91 7e 3d af 3b ad 3d cf e1 cd 3d eb a8 4e 3d
       0.0621504 0.08458649 0.10052835 0.05045406
0003c0 21 50 d3 3c 5f 97 a4 bd 96 68 78 3a 29 ff d8 3c
       0.025795044 -0.08036684 0.0009476034 0.026488857
0003d0 94 d8 87 3d fe 0c 7e bd c5 32 18 bd a3 ec 75 bd
       0.06633106 -0.06202411 -0.037157793 -0.060040127
0003e0 01 23 72 3d 27 8e 50 3d 0d 15 9b 3c f5 9b ab 3a
       0.059115414 0.050916817 0.018930936 0.0013092743
0003f0 51 fe 80 3b cd d5 31 bd 51 59 63 3d 03 34 1e 3d
       0.003936567 -0.043416787 0.0555051 0.03862382

conv2.bias f4 [32]
000000 18 0b 26 bd 4b 9b d1 bc f7 af 38 3c 6b fd 78 bd
       -0.040537924 -0.025586745 0.011272422 -0.060788553
000010 2a 6a 3b 3d ea d8 88 bc 97 08 b7 bd 70 d3 5d 3b
       0.045755543 -0.016704995 -0.08937185 0.003384795
000020 7c 13 07 3c 06 98 4a 3d 5d 92 03 bd ea 8e 8a bd
       0.0082443915 0.049461387 -0.032122005 -0.0676554
000030 a7 86 e4 bc eb 28 0b 3b 6a 20 1d bd b0 60 5a bd
       -0.027896238 0.0021234106 -0.03836099 -0.053314865
000040 52 6e b4 bd f4 ea e7 bc ab ad 3a 3d b7 c4 76 3d
       -0.088101044 -0.028310277 0.04557578 0.060246196
000050 26 e6 95 3c 51 19 bd bc 87 c6 17 bd 98 26 8d bd
       0.01829822 -0.02308336 -0.037054565 -0.06892127
000060 69 bf d0 bb 0d 24 3f 3c 6e 82 66 3d 0b bc 45 3d
       -0.006370474 0.01166631 0.05627673 0.048275035
000070 e6 87 96 bd a6 53 8f bd 85 c1 0d bb 13 83 e7 3b
       -0.07350139 -0.069983765 -0.002163024 0.007065186

fc1.weight f4 [128, 1568]
000000 b0 84 99 3c 0a d8 29 bd dd ac 9e bc 38 51 c8 3c
       0.018740028 -0.041465797 -0.019369537 0.02445279
000010 18 af 67 3d 6c 6b f7 bb c7 d9 ea bb 2e a0 ec bb
       0.056563467 -0.0075506475 -0.0071670744 -0.0072212433
000020 98 90 8b bc ae 26 a0 3c 0e c1 6e 3b 77 9e 19 bd
       -0.017036721 0.019549694 0.0036430988 -0.03750464
000030 e8 0a a2 bb 0d 36 95 3c 72 32 c6 3c 6b 7c e6 3c
       -0.004945148 0.01821425 0.024193976 0.028135499
000040 15 6c ea 3c 98 18 00 bb 52 24 88 bc b1 68 ea 3b
       0.02861599 -0.001954591 -0.016618881 0.0071535935
000050 b3 56 b0 3b 6a 55 e2 bc 6f 92 07 3d fc 0f f5 3c
       0.005381429 -0.02762862 0.033098634 0.029914849
000060 a2 4c c0 3c 6c c4 0d bd 24 17 94 bc 12 87 7c bb
       0.023474041 -0.03461115 -0.01807744 -0.0038532657
000070 dd db fe bc f5 2e 2e 3b 29 dd f7 3a 27 0b 5e bc
       -0.031110698 0.0026578282 0.0018910515 -0.013552464
000080 4a ae ca 3b 1c 41 de 3c 25 8e 8c bc a2 f2 b4 3c
       0.0061853277 0.027130656 -0.017157624 0.022088353
000090 54 ec 5a 3c b4 60 bf 3c 9b 2b 34 bc c8 25 34 3c
       0.013362009 0.023361541 -0.0109967245 0.010995336
0000a0 d7 a7 6c bb 16 f5 a4 bb 92 c2 6e 3b 35 35 93 3c
       -0.0036110783 -0.0050340993 0.003643189 0.017969707
0000b0 d3 a2 1c 3d 6a f1 2c 3c c1 52 0e bc c2 82 94 bc
       0.03824122 0.0105556045 -0.008686722 -0.018128756
0000c0 5d e5 f9 3c b4 86 c6 ba c2 aa 06 3b 84 4c 80 bc
       0.030504877 -0.0015146346 0.0020548557 -0.015661485
0000d0 ad 17 a1 3a f5 c8 43 3c e6 9a a3 bc fc fc 1a 3c
       0.0012290381 0.011949767 -0.019971322 0.00945973
0000e0 93 48 eb 3b e3 a8 cd 3c 69 9a 24 3c b3 08 80 3c
       0.0071802824 0.025104946 0.01004658 0.015629148
0000f0 9f db 2e bc 30 be 8d bc 8b c2 69 3c 54 60 54 3c
       -0.010672479 -0.017302603 0.014267574 0.01296242
000100 c9 18 bc bc 73 a5 cc bc 6a e5 38 3c 3d 46 1f 3d
       -0.022961037 -0.024981236 0.011285165 0.038885344
000110 1a 0e bd 3b 17 47 96 bb b4 1a 18 bd 50 1d 53 bd
       0.0057695033 -0.0045861113 -0.03713484 -0.051541626
000120 70 e5 71 bd 9a 65 9d bd c7 81 d5 bc 7e 71 c3 bc
       -0.0590567 -0.076853946 -0.02606286 -0.023857828
000130 2b 10 11 bd 72 f8 9c bb a2 4d 88 bb 80 61 b0 b9
       -0.03541581 -0.004790359 -0.004159645 -0.0003364198
000140 84 9a d4 bc da 71 69 bc cd 70 1f bc 1a 83 e3 3b
       -0.025952585 -0.014248336 -0.009731484 0.0069431188
000150 dc 11 6f bc cc bc c8 3b 55 9d 17 3d 69 0d 66 3d
       -0.01459166 0.006126022 0.037015278 0.056165133
000160 91 b0 06 3d 20 84 0c 3b 95 b6 e5 bc 6e 2a 02 bc
       0.03288323 0.0021441057 -0.028041163 -0.007944686
000170 1d 99 a5 bc 8e 8a d3 bb 7f 36 47 3b 5c 50 c6 3b
       -0.020214612 -0.006455726 0.0030397472 0.00605206
000180 5d 48 8c 3c 57 7d bd 3c ec f9 87 bc dc ad d2 3b
       0.01712435 0.023131056 -0.016598664 0.006429417
000190 ac dd 95 3b 06 7a c5 ba 98 e2 56 3c 8c 16 1a 3d
       0.0045735445 -0.0015066273 0.013115548 0.03761916
0001a0 3b 06 d8 3c 27 0e 1e bb 79 7e 0f bd 91 44 78 bb
       0.026370158 -0.0024117322 -0.035032723 -0.0037882666
0001b0 49 f1 ba bc 7f 86 95 bc 2d e8 3c 3b 29 a5 0f bc
       -0.022820132 -0.01825261 0.002882491 -0.008767405
0001c0 f2 2f f9 bc 61 11 c7 b9 5d 47 44 3c 6c 61 9e 3c
       -0.03041837 -0.00037969186 0.011979905 0.019333564
0001d0 94 88 b0 bb 41 ae 98 bb fe 2e fa 3c d3 61 d7 bc
       -0.005387375 -0.0046594446 0.030539986 -0.026291763
0001e0 63 66 4f bc b9 02 b3 bc 71 f5 25 3c a5 4d 0b bd
       -0.012658688 -0.021851884 0.010129319 -0.034009594
0001f0 e9 9d c0 3c 43 5f d0 bc c3 56 8b bc f1 d5 20 3c
       0.023512797 -0.02543605 -0.017009145 0.009816633
000200 17 74 ec 3b 17 13 c2 3c 9b b4 0c 3c 00 5f 05 3c
       0.0072159874 0.023690743 0.008587982 0.008140326
000210 cc 6a 76 bc 6d 52 ad 3c 5f 01 bb 3c 0c 07 39 3b
       -0.015040111 0.021157468 0.022827802 0.002823296
000220 d2 d2 07 bc 06 c7 bb bc ef c7 93 bc 0d b8 53 bc
       -0.00829001 -0.02292205 -0.018039672 -0.012922299
000230 7e 8a 8d 3c 82 d7 99 3c a0 96 fd bc 8a e7 df bc
       0.017277952 0.01877952 -0.030955613 -0.027332086
000240 07 bc 31 3c b9 f6 1e bc b6 04 56 bc 58 87 bb bc
       0.010848052 -0.009702378 -0.013062647 -0.022891685
000250 e0 4e ca ba 9b ee cb 3c ca f5 e0 bc 37 5d 7a bc
       -0.0015434884 0.02489405 -0.027460951 -0.015281013
000260 0c 2a bd bc aa b9 88 bc 97 b6 51 bc b5 5d a4 bc
       -0.023091339 -0.016690094 -0.0127998805 -0.020064214
000270 2a a7 8b bc 11 4f 91 3c a6 3f 87 3c dd df 14 bc
       -0.017047483 0.017737897 0.016509842 -0.009086576
000280 a4 72 37 3b eb a6 89 bc d8 93 58 bc 26 a1 65 3c
       0.0027991915 -0.016803226 -0.013218842 0.014015472
000290 09 8e 1b 3c ec 8d 3d 3b 34 df 97 ba 9a 55 a1 bc
       0.009494313 0.0028923703 -0.0011586905 -0.019694138
0002a0 1a 6f 4f bc ba 0c 13 bc 0b 18 9c bc ed ac 0e bc
       -0.012660766 -0.008975202 -0.019054433 -0.008708221
0002b0 26 94 e3 bc 10 79 8d bc 6f bc 96 bc 8f 10 03 3c
       -0.027780604 -0.017269641 -0.018400399 0.007999553
0002c0 71 94 9f bb b7 02 8d bc 7d 78 d9 bc e3 04 f5 3b
       -0.0048699905 -0.017213209 -0.026546711 0.007477389
0002d0 4e 13 45 3c 96 33 9d 3c db ca db bc dc 06 b1 3c
       0.012028528 0.019189637 -0.026830127 0.021609716
0002e0 96 65 09 3d c9 6a 06 3d 3e b2 dd 3c 07 35 2e 3d
       0.033544146 0.032816682 0.027062532 0.04253104
0002f0 8a 91 05 3b dd 30 59 3b 02 07 01 bb db 54 e3 3c
       0.0020380937 0.0033140697 -0.0019688015 0.027750423
000300 b5 b9 22 3d c1 ab 97 3d 56 a1 07 3b 26 b9 31 3c
       0.039727885 0.07405806 0.002069553 0.0108473655
000310 03 d6 17 ba da 80 0a 39 f2 8f 1b bc d3 84 2c 3c
       -0.0005792083 0.00013208707 -0.009494768 0.010529715
000320 98 f3 49 3c be 29 3e 3d c8 bc 57 3c 9e 5d 8b bc
       0.012326144 0.046426527 0.013167568 -0.017012414
000330 fd 68 3e bb 7a 0d 6f 3c 2c 24 86 bb 24 bc ba bb
       -0.0029054277 0.014590615 -0.0040936675 -0.0056986976
000340 76 9f 98 bc 0b fd 68 bc 53 6c bc bc 7f 9e bc bc
       -0.018630724 -0.014220486 -0.023000872 -0.023024796
000350 f0 b8 05 bd 2f 0d 01 bd 42 b4 3a 3c 4e 70 5f 3b
       -0.032647073 -0.031506713 0.011395516 0.0034094038
000360 75 6f 5b 3d aa 8c 3b 3c a5 ba 02 bc 9a db 34 bc
       0.05357309 0.011447111 -0.00797907 -0.011038685
000370 e6 36 55 bc 01 6a 47 bc 8f a6 6a bc e9 4b 44 bb
       -0.013013577 -0.012171269 -0.014321937 -0.0029952473
000380 cc 86 33 bd 78 91 4e bc de 73 19 3c 0b 10 40 bd
       -0.043829724 -0.012607925 0.009366004 -0.0468903
000390 09 39 17 bd 5a 57 77 3b da 33 ec 3b 56 89 0f bd
       -0.036919627 0.0037741275 0.0072083296 -0.035043083
0003a0 a5 47 d7 bb fa 6a 05 3c a3 35 d2 3c b9 8a 80 bc
       -0.00656982 0.008143181 0.025660342 -0.015691148
0003b0 72 88 a8 3c 6c 86 28 3b 47 d1 ff bb f5 f1 c5 3c
       0.020572875 0.0025714887 -0.00780693 0.024163226
0003c0 d3 d2 b5 3c f1 a2 f6 3c 15 74 43 3c 18 10 b5 3c
       0.022195255 0.030106993 0.011929532 0.0221024
0003d0 63 08 2d bc da 88 ec bc 08 75 05 bd 08 bc 50 3b
       -0.010561082 -0.02887385 -0.032582313 0.0031850357
0003e0 c0 96 f3 3a 26 6d 6f bc 6a ae 61 3c d7 fe 73 bc
       0.0018584356 -0.014613425 0.013774494 -0.0148923015
0003f0 f4 db 69 3c e1 1d a9 3b 5d df f6 bc d6 08 56 bc
       0.014273632 0.0051610325 -0.030135805 -0.01306363

fc1.bias f4 [128]
000000 3a dd 15 3c 2d bb 9d bc 18 52 a8 3c 5a 1f 9a 3a
       0.009146983 -0.019254291 0.020546958 0.0011758611
000010 72 de 20 bc 67 2d 56 ba 66 da 31 bc 52 18 ed bb
       -0.00981866 -0.00081702176 -0.010855293 -0.007235565
000020 91 4d b7 bc 49 e3 a4 3c f1 23 a6 bc 01 6f 92 bc
       -0.022375854 0.02012791 -0.02028081 -0.017875196
000030 a2 35 92 3b f5 f7 2f 3b 09 2c 8e bb 5d 64 a3 3c
       0.00446196 0.0026850675 -0.0043387455 0.019945318
000040 83 e3 bd bb 4f c5 f3 3a aa 49 bd bb bd 1a 77 3b
       -0.005794944 0.0018598231 -0.0057766037 0.0037705146
000050 e0 ee 93 bc 44 54 67 bc 15 a8 29 bc f3 f5 e6 bc
       -0.01805824 -0.014119212 -0.010355015 -0.02819345
000060 fb 72 e6 bc ed 92 d1 bc f6 38 85 3b b1 57 8b 3a
       -0.028130999 -0.025582755 0.004065628 0.0010630992
000070 27 0c c3 ba b5 74 dd bc f7 b5 fd 3c 5d 53 e6 bc
       -0.0014880941 -0.02703319 0.030970557 -0.028115923
000080 5f c7 c4 bc d1 45 5f 3c 55 62 86 3c 3d 62 53 bc
       -0.024020849 0.013627485 0.01640431 -0.01290184
000090 c4 bb e5 3c d4 b1 f7 bc 6f 51 64 bc 4b 3d 23 3c
       0.028043635 -0.030236162 -0.013935431 0.009963344
0000a0 69 c3 65 3c 72 40 ad 3c 04 80 f5 bc 38 3b f2 3a
       0.01402364 0.021148894 -0.02996827 0.0018480783
0000b0 66 30 b9 ba c1 e6 6d bc dd d2 51 3c 26 f6 05 3c
       -0.0014128804 -0.014520348 0.012806621 0.008176362
0000c0 1a 31 3d 3c 59 47 ea 3b 3b ee 54 3c 48 e8 01 bd
       0.011547351 0.0071496186 0.012996252 -0.03171566
0000d0 b0 60 de 3b d8 fc 01 bd f8 a5 b7 bc 1d e6 d8 3c
       0.0067864284 -0.03173527 -0.022418007 0.026476914
0000e0 ba fc 35 3c 4b 67 ee bc b3 13 17 bc 2a 16 a6 bb
       0.011107618 -0.029101988 -0.009221005 -0.00506856
0000f0 e9 49 58 3b eb c6 95 bc 13 15 c9 bb 75 e4 ca 3c
       0.0033003038 -0.018283328 -0.0061365454 0.02476714
000100 08 a5 19 b9 b7 38 86 3c 50 8d aa bc 49 8c 7b bc
       -0.00014652696 0.016384466 -0.020819336 -0.015353271
000110 5d a4 90 3c c5 1b 1d bb d2 a9 07 3b a4 3e 63 bc
       0.0176565 -0.002397285 0.0020700586 -0.013869915
000120 06 93 be bc 79 a0 8b bc 6f 0a ab bc ab a8 9b bc
       -0.023263466 -0.017044293 -0.020878999 -0.019001326
000130 bc fa cc 3b 5e 72 98 3c 1a bd 54 3c 58 fb 0b 3c
       0.006255476 0.018609222 0.012984538 0.008543812
000140 8c 83 2b bb 52 08 96 3b f3 64 eb bc 56 11 b8 bb
       -0.0026170937 0.0045786286 -0.02873466 -0.005617301
000150 3e ce 80 3c 20 8d d2 bb e3 e8 3b 3c 2c 5f 4c 3c
       0.015723344 -0.006425515 0.011469099 0.012473863
000160 04 03 74 bc 1f fa c9 3c 97 a7 b2 3c 67 8b 92 bb
       -0.014893297 0.0246554 0.021808429 -0.0044721845
000170 c9 42 94 bb be 97 04 3d bb d5 d5 bc a0 95 fe bc
       -0.004524563 0.032371275 -0.026102891 -0.031077206
000180 7b ca 3d bc 5b b5 ca 3c cc 2a bc 3c 37 ee 3e bc
       -0.01158392 0.02474468 0.022969626 -0.0116534745
000190 4e 92 0a 3c fe 43 df 3c 7d fd b9 3b 71 d2 e6 3c
       0.008457733 0.0272541 0.00567597 0.028176518
0001a0 ae 48 81 bc 14 06 80 bc f0 71 48 3c 8d 54 ac bc
       -0.015781727 -0.015627898 0.012234196 -0.02103641
0001b0 72 d9 ec bc 44 e8 16 3c d3 3a 95 bc ea 5d 5c 3c
       -0.02891228 0.00921065 -0.018216526 0.013450125
0001c0 34 00 a9 bc fb b6 76 3b 62 d1 7b 3c 89 93 f1 3b
       -0.02062998 0.0037645686 0.015369745 0.007372324
0001d0 ff e5 0a 3a 6c 2f 5b 3b 0a 74 21 bc ee 01 ff bb
       0.00052985543 0.0033445014 -0.009854326 -0.0077822125
0001e0 50 cf 92 bc 54 21 72 b8 53 71 cc 3c 1c 8c 10 3b
       -0.01792112 -5.7728335e-05 0.024956381 0.0022056168
0001f0 2e 32 bd 3c cd dc 7c bc 26 33 b4 3b 44 d7 02 3c
       0.023095217 -0.015433502 0.0054992614 0.007985894

k1.rk_layers.0.phase_low f4 [128, 8]
000000 2f 7b 12 bf 3c 4e d1 be f9 2a 46 be 87 be 9a bc
       -0.57219213 -0.4088 -0.1935233 -0.018889679
000010 03 8c 30 3e 76 77 c2 3e b4 a3 1a 3f a2 83 4a 3f
       0.1724091 0.37981766 0.6040604 0.79107106
000020 48 11 1b bf 42 78 cf be f7 b9 59 be fd c9 ad 3b
       -0.60573244 -0.40521437 -0.21262346 0.00530362
000030 cd 48 42 3e 72 32 c7 3e 58 2c 19 3f ea b2 48 3f
       0.18973084 0.38905674 0.5983329 0.78398
000040 d4 df 16 bf f2 a0 c2 be db f9 2d be 09 3c e4 3c
       -0.58935285 -0.38013417 -0.16989844 0.027860658
000050 00 d6 51 3e a5 dd c2 3e 03 de 12 3f 00 2b 4b 3f
       0.20491791 0.38059726 0.57370013 0.7936249
000060 a8 d0 19 bf 00 f3 d1 be 84 6a 30 be fe c5 72 3c
       -0.6008401 -0.41005707 -0.17228132 0.014817713
000070 4a ad 4e 3e 79 67 cc 3e 86 d2 18 3f 74 2a 48 3f
       0.20183292 0.39922693 0.59696233 0.7818978
000080 24 19 1f bf 15 2b c9 be 49 e7 4d be 57 9d d4 ba
       -0.62147737 -0.3929068 -0.2010776 -0.0016221207
000090 16 a5 5a 3e 06 2b c8 3e b4 ac 18 3f 0f 75 4a 3f
       0.21352038 0.39095324 0.59638524 0.7908487
0000a0 38 2b 21 bf 1a aa b7 be 11 20 43 be 60 19 1e 3b
       -0.6295657 -0.35871965 -0.19055201 0.0024124011
0000b0 7f 68 33 3e 1a d1 c6 3e d4 28 14 3f e5 38 4a 3f
       0.17520331 0.38831407 0.578748 0.78993064
0000c0 70 d5 18 bf 93 c7 ad be dc 70 32 be 3e 6b d1 3c
       -0.5970068 -0.33941326 -0.17425865 0.025563832
0000d0 60 59 52 3e 3a 88 c3 3e 41 66 17 3f da f0 3e 3f
       0.20541906 0.3818987 0.591404 0.7458626
0000e0 e9 2a 1c bf d6 52 ae be 8e 4b 39 be 4b 85 61 bb
       -0.61002976 -0.34047574 -0.18095228 -0.0034411724
0000f0 ca 7d 3f 3e 98 aa c2 3e 04 5e 16 3f cc 52 41 3f
       0.18700328 0.38020778 0.58737206 0.75516963
000100 1b 83 0f bf 43 3d ca be 34 a6 47 be 33 c9 8b bc
       -0.56059426 -0.39499864 -0.19496995 -0.017063713
000110 1a d8 55 3e 69 7c cc 3e 9e f5 15 3f e5 7b 47 3f
       0.20883217 0.39938667 0.5857791 0.77923423
000120 ec 5e 12 bf 9f 40 b8 be 0f 23 37 be 54 43 5b 3c
       -0.5717609 -0.35986802 -0.17884468 0.0133827515
000130 b0 04 4c 3e b6 f6 c8 3e 83 0c 15 3f ee e9 43 3f
       0.19923663 0.39250726 0.58222216 0.76528823
000140 82 2f 1e bf 62 f3 ce be 4b ac 4c be 33 4f 72 bc
       -0.6179124 -0.4042006 -0.199876 -0.01478939
000150 49 78 63 3e 0b bf ce 3e 0c 7a 17 3f 5d 2f 45 3f
       0.22213854 0.4038013 0.59170604 0.77025396
000160 bb ce 15 bf 26 b3 c4 be 3d 1a 4a be 90 3f 23 3c
       -0.5851857 -0.3841793 -0.19736572 0.009963885
000170 4c 53 54 3e 3f 9f c9 3e a0 e2 14 3f 93 c6 4b 3f
       0.207349 0.39379308 0.581583 0.79599875
000180 65 91 16 bf cc 53 ce be 8e 51 4d be bd 3f 4e bb
       -0.58815604 -0.40298307 -0.20050642 -0.0031471096
000190 1b 8b 40 3e 2f 15 cc 3e 19 68 17 3f 86 3f 4c 3f
       0.18803065 0.39859912 0.59143215 0.7978443
0001a0 4e aa 1b bf 36 92 d1 be 4d 8f 37 be aa 18 90 3c
       -0.6080674 -0.40931863 -0.17925759 0.017589886
0001b0 83 9a 54 3e 3f bf cc 3e a4 78 12 3f 3a 4c 4a 3f
       0.20762067 0.3998966 0.57215333 0.7902256
0001c0 a4 c1 17 bf f2 99 bd be fe 50 58 be 1b f4 80 bb
       -0.5927985 -0.37031513 -0.21124646 -0.0039353496
0001d0 2b e4 45 3e e7 a2 c9 3e 4f da 17 3f 4c 0d 48 3f
       0.1932532 0.39382097 0.5931749 0.7814529
0001e0 62 56 1c bf b9 24 c3 be dd 45 35 be 55 cb 7c 3a
       -0.6106931 -0.38113955 -0.17702432 0.0009643336
0001f0 fd 3b 52 3e c5 a4 c7 3e ba 41 17 3f 0c 16 41 3f
       0.20530696 0.38992897 0.59084666 0.75424266
000200 99 80 1b bf 88 00 b8 be c6 4f 3d be c6 a4 7a bb
       -0.607431 -0.35937905 -0.18487462 -0.0038245185
000210 5f e5 3f 3e be 29 bc 3e f5 4a 1d 3f df ce 43 3f
       0.18739842 0.36750597 0.614425 0.76487535
000220 ac 1a 1d bf c6 58 ca be 9e d5 5e be 33 48 93 bb
       -0.61368823 -0.39520854 -0.21761176 -0.004494691
000230 66 2d 56 3e 19 5c c6 3e c7 6a 1a 3f 9e bc 46 3f
       0.20915756 0.3874214 0.6031918 0.77631557
000240 3e 40 20 bf d9 ec bd be 08 27 45 be 0b ac f4 3c
       -0.62598026 -0.37094763 -0.1925317 0.029867193
000250 4a b0 38 3e 38 9a ca 3e 4a 7f 17 3f c3 5f 44 3f
       0.18035999 0.39570785 0.591786 0.7670862
000260 e4 ec 0f bf ad f2 bc be 65 ad 3f be d5 db 14 3c
       -0.5622084 -0.36903897 -0.18718489 0.009085615
000270 f1 7e 45 3e a8 ad c9 3e 8d 97 15 3f ef 7a 47 3f
       0.19286706 0.39390302 0.58434373 0.77921957
000280 e9 18 23 bf ad 49 c7 be bd 24 3c be 47 06 4f ba
       -0.63709885 -0.38923398 -0.1837339 -0.0007897359
000290 82 58 5e 3e 5e 9e c6 3e 5f 5c 11 3f ac cd 48 3f
       0.2171345 0.387927 0.5678157 0.7843883
0002a0 e6 2c 20 bf 27 a9 c1 be 10 0c 38 be 7c d6 12 3d
       -0.6256851 -0.37824365 -0.17973351 0.03584908
0002b0 7f 09 66 3e d8 b6 c6 3e 83 97 12 3f cd 5b 45 3f
       0.2246456 0.38811374 0.5726244 0.770932
0002c0 88 4c 1c bf 0f 45 c2 be b2 c9 5c be dd 23 50 bc
       -0.6105428 -0.37943313 -0.21561316 -0.012703863
0002d0 4c 96 5c 3e 8f 59 cf 3e aa 2e 18 3f 15 d6 47 3f
       0.21541709 0.40498015 0.59446204 0.7806104
0002e0 65 81 1d bf 4d b6 b5 be 4a dd 18 be 6f 1a 46 bb
       -0.61525565 -0.35490647 -0.14928165 -0.0030228158
0002f0 a5 dd 55 3e 80 14 ae 3e 33 f3 12 3f 00 2f 3d 3f
       0.20885332 0.34000015 0.5740234 0.7389984
000300 a9 ff 16 bf ef 33 ba be 5e ae 2d be 24 0b 98 3c
       -0.58983856 -0.36367747 -0.16961047 0.01856
000310 a1 67 51 3e 13 a8 ca 3e e7 7b 13 3f 53 65 4a 3f
       0.20449688 0.39581355 0.57610935 0.7906086
000320 55 04 14 bf b0 f8 c6 be 65 b6 56 be 55 7f e9 bb
       -0.5781911 -0.38861609 -0.20968015 -0.007125775
000330 51 ef 38 3e 3c dc c3 3e 7d 4b 14 3f b0 58 4f 3f
       0.18060042 0.38253963 0.57927686 0.809947
000340 5a 6d 18 bf 37 c4 cd be 9f f4 45 be 9d 83 d6 3b
       -0.5954186 -0.40188763 -0.19331597 0.0065464512
000350 7a 75 40 3e 70 fe cc 3e a7 5d 16 3f b0 06 4a 3f
       0.18794814 0.4003787 0.5873665 0.78916454
000360 ce 98 18 bf 19 4a ba be ab 62 5b be e1 b2 af bb
       -0.5960816 -0.36384657 -0.21424358 -0.0053619
000370 9e 42 3f 3e 63 c3 c4 3e c9 dc 15 3f ff 71 4a 3f
       0.18677756 0.38430318 0.58540016 0.79080194
000380 ac 03 17 bf b7 2c ca be da d9 29 be e0 20 52 3c
       -0.5898998 -0.3948724 -0.1658701 0.012825221
000390 8a 63 52 3e 67 68 c7 3e 20 ab 18 3f d4 02 48 3f
       0.20545784 0.3894684 0.59636116 0.78129315
0003a0 31 70 20 bf 35 50 c9 be 60 60 6e be 6e 4a 25 3d
       -0.6267119 -0.39319006 -0.23278952 0.040354185
0003b0 82 09 76 3e d8 53 c9 3e d5 12 16 3f 97 f4 49 3f
       0.24027064 0.3932178 0.58622485 0.7888884
0003c0 c3 ae 19 bf 7e d0 c5 be bd e0 32 be 25 5a 54 3c
       -0.6003229 -0.3863563 -0.17468543 0.012960945
0003d0 fa 83 4b 3e 7e 58 c3 3e 4f bc 14 3f 41 80 4a 3f
       0.19874564 0.38153452 0.58099836 0.7910195
0003e0 0e 52 1c bf 03 e9 b1 be 3b 7a 24 be 65 3f ea ba
       -0.61062706 -0.34748086 -0.16062252 -0.0017871676
0003f0 e3 04 38 3e 1c 1e c9 3e 12 19 15 3f 08 94 4a 3f
       0.17970614 0.39280784 0.5824138 0.7913213

k1.rk_layers.0.phase_height f4 [128, 8]
000000 c9 be 87 3e eb f1 e3 3e e0 d2 22 3f 9d 55 48 3f
       0.26512745 0.44520506 0.6360302 0.78255635
000010 b5 56 80 3f 7b c9 98 3f 14 45 b3 3f 46 63 cc 3f
       1.0026461 1.1936487 1.4005456 1.5967796
000020 46 a2 3f 3e 20 9b c5 3e ee df 15 3f d9 b8 54 3f
       0.18714246 0.38594913 0.58544815 0.83094555
000030 f7 e5 82 3f de 98 9a 3f 20 c1 b3 3f 2a d7 cc 3f
       1.022643 1.2077901 1.4043312 1.6003163
000040 23 23 66 3e 1d a8 cd 3e 21 fb 21 3f 61 06 57 3f
       0.22474341 0.40167323 0.6327382 0.8399411
000050 46 e3 81 3f b3 10 9a 3f 2e 67 b2 3f 61 6f cb 3f
       1.0147483 1.2036346 1.3937738 1.5893365
000060 0a ac 44 3e c6 c4 d5 3e 58 3c 1b 3f 2e a3 50 3f
       0.19206253 0.4175169 0.6063895 0.8149899
000070 28 8e 81 3f e7 94 99 3f a2 a5 b3 3f d2 30 cc 3f
       1.0121508 1.1998566 1.4034922 1.5952399
000080 58 fd 3a 3e 78 ec c6 3e 64 60 20 3f 13 f9 4e 3f
       0.18260705 0.38852286 0.6264708 0.8084881
000090 19 6d 81 3f 8c c1 9a 3f 0f c7 b4 3f 81 eb cc 3f
       1.0111419 1.2090316 1.4123248 1.600937
0000a0 f2 a2 65 3e 50 a6 d3 3e c6 58 28 3f 6a f0 54 3f
       0.2242544 0.41337824 0.6576046 0.8317934
0000b0 82 90 7f 3f 95 4b 9a 3f b6 8d b2 3f 68 15 cd 3f
       0.99829876 1.2054316 1.3949497 1.6022158
0000c0 4a 1f 36 3e e7 fc d7 3e 6e af 16 3f a6 00 56 3f
       0.17785373 0.42185137 0.58861434 0.8359474
0000d0 16 51 83 3f 28 71 9b 3f 12 ac b1 3f 60 62 cc 3f
       1.025912 1.2143908 1.3880637 1.5967522
0000e0 9c aa 50 3e 54 96 d7 3e cf 39 1d 3f 21 8d 4f 3f
       0.20377582 0.4210688 0.61416334 0.8107472
0000f0 c0 73 81 3f 16 24 9a 3f 81 42 b3 3f d0 63 cc 3f
       1.0113449 1.2042263 1.400467 1.596796
000100 2b 8d 7a 3e 19 cf da 3e 78 ef 17 3f 6d c3 4c 3f
       0.24467914 0.42736128 0.59349775 0.79985696
000110 79 32 82 3f 69 9f 99 3f 9e dc b2 3f 1c 71 cc 3f
       1.0171653 1.2001773 1.3973577 1.5972018
000120 df 84 5b 3e f7 8c cf 3e 2d 41 20 3f 56 d9 54 3f
       0.21437405 0.40537235 0.6259945 0.8314413
000130 ed 48 80 3f e6 05 9b 3f 9b 01 b3 3f c1 ec cb 3f
       1.0022255 1.2111175 1.3984865 1.5931627
000140 97 93 3c 3e ea 6d c6 3e 6a ab 1c 3f 45 a9 47 3f
       0.18415676 0.38755733 0.6119906 0.7799266
000150 67 7d 81 3f 37 0c 9c 3f 15 e6 b3 3f 35 82 cd 3f
       1.0116395 1.2191228 1.405459 1.6055361
000160 50 11 5a 3e 7e 12 db 3e b5 4a 1b 3f 53 2a 4a 3f
       0.21295667 0.42787546 0.6066087 0.7897083
000170 56 ac 81 3f d3 9d 99 3f 71 c4 ae 3f 0d a2 cb 3f
       1.0130718 1.2001289 1.3653699 1.5908829
000180 70 8a 52 3e e9 ad cd 3e f4 e5 17 3f 4e bd 4f 3f
       0.20560622 0.40171745 0.59335256 0.8114823
000190 17 7a 7d 3f a5 8b 9b 3f 90 0d b3 3f 57 1e cc 3f
       0.9901442 1.2151991 1.3988514 1.5946759
0001a0 62 0a 58 3e 58 e0 ca 3e 7d 14 23 3f a7 36 53 3f
       0.2109771 0.39624286 0.6370314 0.8250527
0001b0 8a e8 84 3f c3 ed 9c 3f 5f da b2 3f c5 9c cc 3f
       1.0383465 1.2260059 1.3972892 1.5985342
0001c0 d1 32 5b 3e d2 9d c8 3e 0a 1f 16 3f b3 84 51 3f
       0.21406104 0.39182907 0.5864111 0.8184311
0001d0 a9 9b 80 3f e4 1a 9a 3f 51 82 b2 3f a5 99 cb 3f
       1.0047504 1.2039456 1.394602 1.5906264
0001e0 8a 5e 4d 3e 34 fe c7 3e e3 16 1b 3f 57 c2 4e 3f
       0.20055595 0.3906113 0.605818 0.8076529
0001f0 51 c5 80 3f cc 3a 9b 3f 0e 4a b4 3f c8 83 cd 3f
       1.0060216 1.2127318 1.40851 1.6055841
000200 7e 9e 49 3e 61 a6 d1 3e 0d e8 23 3f ae ac 52 3f
       0.19689366 0.4094725 0.64025956 0.8229474
000210 16 ff 81 3f 56 a9 99 3f 92 9c b2 3f 3f 55 cb 3f
       1.0155971 1.2004802 1.3954031 1.588539
000220 7c 18 5f 3e ee 06 d9 3e 7e 2e 16 3f 4d d6 56 3f
       0.21786684 0.423881 0.5866469 0.8392075
000230 29 d4 84 3f f4 61 98 3f d7 c9 b5 3f 45 90 cb 3f
       1.0377246 1.1904893 1.4202222 1.5903403
000240 79 c0 48 3e e7 44 c9 3e 8b d3 1e 3f 15 40 56 3f
       0.19604672 0.3931038 0.6204154 0.8369153
000250 94 7a 80 3f 09 6f 9c 3f 98 6b b5 3f c0 3f cc 3f
       1.0037408 1.2221385 1.417346 1.5956955
000260 96 86 59 3e 78 79 de 3e 5c b5 21 3f a6 c4 50 3f
       0.21242747 0.43452048 0.6316736 0.8155006
000270 04 cf 80 3f 08 3b 99 3f db ad b2 3f a0 59 cb 3f
       1.0063176 1.197114 1.3959306 1.5886726
000280 b2 1d 5e 3e 2a 30 c2 3e 30 84 23 3f 96 9d 55 3f
       0.21691015 0.3792737 0.6387358 0.8344358
000290 61 b6 7f 3f b2 7b 9d 3f c9 92 b2 3f 7d c3 cc 3f
       0.99887663 1.2303374 1.3951045 1.5997158
0002a0 23 ec 41 3e e9 f1 cc 3e 29 4e 1c 3f df 33 54 3f
       0.18937735 0.40028313 0.6105676 0.8289165
0002b0 ad 7b 87 3f fe e3 99 3f 2c 3e b5 3f 1f 21 ce 3f
       1.0584618 1.2022703 1.4159598 1.6103858
0002c0 97 ae 52 3e 5f 71 da 3e f1 4c 18 3f 81 e8 49 3f
       0.20574413 0.4266462 0.59492403 0.788704
0002d0 f2 69 84 3f a0 04 9c 3f ee 90 b5 3f 06 1c cd 3f
       1.0344832 1.2188911 1.4184854 1.6024177
0002e0 51 33 30 3e 2c ed ce 3e a7 74 2b 3f ab 16 5d 3f
       0.17207076 0.40415323 0.6697487 0.86362714
0002f0 e4 2c 83 3f d6 96 9c 3f 00 fa b5 3f 93 c9 cc 3f
       1.0248075 1.2233531 1.4216919 1.5999016
000300 ac 97 4d 3e 3b da d1 3e 48 3b 20 3f 81 ae 52 3f
       0.2007739 0.4098681 0.62590456 0.8229752
000310 b7 7f 83 3f b4 86 9a 3f e1 8f b0 3f fc fb cb 3f
       1.027335 1.2072358 1.3793908 1.5936275
000320 4a 93 66 3e 2b 38 d9 3e 36 31 1f 3f fd e6 53 3f
       0.22517124 0.42425665 0.62184465 0.82774335
000330 53 e8 80 3f 85 89 99 3f ad 32 b3 3f 2b a5 cd 3f
       1.00709 1.1995093 1.399984 1.606603
000340 5b b1 5d 3e b2 57 d8 3e ea e9 1c 3f 82 8e 50 3f
       0.21649687 0.42254406 0.61294425 0.8146745
000350 c1 92 7e 3f 6e 80 99 3f da 89 b2 3f 8c 68 cb 3f
       0.9944268 1.1992319 1.3948319 1.589128
000360 be 59 53 3e f3 01 d6 3e bf f8 17 3f 6f a7 51 3f
       0.20639703 0.41798362 0.5936393 0.8189611
000370 35 b9 80 3f b2 1f 99 3f c4 3b b2 3f 93 76 cb 3f
       1.0056521 1.1962798 1.3924489 1.5895561
000380 88 e7 51 3e 09 b5 c7 3e 93 d1 21 3f f4 48 53 3f
       0.20498478 0.39005306 0.6321041 0.8253319
000390 2d 55 80 3f 49 c6 9a 3f dd fc b2 3f 3d 5b cb 3f
       1.0025994 1.2091762 1.3983418 1.5887219
0003a0 59 16 52 3e 8e 05 d5 3e d4 ef 1c 3f e5 72 52 3f
       0.20516337 0.416058 0.6130345 0.82206565
0003b0 ec 6f 84 3f bc 51 9b 3f 15 f3 b4 3f 3a 1c cd 3f
       1.0346656 1.2134318 1.4136683 1.6024239
0003c0 50 85 4f 3e 58 93 d1 3e 16 25 20 3f b9 18 52 3f
       0.20265698 0.40932727 0.6255659 0.82068974
0003d0 17 c1 80 3f 64 8d 97 3f 6e 9c b1 3f ca dc ca 3f
       1.0058926 1.1840024 1.3875864 1.584863
0003e0 ff c3 6f 3e 52 ef cf 3e b3 50 2f 3f 5b 0e 5b 3f
       0.2341461 0.40612274 0.6848251 0.8556878
0003f0 59 b4 81 3f c7 6c 9a 3f 39 c2 b2 3f 7e 77 cb 3f
       1.0133163 1.2064446 1.3965522 1.5895841

k1.rk_layers.0.equal_size_conv.weight f4 [10, 1, 8, 128]
000000 2d f0 a8 bc 19 13 8c 3a 9b eb 73 bd 1f 67 71 bd
       -0.020622337 0.0010686844 -0.059550863 -0.058936235
000010 2e 27 b4 bd 30 0f 30 bd f9 90 82 bd 44 9d 26 bd
       -0.087965354 -0.042983234 -0.063753076 -0.040677324
000020 6f 45 c0 3b 0e 35 08 3c 26 3b d2 3b 29 fb 17 bc
       0.005867652 0.0083134305 0.0064157424 -0.00927619
000030 98 65 03 bd 23 2c 26 bd ee bc 08 bd 2a 01 9b bc
       -0.03207931 -0.040569436 -0.033383302 -0.018921454
000040 7e e1 09 bd 68 06 ff 3c bb 56 b8 3c a0 70 fd 3c
       -0.03366231 0.031130984 0.022502294 0.030937493
000050 10 50 3d bb f8 d0 37 3d bd 23 19 3d e6 bc f3 3c
       -0.0028886832 0.044877023 0.0373876 0.02975316
000060 76 02 f3 bc 23 4c b7 3c 75 1c af bc 59 33 36 bd
       -0.02966426 0.022375172 -0.021375874 -0.044482563
000070 a8 95 2d bd f1 f0 00 bd 8a cf 4c 3c 4c 93 04 bc
       -0.04237905 -0.03147978 0.012500653 -0.008091759
000080 d5 5e cc 3b 18 54 9a bc b3 19 db 3b 76 66 ca 3c
       0.006236891 -0.018838927 0.006686413 0.02470706
000090 1e 60 a8 bc 43 46 be bc ba 09 57 3b 88 38 89 3c
       -0.020553645 -0.023226863 0.0032812194 0.016750589
0000a0 ba b0 bf 3c 61 1b 5a bc 2a 16 d2 ba 68 bd 55 bc
       0.0233997 -0.013312192 -0.0016028334 -0.013045646
0000b0 27 e2 f2 bc 7e b6 9f bc f8 82 81 3c 01 e1 e6 3c
       -0.029648853 -0.019496199 0.015809521 0.028183462
0000c0 58 19 05 3c 34 e8 19 bd 49 62 0e bd 42 8d 6e bd
       0.008123718 -0.03757496 -0.0347617 -0.058240183
0000d0 ff 23 e9 bb eb 90 29 bd fb 04 da bc 2d 7d 02 3c
       -0.007114887 -0.04139797 -0.026613703 0.007964415
0000e0 d7 ed a2 bc de 49 00 bb 74 0c b0 3c f6 69 7c bc
       -0.019888802 -0.0019575278 0.021490313 -0.015406122
0000f0 aa ee cb bc 69 fd ca 3c 4d 37 d2 3c 88 6e 7a bb
       -0.024894077 0.024779039 0.025661135 -0.0038212854
000100 a5 d7 cf 3c 65 0a 1b 3d 8a e0 4f 3c db 7a da 3c
       0.025371382 0.03785171 0.012687812 0.02666991
000110 de 35 33 3d c9 b6 15 3d fe 79 10 3d 05 9b 70 3c
       0.043752544 0.03655127 0.03527259 0.014685397
000120 9b da aa 3b 86 da 6e bc d4 f2 0e bd eb ab 25 bd
       0.005214048 -0.014578467 -0.034899548 -0.040447157
000130 28 a2 5d bc 93 3b 46 bc ce 83 0b bc a1 56 95 3c
       -0.013527431 -0.012099165 -0.008515311 0.018229784
000140 83 e9 f5 bc 68 0d 95 bc b5 ef c2 bc ac cf aa 3a
       -0.030018574 -0.01819487 -0.023795942 0.0013031862
000150 3b 81 22 bc ee 2c 56 bd d7 c2 77 bd 7b 57 fc bc
       -0.009918506 -0.052288942 -0.060488548 -0.030803433
000160 9b 44 23 3c 37 c9 d0 3b 98 59 2d bb fb 0c 86 bc
       0.009965087 0.006371643 -0.0026451107 -0.016363611
000170 5f 67 10 bd 49 d1 9f bc 44 9b fc bc b1 44 9a 3c
       -0.035254832 -0.019508975 -0.030835755 0.018831583
000180 5c 81 0b 3d ec c6 5f 3c 45 80 ca bb 11 94 63 bd
       0.034058914 0.0136582665 -0.0061798417 -0.05556113
000190 a2 c4 88 3b 6e 2d 71 bc 7a 7e 67 bc 0b 07 85 bc
       0.004173831 -0.014720304 -0.014129275 -0.01623871
0001a0 b1 a2 4a bc 26 02 ae 3c 28 25 e5 3c 0c 07 76 bd
       -0.01236789 0.021241259 0.027971819 -0.060065314
0001b0 2e 01 8b bd d4 4d 96 bd ef ce 30 bd be fc 4d 3c
       -0.067873344 -0.07339063 -0.043166097 0.012572465
0001c0 9e 22 d0 bb fe 19 aa 3b 98 f9 b4 bc 4a 85 d8 3b
       -0.006351783 0.005191087 -0.022091672 0.006607686
0001d0 b3 93 6f bd ed b0 41 bd d3 38 7d bc 5c 80 21 bd
       -0.058490466 -0.04728787 -0.0154554425 -0.039429054
0001e0 3b 8e d1 bc 48 13 6a bc 13 25 c4 bc 08 d8 83 3c
       -0.025580516 -0.014286824 -0.02394346 0.016094223
0001f0 77 e9 39 ba 89 aa f2 3c 1a ad fd 3c 00 a7 ca 3c
       -0.0007091979 0.029622333 0.03096633 0.024737835
000200 cf 1e 7b bc 43 e1 80 bb a7 5f 84 bc 03 a8 ef bc
       -0.01532717 -0.0039331033 -0.016158892 -0.029254919
000210 6a 33 a3 bb d0 08 d3 3c b9 a7 a8 3c ee 12 e2 3a
       -0.0049804943 0.025761038 0.020587789 0.0017248073
000220 9d d9 55 3c d3 e9 3b 3d 80 c0 1a 3d c9 d8 d3 bc
       0.013052371 0.04587729 0.03778124 -0.025860207
000230 f1 7a 9c bd db 24 0f bc 20 42 55 3b 3b 98 b1 bc
       -0.07640637 -0.008736814 0.0032540634 -0.021679034
000240 8f 8e 07 3d c7 f6 a4 3c a0 59 44 3d 6d 01 e4 3c
       0.03309494 0.020137204 0.047937036 0.027832711
000250 cf de dd 3c c1 7e fd 3b d6 3e b5 3c 32 2a 9c bc
       0.027083782 0.0077360575 0.02212469 -0.019063089
000260 06 ec 3c 3d 6a fc 8a 3d 0e 65 63 3d 78 b2 24 3c
       0.046123527 0.067864254 0.055516295 0.010052316
000270 d8 72 62 3c 96 a4 27 3d 23 36 c3 3c bf 29 11 3c
       0.013821326 0.040928446 0.023829525 0.008860051
000280 9e 64 11 bd 4e b9 e7 bc 6d 52 32 bd 68 38 50 bd
       -0.035496347 -0.028286602 -0.04353564 -0.050835043
000290 5a a5 46 bd a1 df 0e bd 41 aa 84 bc 4f 60 33 bc
       -0.048497535 -0.034881238 -0.016194465 -0.010948255
0002a0 35 2e 57 3c 9d 54 83 bb f4 3e d2 3c ed 03 55 bd
       0.013133575 -0.0040078894 0.025664784 -0.052005697
0002b0 77 7a 49 bd 74 b2 c4 bc 85 9d fd bc d8 ae 99 bc
       -0.049189057 -0.024010874 -0.0309589 -0.01876013
0002c0 fb a3 48 bd 3c 07 0e bc ae 2a 0b bd c9 62 c6 bc
       -0.04898451 -0.008668717 -0.03397625 -0.024217026
0002d0 af ec 28 3c cb c5 90 3c 13 85 a0 3c 86 a7 c1 bc
       0.010310336 0.01767244 0.019594705 -0.023639452
0002e0 71 b8 89 3d 9b 7d ec 3c 42 80 63 3d 4f 55 27 3d
       0.067246325 0.028868487 0.055542238 0.04085284
0002f0 e1 f5 17 3d d7 9f 0a 3c 5e 11 09 3d 18 99 21 3d
       0.037099723 0.00846096 0.03346383 0.039452642
000300 d0 67 0c 3d 57 2a 98 3b ab 07 49 3d ca b3 2c 3d
       0.03427869 0.004643719 0.04907958 0.042163648
000310 41 48 27 3d a9 1b f9 3a 5f b5 a3 3b 29 3d fe bc
       0.04084039 0.0019005436 0.0049959864 -0.031035023
000320 1d 01 80 bc 18 8b 38 bd b1 f4 72 bd 31 b6 62 bd
       -0.01562553 -0.045054525 -0.059315387 -0.055349533
000330 24 b7 0e bd 3e 7f 88 bc df 72 a1 3c 58 76 1f 3d
       -0.034842625 -0.016662236 0.019708095 0.03893122
000340 61 e5 45 3d 33 0c 26 3d ed 60 09 bd a0 57 61 3c
       0.048314456 0.040538978 -0.0335397 0.013753802
000350 b0 b8 3a bb 94 28 d0 bb ef 32 fc bc c5 9d eb 3c
       -0.002849143 -0.0063524935 -0.030786006 0.028761754
000360 9b 93 ef 3b d9 97 9f bc 82 ea b5 3c e7 1f cb bb
       0.007311297 -0.019481586 0.022206549 -0.0061988714
000370 4b dd 4f bb 21 23 ac 3c 97 1c 3b bb f5 cc 84 bc
       -0.0031717594 0.021012845 -0.0028550976 -0.016211012
000380 72 7b 25 bd 5e 90 99 bc 8a a1 ed b9 6d 57 f1 3b
       -0.04040093 -0.018745597 -0.0004532452 0.0073651583
000390 71 10 eb 3c a2 c7 98 bb c3 ed ca 3c 88 91 ad 3c
       0.028694363 -0.00466247 0.024771577 0.021187559
0003a0 58 48 df 3c 9a 67 20 3c 34 83 8e bc 1b aa 91 bc
       0.027256176 0.009790326 -0.017396547 -0.017781308
0003b0 3c fe d8 bc 34 15 10 bd 09 ff fc bc aa c2 84 bc
       -0.026488416 -0.03517647 -0.030883329 -0.016206104
0003c0 9c d6 c8 bc 6d 97 2a 3c fd cd 97 3b f8 eb 35 bd
       -0.024516396 0.010412079 0.00463271 -0.04441449
0003d0 02 bf d5 ba 8d d3 40 bd 2b c6 2b 3c cd ac 47 3c
       -0.0016307535 -0.04707675 0.010484259 0.012187195
0003e0 59 17 05 3d 9f a0 78 3c f8 82 e7 3c f5 0d 2e 3d
       0.03249297 0.015175014 0.028260693 0.04249378
0003f0 82 a7 54 3d 1c 1e c0 39 b8 75 98 3b b6 25 db 3c
       0.05191756 0.00036643527 0.004652705 0.02675138

k1.rk_layers.0.equal_size_conv.bias f4 [10]
000000 ee 5f 64 3c 7a ec 62 bc e3 55 36 3c be f1 8b bc
       0.013938887 -0.013850326 0.011128875 -0.017083045
000010 19 f0 ac 3c 0e 38 b6 3c 0f 2a 83 bc c3 35 8e 3c
       0.021110581 0.022243526 -0.016011266 0.01735962
000020 96 ad eb 3c 35 c0 b4 3b
       0.028769296 0.005516077
