trained/CNN_ReLUKAN.pth (torch, 875760 bytes, 10 tensors)

conv1.weight f4 [16, 1, 3, 3]
0.08278219 0.39010733 -0.15662652 0.2325678 -0.18516497 0.23017621 -0.05871741 0.044785075
-0.3934725 -0.2793403 -0.14962609 0.34216946 -0.29672235 -0.2994529 0.40489677 -0.17406662
0.34530956 -0.08390317 -0.080423616 0.23855297 -0.2999332 -0.17185478 0.22628157 -0.32155365
-0.18661802 0.40091544 0.22710103 -0.13504241 -0.29753342 -0.30279043 0.047527757 0.03175168
0.0872704 -0.012244398 -0.29422647 -0.18558614 0.3861422 0.1194042 0.36406538 -0.10573373
-0.26752898 -0.3076654 -0.19570094 0.007860016 0.0015003097 0.36907518 0.29341868 -0.3005258
-0.1580027 0.22862148 -0.2489359 -0.34743524 0.034162752 0.3418747 0.19944115 0.31690758
0.35438058 0.13653263 0.32853073 0.3462668 0.2956068 -0.18800889 -0.032266703 0.17735422
0.052090175 -0.18334477 0.13375437 0.20281298 -0.117342636 0.05370125 -0.14517511 -0.18745369
0.071307614 -0.024056552 -0.08068363 -0.30915102 -0.22936966 -0.21660557 -0.26016358 0.19080614
0.34757808 -0.12770407 0.05574835 -0.23968802 -0.15530933 -0.27532485 -0.110843875 -0.34172797
0.03353192 -0.19368552 0.16430871 -0.079067156 -0.43219745 0.28910726 0.20472038 -0.20452875
0.05089633 0.19352375 0.08895564 -0.26426557 0.053490408 0.09431747 -0.33638057 0.17235643
0.37163302 -0.034030516 -0.006130257 0.19651982 0.17664854 0.08365281 -0.29550245 0.35905802
-0.31437016 -0.032053016 -0.14151272 0.14783636 -0.26600444 0.09763683 0.37936983 -0.18203393
0.098226726 -0.1584359 0.3583166 -0.39722893 0.29101962 -0.059915874 0.10532046 0.25000066
0.04403194 0.10274381 0.14851248 -0.1799725 0.11868649 0.037224684 -0.33776858 -0.08333592
-0.02844171 0.20239453 -0.057891905 -0.24554867 -0.32639006 -0.28177184 0.104779795 0.19432767
00000000: b589 a93d 26bc c73e b462 20be 4126 6e3e
00000010: e39b 3dbe 50b3 6b3e ab81 70bd 8e70 373d
00000020: 3a75 c9be b105 8fbe 9537 19be d630 af3e
00000030: feeb 97be e451 99be a14e cf3e 853e 32be
00000040: 6acc b03e 6dd5 abbd 23b5 a4bd 3b47 743e
00000050: d890 99be b3fa 2fbe 5bb6 673e aea2 a4be
00000060: cb18 3fbe ca44 cd3e 2c8d 683e 8f48 0abe
00000070: 4d56 98be 5907 9bbe 77ac 423d 0d0e 023d
00000080: d3ba b23d ba9c 48bc daa4 96be 4b0a 3ebe
00000090: 6eb4 c53e 308a f43d c766 ba3e ed8a d8bd
000000a0: 8ff9 88be 5286 9dbe d465 48be 4cc7 003c
000000b0: 0aa6 c43a 6cf7 bc3e f93a 963e 85de 99be
000000c0: 76cb 21be c01b 6a3e 0de9 7ebe 08e3 b1be
000000d0: 3eee 0b3d 330a af3e 4d3a 4c3e b641 a23e
000000e0: 5f71 b53e 36cf 0b3e 2e35 a83e e249 b13e
000000f0: c659 973e 6785 40be 172a 04bd 589c 353e
00000100: 825c 553d bbbe 3bbe e8f6 083e 35ae 4f3e
00000110: 5651 f0bd d8f5 5b3d c9a8 14be dcf3 3fbe
00000120: ba09 923d 3f12 c5bc 763d a5bd 0b49 9ebe
00000130: e1df 6abe dacd 5dbe 2934 85be af62 433e
00000140: c1f5 b13e dbc4 02be 6258 643d c770 75be
00000150: 6909 1fbe 61f7 8cbe 1d02 e3bd f8f6 aebe
00000160: c458 093d 7f55 46be 8b40 283e f6ed a1bd
00000170: fc48 ddbe de05 943e 38a2 513e fc6f 51be
00000180: ac78 503d 172b 463e 602e b63d d14d 87be
00000190: c218 5b3d 8529 c13d 133a acbe 347e 303e
000001a0: af46 be3e 9563 0bbd 53e0 c8bb 7e3c 493e
000001b0: 5be3 343e 2a52 ab3d 194c 97be 74d6 b73e
000001c0: 20f5 a0be 064a 03bd b6e8 10be 6a62 173e
000001d0: bc31 88be d1f5 c73d c33c c23e 1a67 3abe
000001e0: 182b c93d 053d 22be 4675 b73e 9761 cbbe
000001f0: 8600 953e 596a 75bd 41b2 d73d 1600 803e
00000200: d65a 343d 596b d23d a813 183e b64a 38be
00000210: e711 f33d e978 183d 01f0 acbe 06ac aabd
00000220: 97fe e8bc 8340 4f3e 1020 6dbd 1c71 7bbe
00000230: 991c a7be 6644 90be ca96 d63d d5fd 463e

conv1.bias f4 [16]
0.21378437 0.24850325 0.028807655 0.12211925 0.052909277 -0.11025528 -0.24449553 0.04796723
-0.16200745 -0.20804659 -0.025019836 0.14773986 -0.29402453 -0.16999076 0.27074924 0.088531144
00000000: 4aea 5a3e a377 7e3e 08fe eb3c a819 fa3d
00000010: 66b7 583d 85cd e1bd 095d 7abe 4979 443d
00000020: 48e5 25be 2a0a 55be 66f6 ccbc 1e49 173e
00000030: 628a 96be 0f12 2ebe a59f 8a3e d14f b53d

conv2.weight f4 [32, 16, 3, 3]
-0.07813841 0.035414025 0.02580014 0.016207995 0.04194637 -0.055145353 -0.08434414 0.056064166
-0.0067981156 -0.031241158 -0.027027087 0.06731236 0.084023096 0.030399423 0.09013518 0.023137452
-0.09718487 0.07967545 0.08372484 0.08269949 -0.070366755 0.065105736 -0.029835312 0.009325758
0.064233884 0.14202443 0.029678222 -0.08470255 -0.093868785 0.05042479 0.014636857 0.03725799
0.03747801 -0.050180912 -0.06512146 0.03143853 -0.0313088 -0.04783294 -0.029181844 -0.093274474
-0.122075774 -0.06622599 -0.07013408 -0.040361296 -0.06459916 -0.020174313 0.045492765 -0.033643164
-0.020134153 0.07421828 0.028834883 -0.04956124 0.053590436 0.08170994 -0.00793456 -0.09319987
-0.035793856 -0.00578055 -0.030570302 0.0042198007 -0.02155591 -0.04247116 -0.052091293 0.057342026
-0.013242039 -0.08370499 0.064701006 0.06248953 -0.08768663 -0.08786228 0.06885503 -0.06831729
0.027349334 -0.06254907 -0.06937493 -0.06953873 -0.083949044 0.048648022 -0.055334665 -0.11601499
0.033346176 0.010826048 0.049392283 -0.08490821 -0.054164715 -0.02628522 0.036331862 0.057433195
-0.023482388 -0.07800918 0.100921445 -0.05058291 -0.0020578052 -0.0017924543 0.0988267 -0.106073394
-0.05430729 0.11689753 0.15537816 0.072702825 -0.0028321557 0.028028972 0.012040115 -0.0070516784
-0.029235626 0.084553905 0.016805582 0.090018645 0.02657428 0.044844307 -0.03859223 0.0057848915
0.030640205 -0.08254225 -0.040936623 0.0038458088 -0.113441795 0.07525625 -0.09279495 0.11193246
0.039022315 -0.008869694 0.04325406 0.07916868 0.09891417 -0.017405428 0.0733183 -0.044117745
0.024904765 -0.085036345 0.023959143 0.024819931 -0.046257317 -0.008658007 -0.07292082 0.06521183
0.022603069 -0.050967325 0.003478983 -0.0026205545 -0.002751885 0.03612971 -0.09648995 0.00942287
0.05826208 -0.03437526 -0.07070924 0.03243574 -0.027707163 0.077771194 -0.06283786 -0.0069469977
0.04293398 0.028363287 -0.022693925 -0.031215077 -0.07490023 -0.037840694 0.048590396 -0.01473597
0.08664098 0.05556565 0.062045034 0.011394102 -0.08159957 0.04019895 0.11434475 0.110373475
0.004112182 0.02297709 0.031870734 -0.006832019 -0.033681322 -0.08801697 -0.081880644 -0.05623234
-0.048100673 0.041954983 0.08707857 -0.07026384 -0.08565003 0.09293716 0.064423434 0.030578194
-0.00637643 0.025203692 0.10280528 0.044487707 0.012809661 -0.029119445 0.08819293 0.095065266
0.13090774 0.13486312 0.053511724 0.017178504 0.035326697 -0.0005387737 -0.04509806 -0.054475747
0.001240503 0.06585472 0.012201032 0.054492954 -0.012630282 -0.0186292 -0.016234023 -0.0077397088
0.045650337 -0.07300245 0.011401792 -0.09854376 0.01853256 -0.04252854 -0.005762205 0.05176705
-0.0110124955 -0.018827586 -0.08193506 -0.03702114 -0.05030953 -0.024215514 -0.013738779 -0.0101536
0.0040328796 -0.103659 -0.101039656 -0.07633502 -0.055015944 -0.07149495 -0.08028164 -0.044814363
-0.059974954 0.03517184 -0.064904325 0.083627455 -0.044392757 -0.0151240155 0.11574867 0.01727543
-0.057405815 0.0062338994 0.08294901 0.1019352 0.008976623 0.0022229792 -0.050756477 -0.010381365
-0.035755057 0.054100495 0.07907381 -0.014601507 -5.918182e-05 -0.117487304 -0.08569397 0.002949639
00000000: 0807 a0bd 4c0e 113d d15a d33c a1c6 843c
00000010: f5cf 2b3d 18e0 61bd 9fbc acbd 8aa3 653d
00000020: bac2 debb 75ed ffbc e967 ddbc 10db 893d
00000030: 4d14 ac3d 3608 f93c cb98 b83d c18a bd3c
00000040: dc08 c7bd e22c a33d ee77 ab3d 5a5e a93d
00000050: 721c 90bd 2856 853d 2f69 f4bc 10cb 183c
00000060: 0e8d 833d da6e 113e be1f f33c 8878 adbd
00000070: 473e c0bd 398a 4e3d 6ecf 6f3c d69b 183d
00000080: 8b82 193d 808a 4dbd 665e 85bd b0c5 003d
00000090: a83d 00bd 79ec 43bd c30e efbc b006 bfbd
000000a0: dd02 fabd 7ea1 87bd 75a2 8fbd e351 25bd
000000b0: 904c 84bd 9a44 a5bc 9f56 3a3d 6acd 09bd
000000c0: 61f0 a4bc c1ff 973d 2237 ec3c ba00 4bbd
000000d0: a581 5b3d 8b57 a73d f5ff 01bc 93df bebd
000000e0: 949c 12bd c56a bdbb 926e fabc 4146 8a3b
000000f0: 0596 b0bc 3df6 2dbd ae5d 55bd 79df 6a3d
00000100: 23f5 58bc 866d abbd f681 843d 05f5 7f3d
00000110: 0c95 b3bd 24f1 b3bd de03 8d3d efe9 8bbd
00000120: b60b e03c ba19 80bd 7114 8ebd 526a 8ebd
00000130: 7aed abbd 2643 473d 9aa6 62bd 4499 edbd
00000140: 0096 083d bd5f 313c 904f 4a3d 5be4 adbd
00000150: d2db 5dbd 1a54 d7bc b8d0 143d 123f 6b3d
00000160: 235e c0bc 47c3 9fbd e7af ce3d 0730 4fbd
00000170: 3edc 06bb c9f0 eaba a765 ca3d 023d d9bd
00000180: 5271 5ebd f967 ef3d 741b 1f3e 38e5 943d
00000190: b09b 39bb 049d e53c e743 453c c411 e7bb
000001a0: 8d7f efbc 992a ad3d dcab 893c b25b b83d
000001b0: 4eb2 d93c aaae 373d e312 1ebd 308f bd3b
000001c0: 2b01 fb3c e90b a9bd 29ad 27bd f709 7c3b
000001d0: 2c54 e8bd f31f 9a3d 470b bebd d83c e53d
000001e0: ddd5 1f3d 3152 11bc 2b2b 313d 3023 a23d
000001f0: 8393 ca3d d495 8ebc e827 963d cfb4 34bd
00000200: 1405 cc3c 8927 aebd f745 c43c 2b53 cb3c
00000210: 5078 3dbd 50da 0dbc 8357 95bd c88d 853d
00000220: 122a b93c 1dc3 50bd a6ff 633b 9cbd 2bbb
00000230: f858 34bb bffc 133d 869c c5bd 6262 1a3c
00000240: 38a4 6e3d 13cd 0cbd 02d0 90bd 57db 043d
00000250: 22fa e2bc 8146 9f3d 23b1 80bd a4a3 e3bb
00000260: 8adb 2f3d 205a e83c 9ce8 b9bc c3b6 ffbc
00000270: 4b65 99bd d8fe 1abd b906 473d 236f 71bc
00000280: d370 b13d cf98 633d ef22 7e3d 54ae 3a3c
00000290: ad1d a7bd a7a7 243d 952d ea3d 7d0b e23d
000002a0: 7cbf 863b 733a bc3c e38a 023d 21df dfbb
000002b0: 6df5 09bd 3e42 b4bd 0ab1 a7bd e253 66bd
000002c0: 3605 45bd fdd8 2b3d 4056 b23d 7de6 8fbd
000002d0: 4869 afbd d655 be3d 6ff0 833d 1f7f fa3c
000002e0: 5ff1 d0bb f977 ce3c 938b d23d be38 363d
000002f0: 9ddf 513c e78b eebc 7f9e b43d 94b1 c23d
00000300: ae0c 063e 8f19 0a3e 1c2f 5b3d efb9 8c3c
00000310: bab2 103d 7e3c 0dba beb8 38bd f621 5fbd
00000320: 6098 a23a d7de 863d d6e6 473c 0134 5f3d
00000330: 3eef 4ebc 449c 98bc 37fd 84bc 629d fdbb
00000340: d9fb 3a3d 4f82 95bd 95ce 3a3c 50d1 c9bd
00000350: 98d1 973c 6832 2ebd e1d0 bcbb b009 543d
00000360: c16d 34bc 4f3c 9abc 92cd a7bd 7ba3 17bd
00000370: 5e11 4ebd 9d5f c6bc 9e18 61bc 495b 26bc
00000380: 3f26 843b 2b4b d4bd e1ed cebd 8955 9cbd
00000390: 6658 61bd f26b 92bd b36a a4bd 448f 37bd
000003a0: 4ca8 75bd 5910 103d 8fec 84bd df44 ab3d
000003b0: 2ed5 35bd b8ca 77bc a40d ed3d 3485 8d3c
000003c0: 5c22 6bbd bd45 cc3b 2ce1 a93d 67c3 d03d
000003d0: b012 133c 67af 113b 06e6 4fbd 9a16 2abc
000003e0: e573 12bd 7b98 5d3d 73f1 a13d 293b 6fbc
000003f0: ff39 78b8 2f9d f0bd 5280 afbd bb4e 413b

conv2.bias f4 [32]
0.023615833 0.059932113 -0.09370818 -0.07979985 0.019252738 0.067780934 -0.029539717 0.03040198
-0.014918081 -0.04962294 0.056270663 0.03277448 0.013677244 0.0651273 0.027314333 0.01628867
-0.060748644 -0.040680062 0.00039413557 0.028456677 -0.014590797 0.05518104 -0.08842455 -0.022095451
0.013896107 -0.028703555 0.02234763 0.058187 -0.07527358 -0.06811011 -0.052034855 0.0023726644
00000000: fe75 c13c 607b 753d 13ea bfbd 1b6e a3bd
00000010: ebb7 9d3c bbd0 8a3d 47fd f1bc 930d f93c
00000020: f86a 74bc 6d41 4bbd 117c 663d 883e 063d
00000030: 8516 603c 7661 853d 4fc2 df3c d16f 853c
00000040: 92d3 78bd 23a0 26bd fba3 ce39 fa1d e93c
00000050: 3d0e 6fbc 8405 623d ee17 b5bd 8501 b5bc
00000060: 7fac 633c b823 ebbc 6012 b73c 7e55 6e3d
00000070: 0929 9abd 507d 8bbd 8022 55bd b47e 1b3b

fc1.weight f4 [128, 1568]
-0.0005276142 0.00044595206 -0.046253037 0.00399545 -0.0011216316 -0.04167796 0.0018309765 0.0046971436
-0.0153785255 -0.05770271 0.02009075 0.033033922 -0.005660159 0.0063159564 0.046265952 0.013182742
0.007879261 0.013011908 -0.04660023 -0.010515521 0.015665822 -0.011797431 -0.020504367 -0.00065777067
0.02025759 -0.024297921 -0.028144198 0.011810219 -0.011027199 0.016086701 -0.016930796 0.024271911
0.008163186 0.03864196 0.04197855 -0.007219376 0.008905721 0.0072000856 0.011006865 0.049798828
0.02019595 0.054053314 0.025840713 0.011722481 0.0047309794 0.012328047 -0.023573132 0.01615724
-0.016534049 -0.017712547 -0.007673284 0.038516726 0.012074152 -0.03422165 -0.032122687 0.024587862
-0.0051612966 -0.052482065 -0.06114684 0.002423093 0.035607148 0.005398255 -0.024839615 0.036741093
-0.01439871 0.033653088 0.050835412 -0.01277273 -0.020669082 -0.038568616 0.04189948 -0.0054219333
0.00063374726 -0.001853919 -0.03819261 -0.0075407876 0.04070633 0.018879037 0.0017737751 0.0050492655
0.034992985 0.03050802 0.013809066 -0.032012258 3.212185e-05 -0.023187183 0.0022823953 -0.01937466
0.020299677 -0.0013607637 0.031217372 -0.019486345 0.033908084 -0.018687183 0.0020215532 0.0153737385
0.02847676 0.00042320037 0.0151408855 -0.02059211 -0.022776281 0.025591865 -0.0064893677 -0.027993612
0.007142306 -0.005157731 0.030229703 0.019298749 0.03346739 -0.023326546 0.03251519 0.019623596
0.029276418 -0.013438574 0.014855133 -0.02617112 -0.008718875 -0.03266618 0.03212711 -0.05779163
0.0002011964 -0.018314123 -0.01753876 0.019356962 -0.004112433 0.005053345 -0.030504122 -0.009423227
-0.0004494446 -0.050321266 -9.1429705e-05 -0.042731363 -0.005291685 0.036632806 0.0125244595 -0.037911277
0.011851033 0.009117988 -0.0062877294 0.0047578053 0.0032310274 0.024715396 0.017051522 0.015743816
-0.032301765 -0.019511059 -0.009894213 -0.0038778698 -0.010532564 -0.0044316677 0.04743372 0.057993703
-0.007466954 0.02252116 -0.018221015 -0.018346686 -0.009020638 0.03273733 -0.028856909 0.0027015728
0.018033443 0.049307305 0.003324439 -0.009878661 -0.036649004 0.017112551 -0.002040329 0.024180591
0.04665556 0.042250153 0.0023738395 0.029466499 0.052787215 0.014203323 -0.004422764 -0.0128126405
0.023624863 0.017369946 -0.020870253 -0.0107301045 -0.040527187 -0.0014298029 0.00072098663 0.003091306
0.01712029 -0.04899837 0.011634013 -0.008543039 0.0016434019 -0.03225197 -0.023664912 0.011507863
0.05366406 0.008733217 -0.013463603 -0.022695417 -0.008619432 0.015140159 -0.0629406 -0.0065322244
-0.0034600399 -0.0057681 0.041354958 0.0099095 0.0029620256 -0.08799486 -0.011448896 0.0068730814
-0.03173518 0.03199699 0.017804585 -0.010474454 0.02451808 -0.0058786804 -0.00046735024 0.0070390664
0.018878164 0.035274304 -0.015389304 0.02430983 -0.0019221426 -0.023314418 -0.0072286483 0.013532085
-0.014178877 0.029784547 0.00054097257 0.028319756 -0.013310909 -0.009555021 0.034718163 0.033374146
0.0046597533 -0.0141116 0.032295205 -0.014538401 -0.01560883 0.015970284 0.007475157 0.0026921195
0.046074364 0.015585632 0.010221944 0.0188734 -0.03730428 -0.016543485 0.012652201 -0.013329295
-0.0074948743 0.021646887 -0.009289931 0.020215794 0.008229125 0.010218622 0.021423789 0.016246432
00000000: 974f 0aba acce e939 d373 3dbd 44ec 823b
00000010: b603 93ba 82b6 2abd 60fd ef3a 7fea 993b
00000020: 36f6 7bbc ad59 6cbd 5b95 a43c 944e 073d
00000030: db78 b9bb 15f6 ce3b 5e81 3d3d 6dfc 573c
00000040: 0418 013c e62f 553c e2df 3ebd 4b49 2cbc
00000050: 9c55 803c 034a 41bc c6f8 a7bc 3e6e 2cba
00000060: 3ff3 a53c 6f0c c7bc a98e e6bc a67f 413c
00000070: 6dab 34bc 42c8 833c 74b2 8abc e3d5 c63c
00000080: e2be 053c 0847 1e3d b3f1 2b3d 8490 ecbb
00000090: 4de9 113c b2ee eb3b 2356 343c dbf9 4b3d
000000a0: fa71 a53c 0267 5d3d e7af d33c a60f 403c
000000b0: 5506 9b3b 94fb 493c 711c c1bc 305c 843c
000000c0: 6a72 87bc e719 91bc 2c70 fbbb b7c3 1d3d
000000d0: aad2 453c 002c 0cbd 1493 03bd 7c6c c93c
000000e0: 1820 a9bb 6ff7 56bd 1c75 7abd c1cc 1e3b
000000f0: cdd8 113d d8e3 b03b 737c cbbc d47d 163d
00000100: 91e8 6bbc d2d7 093d cb38 503d b644 51bc
00000110: 3552 a9bc 20fa 1dbd ca9e 2b3d 79aa b1bb
00000120: 0f22 263a 33ff f2ba db6f 1cbd b618 f7bb
00000130: aebb 263d 36a8 9a3c 047e e83a 4f74 a53b
00000140: ce54 0f3d f5eb f93c 6c3f 623c 491f 03bd
00000150: 93ba 0638 0cf3 bdbc 3d94 153b 9bb7 9ebc
00000160: 824b a63c a75b b2ba 93bb ff3c d4a1 9fbc
00000170: 34e3 0a3d dd15 99bc 097c 043b 22e2 7b3c
00000180: 1848 e93c fee0 dd39 7a11 783c c9b0 a8bc
00000190: 5395 babc 08a6 d13c c3a4 d4bb dc52 e5bc
000001a0: 010a ea3b 2f02 a9bb 48a4 f73c 6918 9e3c
000001b0: 1a15 093d 5017 bfbc a62e 053d aac1 a03c
000001c0: 19d5 ef3c 772d 5cbc f262 733c d164 d6bc
000001d0: 9dd9 0ebc f9cc 05bd b797 033d ebb6 6cbd
000001e0: 3ff8 5239 8007 96bc 72ad 8fbc 7e92 9e3c
000001f0: 97c1 86bb 8896 a53b c8e3 f9bc e163 1abc
00000200: 6fa3 ebb9 ac1d 4ebd f3bd bfb8 1507 2fbd
00000210: df65 adbb 480c 163d 6433 4d3c db48 1bbd
00000220: d62a 423c 9d63 153c 4c09 cebb 5de7 9b3b
00000230: a5bf 533b f177 ca3c a2af 8b3c 2df9 803c
00000240: db4e 04bd a8d5 9fbc 561b 22bc dc23 7ebb
00000250: c690 2cbc 8637 91bb dc49 423d ce8a 6d3d
00000260: 5aad f4bb 4c7e b83c 3d44 95bc ca4b 96bc
00000270: 4ccb 13bc 9417 063d 5365 ecbc df0c 313b
00000280: dfba 933c 75f6 493d d5de 593b 1bda 21bc
00000290: 441d 16bd 9f2f 8c3c 0ab7 05bb 6016 c63c
000002a0: e719 3f3d 7f0e 2d3d 6b92 1b3b ba63 f13c
000002b0: 6837 583d 0eb5 683c d5ec 90bb 1cec 51bc
000002c0: ee88 c13c 6b4b 8e3c 18f8 aabc 52cd 2fbc
000002d0: d6ff 25bd 3968 bbba 9800 3d3a 8297 4a3b
000002e0: da3f 8c3c 84b2 48bd 969c 3e3c 1af8 0bbc
000002f0: 6b67 d73a a41a 04bd ebdc c1bc 7a8b 3c3c
00000300: d8ce 5b3d c415 0f3c 7296 5cbc bdeb b9bc
00000310: 8538 0dbc 6e0e 783c 00e7 80bd 450c d6bb
00000320: d6c1 62bb 5402 bdbb d163 293d 755b 223c
00000330: 8b1e 423b a636 b4bd 2694 3bbc 9637 e13b
00000340: c0fc 01bd 470f 033d ecda 913c 0b9d 2bbc
00000350: 24da c83c f2a1 c0bb b006 f5b9 f8a7 e63b
00000360: 61a6 9a3c ca7b 103d 6b23 7cbc 6925 c73c
00000370: 67f0 fbba e1fd bebc 4cde ecbb aeb5 5d3c
00000380: 854e 68bc b9fe f33c 0ed0 0d3a d5fe e73c
00000390: 0016 5abc aa8c 1cbc a234 0e3d 54b3 083d
000003a0: d8b0 983b 5734 67bc fa47 043d 7932 6ebc
000003b0: 2ebc 7fbc 1dd4 823c 29f2 f43b 456e 303b
000003c0: 79b8 3c3d e15a 7f3c f179 273c 639c 9a3c
000003d0: 5fcc 18bd 3486 87bc 2d4b 4f3c 1e63 5abc
000003e0: 9097 f5bb d054 b13c cb34 18bc 989b a53c
000003f0: 74d3 063c 026c 273c f180 af3c 3d17 853c

fc1.bias f4 [128]
-0.020748 -0.0093044285 -0.019985992 0.028353937 -0.0030525483 0.036331836 0.028490487 0.028651342
-0.004110401 0.0063010985 -0.0048984257 0.013709791 0.012556377 -0.012374303 0.018099293 0.034910925
-0.019007457 -0.0047381907 0.014964593 0.011276605 0.013574723 -0.01261306 -0.001504852 -0.003981268
-0.013339415 -0.022783155 -0.009006637 0.0011088741 -0.012556847 -0.021085706 -0.019315679 -0.00963966
0.018582184 -0.0311141 0.0047448804 -0.007335348 0.026701018 -0.0023793827 -0.0026591907 -0.019117294
-0.021418856 -0.014388641 -0.0103509175 0.009034244 0.0008555675 0.030026132 0.0038469508 0.021295948
0.0064442935 0.021098763 0.004925538 0.023846136 0.031643037 0.016335992 -0.018465351 -0.020275315
0.011497555 0.009624583 -0.011868282 -0.001073222 0.008556603 -0.017204465 -0.0047041494 -0.018696852
0.0018578864 -0.002901402 -0.0031395329 0.0029456578 0.014520006 0.010282876 0.009356685 -0.014779288
-0.011334987 -0.0034108243 0.012530452 -0.008989241 -0.0078010205 -0.016505675 0.006503398 -0.0050647133
0.020276295 -0.016500587 -0.010404685 -0.027664203 -0.00010275379 0.0020241176 -0.016052416 0.02400335
-0.0080663655 0.005538958 0.0010213571 0.025863068 0.0016884793 0.025739128 -0.009410102 0.015162447
0.019672768 -0.014344382 0.018832799 -0.007837991 -0.0049344134 -0.004203954 -0.0028959299 -0.015904669
0.0128067825 0.025294429 0.02230603 -0.0112502 0.02360481 -0.0017083391 -0.012557717 -0.017833645
-0.020464016 0.002100453 0.014787177 0.008765788 0.021645166 -0.022284418 0.017613288 0.0011748426
0.006545416 0.0019033558 0.0010965404 0.0030594782 0.029076377 -0.024528103 -0.01669682 -0.024862364
00000000: b6f7 a9bc 9a71 18bc aab9 a3bc 8446 e83c
00000010: 430d 48bb b1d0 143d e264 e93c 38b6 ea3c
00000020: 8bb0 86bb 7279 ce3b f982 a0bb 089f 603c
00000030: 43b9 4d3c 97bd 4abc f844 943c c2fe 0e3d
00000040: 87b5 9bbc d342 9bbb 0d2e 753c 82c1 383c
00000050: 8468 5e3c 02a7 4ebc 743e c5ba 4c75 82bb
00000060: 908d 5abc bda3 babc 9390 13bc a457 913a
00000070: 3cbb 4dbc eebb acbc ea3b 9ebc aaef 1dbc
00000080: aa39 983c ffe2 febc f17a 9b3b 5c5d f0bb
00000090: 18bc da3c 6bef 1bbb d145 2ebb df9b 9cbc
000000a0: 9976 afbc 56be 6bbc e596 29bc 5e04 143c
000000b0: 2a48 603a 5df9 f53c 201d 7c3b d774 ae3c
000000c0: a72a d33b 50d7 ac3c 6866 a13b f958 c33c
000000d0: 219c 013d 0fd3 853c a644 97bc 6b18 a6bc
000000e0: 3e60 3c3c 6db0 1d3c 2f73 42bc 5bab 8cba
000000f0: ff30 0c3c 61f0 8cbc 4425 9abb 242a 99bc
00000100: 5384 f33a 7325 3ebb 9fc0 4dbb f00b 413b
00000110: 52e5 6d3c 8279 283c c84c 193c d424 72bc
00000120: 62b6 39bc 2388 5fbb 864c 4d3c 9c47 13bc
00000130: b49f ffbb e936 87bc 751a d53b e5f5 a5bb
00000140: 791a a63c 3d2c 87bc 6978 2abc 0aa0 e2bc
00000150: 857d d7b8 0fa7 043b 5b80 83bc aca2 c43c
00000160: ca28 04bc 2680 b53b 0fdf 853a c9de d33c
00000170: f74f dd3a ddda d23c d42c 1abc e96b 783c
00000180: c928 a13c b304 6bbc 3e47 9a3c eb6a 00bc
00000190: dcb0 a1bb 52c1 89bb a4c9 3dbb 824a 82bc
000001a0: 8ad3 513c 4336 cf3c 23bb b63c c252 38bc
000001b0: e05e c13c 59ea dfba e2be 4dbc dd17 92bc
000001c0: 27a4 a7bc c1a7 093b ea45 723c 619e 0f3c
000001d0: 3451 b13c d08d b6bc be49 903c 2dfd 993a
000001e0: ee7a d63b 067a f93a cab9 8f3a 8781 483b
000001f0: 9531 ee3c 29ef c8bc c5c7 88bc 28ac cbbc

k1.rk_layers.0.phase_low f4 [128, 8]
-0.7118228 -0.505148 -0.25963798 -0.03135197 0.12343535 0.32275274 0.5302899 0.6939208
-0.63812166 -0.44941407 -0.27218506 -0.04889729 0.1443946 0.3799682 0.60040873 0.75510776
-0.68752915 -0.50500166 -0.22992219 -0.06748107 0.12470321 0.24564233 0.5041784 0.6996167
-0.67279434 -0.41167495 -0.2365899 -0.0827705 0.15902874 0.30026674 0.49156457 0.7374074
-0.6372701 -0.43198588 -0.19881642 -0.017463593 0.11725327 0.31920353 0.5371634 0.71925783
-0.6569277 -0.45889217 -0.24782893 -0.062090237 0.10533194 0.29509285 0.48482898 0.7315983
-0.6488014 -0.43884373 -0.24390334 -0.029751586 0.114429854 0.25516686 0.4889927 0.69541466
-0.6796029 -0.42275944 -0.27438676 -0.05762299 0.11610618 0.3067825 0.5012514 0.7411258
-0.7000639 -0.4107475 -0.28043246 -0.100643896 0.14279442 0.37395686 0.56807613 0.7437508
-0.64574796 -0.4469795 -0.28947082 -0.043350026 0.09464888 0.2781018 0.46057472 0.67417836
-0.64995 -0.41277587 -0.29106423 -0.09095656 0.14180028 0.34445533 0.5832481 0.79949826
-0.6910758 -0.4654072 -0.1607903 -0.067104794 0.061294384 0.25030842 0.5421504 0.74430025
-0.6492438 -0.5109039 -0.18380676 -0.002529662 0.12765439 0.26433867 0.48564872 0.7326498
-0.7526689 -0.53371286 -0.22207019 -0.03911844 0.13296668 0.29884923 0.4950451 0.7019412
-0.69003177 -0.3649711 -0.25767022 -0.09959676 0.09315722 0.32523987 0.5804957 0.7617721
-0.6827128 -0.46247083 -0.19470823 -0.05776693 0.10511275 0.31364754 0.5683873 0.7933732
-0.6565583 -0.43619028 -0.26971927 -0.08273777 0.10267288 0.31932938 0.5516506 0.7613727
-0.6573588 -0.42081285 -0.24740127 -0.010304855 0.113355145 0.33441633 0.57068133 0.7088441
-0.68823296 -0.41083866 -0.23997118 -0.062478326 0.1283204 0.2971087 0.523171 0.7021431
-0.6767708 -0.4483175 -0.23395525 -0.015678868 0.12112273 0.27797914 0.54354864 0.7795811
-0.6911515 -0.46075425 -0.20309849 -0.03476895 0.10237865 0.26238364 0.51025575 0.6788184
-0.6786237 -0.45375317 -0.2281855 -0.042817995 0.13706549 0.2720207 0.55205244 0.741569
-0.693672 -0.43928814 -0.22383823 -0.09554435 0.065642804 0.21660273 0.5258625 0.7181904
-0.6524187 -0.45952588 -0.31290507 -0.100522615 0.09701041 0.32049742 0.5615582 0.7449918
-0.6977117 -0.43324888 -0.23439252 -0.047295123 0.12000984 0.31457862 0.52900934 0.7213776
-0.6614754 -0.4126463 -0.22174075 -0.041664563 0.099277705 0.31497273 0.5518116 0.79258394
-0.68899953 -0.39892974 -0.24342722 -0.08165298 0.1020824 0.37524655 0.59196746 0.8339102
-0.65704924 -0.41553172 -0.24443986 -0.024201758 0.17197858 0.32533497 0.4987604 0.714601
-0.66840416 -0.43768233 -0.19579287 -0.063877806 0.06467181 0.30388448 0.5041148 0.7449146
-0.7086079 -0.47643453 -0.21712103 -0.08163767 0.11179808 0.32454893 0.526524 0.7259112
-0.6811912 -0.4663055 -0.24964096 -0.056621913 0.14047807 0.32603094 0.49628028 0.73321795
-0.66566515 -0.47142568 -0.23953006 -0.027203824 0.11199177 0.33357263 0.5141987 0.7181632
00000000: 053a 36bf 6151 01bf 45ef 84be ec6a 00bd
00000010: accb fc3d d93f a53e 14c1 073f cba4 313f
00000020: f15b 23bf 9a19 e6be d75b 8bbe 8648 48bd
00000030: 2edc 133e 318b c23e 63b4 193f be4e 413f
00000040: e901 30bf ca47 01bf b970 6bbe 8433 8abd
00000050: 6664 ff3d aa89 7b3e d611 013f 141a 333f
00000060: 403c 2cbf 0fc7 d2be 9f44 72be 9483 a9bd
00000070: 6ed8 223e 90bc 993e 5aae fb3e bbc6 3c3f
00000080: 2224 23bf 412d ddbe 8896 4bbe cf0f 8fbc
00000090: 7b22 f03d a56e a33e 8a83 093f 4821 383f
000000a0: 6a2c 28bf eaf3 eabe dec6 7dbe 5552 7ebd
000000b0: 46b8 d73d 6916 973e 813b f83e 074a 3b3f
000000c0: d917 26bf 20b0 e0be ccc1 79be 99b9 f3bc
000000d0: 335a ea3d 3ba5 823e 405d fa3e b206 323f
000000e0: 75fa 2dbf ed73 d8be 6c7c 8cbe 1606 6cbd
000000f0: 14c9 ed3d 9912 9d3e 0352 003f 6cba 3d3f
00000100: 6337 33bf 7f4d d2be d894 8fbe 631e cebd
00000110: b338 123e 4677 bf3e 706d 113f 7466 3e3f
00000120: bd4f 25bf 7fda e4be 8535 94be cc8f 31bd
00000130: 46d7 c13d 5c63 8e3e 73d0 eb3e f496 2c3f
00000140: 2063 26bf 5c57 d3be 5f06 95be 6f47 babd
00000150: 1834 113e 735c b03e bf4f 153f ebab 4c3f
00000160: 58ea 30bf da49 eebe 36a6 24be 3d6e 89bd
00000170: d20f 7b3d 6d28 803e 5eca 0a3f 768a 3e3f
00000180: d734 26bf 99ca 02bf d737 3cbe b0c8 25bb
00000190: d5b7 023e 6657 873e f3a6 f83e f08e 3b3f
000001a0: e9ae 40bf 68a1 08bf 5e66 63be a83a 20bd
000001b0: 6b28 083e c402 993e 8d76 fd3e 6bb2 333f
000001c0: eca5 30bf 7edd babe 5aed 83be 63f9 cbbd
000001d0: 36c9 be3d d785 a63e 5e9b 143f 7f03 433f
000001e0: 44c6 2ebf fac8 ecbe 9861 47be 049d 6cbd
000001f0: 5a45 d73d 6996 a03e d581 113f 821a 4b3f
00000200: 3414 28bf 5554 dfbe a518 8abe 6c72 a9bd
00000210: 2946 d23d 247f a33e f938 0d3f 52e9 423f
00000220: ab48 28bf c874 d7be c256 7dbe b2d5 28bc
00000230: be26 e83d 9e38 ab3e 2c18 123f cf76 353f
00000240: 0930 30bf 7259 d2be 01bb 75be 46e9 7fbd
00000250: 6c66 033e a21e 983e 89ee 053f a6bf 333f
00000260: da40 2dbf df89 e5be f791 6fbe f870 80bc
00000270: 320f f83d 4853 8e3e 0126 0b3f a192 473f
00000280: 4eef 30bf fbe7 ebbe 0df9 4fbe e369 0ebd
00000290: e6ab d13d 2657 863e 1fa0 023f 0bc7 2d3f
000002a0: 48ba 2dbf 5652 e8be 76a9 69be ec61 2fbd
000002b0: e55a 0c3e 4c46 8b3e 4f53 0d3f 77d7 3d3f
000002c0: 7d94 31bf 60ea e0be d935 65be c2ac c3bd
000002d0: bc6f 863d 1bcd 5d3e ed9e 063f 53db 373f
000002e0: e904 27bf fa46 ebbe 1835 a0be cdde cdbd
000002f0: 65ad c63d 3d18 a43e 47c2 0f3f c8b7 3e3f
00000300: 3c9d 32bf ccd2 ddbe 9804 70be 88b8 41bd
00000310: b8c7 f53d 7310 a13e 286d 073f 34ac 383f
00000320: 7456 29bf 6046 d3be 0210 63be 76a8 2abd
00000330: 1c52 cb3d 1b44 a13e 8643 0d3f c8e6 4a3f
00000340: 4662 30bf 8540 ccbe fc44 79be ad39 a7bd
00000350: 9410 d13d 5120 c03e 2e8b 173f 247b 553f
00000360: 6134 28bf 93c0 d4be 714e 7abe c442 c6bc
00000370: 271b 303e 4e92 a63e 865d ff3e 17f0 363f
00000380: 891c 2bbf e617 e0be ed7d 48be 5ed2 82bd
00000390: a772 843d bf96 9b3e ab0d 013f b9b2 3e3f
000003a0: 5467 35bf 3aef f3be fa54 5ebe a731 a7bd
000003b0: 64f6 e43d 472b a63e 47ca 063f 51d5 393f
000003c0: 8c62 2ebf 98bf eebe e1a1 7fbe 61ec 67bd
000003d0: 7cd9 0f3e 87ed a63e 7318 fe3e 2cb4 3b3f
000003e0: 0869 2abf b55e f1be 5e47 75be 8eda debc
000003f0: f15b e53d 08ca aa3e 87a2 033f 8bd9 373f

k1.rk_layers.0.phase_height f4 [128, 8]
0.30615768 0.4559496 0.631112 0.8905179 1.1015342 1.2913768 1.5085552 1.7494477
0.24601012 0.49342534 0.6991661 0.8520575 1.0371149 1.2176617 1.4105757 1.6605637
0.30597413 0.47393066 0.6689357 0.9246396 1.1333634 1.3722106 1.4968405 1.7032561
0.25039566 0.4524178 0.68318665 0.9036159 1.0928514 1.3194194 1.5364174 1.713404
0.24875358 0.41829374 0.6365425 0.8579742 1.1091852 1.3008769 1.4589695 1.6797941
0.27810597 0.46290264 0.6877321 0.89677525 1.1295956 1.3351853 1.5504048 1.6545318
0.23593222 0.46171698 0.6744498 0.90588933 1.1416448 1.3699384 1.5077983 1.725121
0.27153343 0.48413435 0.67241406 0.8860894 1.1013058 1.293602 1.4840425 1.6783329
0.26163024 0.47788078 0.7348233 0.90524286 1.048024 1.2269062 1.4505816 1.6416116
0.2778992 0.4906912 0.67798805 0.8988178 1.1440523 1.3511875 1.5593239 1.7095246
0.20189933 0.4947657 0.7210442 0.8735542 1.0462981 1.2666724 1.4061441 1.6027135
0.29838562 0.43671614 0.65315425 0.9432068 1.1841224 1.3475574 1.4560175 1.6570562
0.3085833 0.515399 0.6159776 0.8644542 1.1139503 1.3513826 1.5122668 1.665294
0.31856033 0.46170813 0.6383689 0.889068 1.0981612 1.3455353 1.5133705 1.7067614
0.25524092 0.44916454 0.71736693 0.92700917 1.1045393 1.2564272 1.4230976 1.6377795
0.2626097 0.42047155 0.6628629 0.904618 1.0788249 1.2903374 1.4286009 1.6110001
0.25144434 0.49416193 0.6865848 0.91655546 1.122719 1.2984669 1.4749079 1.6570004
0.19933045 0.48147282 0.6595159 0.85647804 1.1137774 1.2726854 1.4460552 1.7061564
0.26759887 0.45598993 0.6732446 0.8797082 1.1033587 1.3082389 1.4868052 1.7116154
0.2651666 0.44485617 0.63641423 0.8894114 1.1210213 1.3084929 1.4403317 1.6224035
0.28153545 0.44200212 0.65446603 0.89264166 1.1466581 1.3600968 1.5127535 1.7441202
0.28415576 0.4222711 0.6399591 0.9123774 1.0952646 1.3279163 1.442584 1.6566756
0.29658544 0.4689917 0.72358 0.9636888 1.1806874 1.3887091 1.5072552 1.70344
0.27265993 0.53977853 0.74810606 0.91034514 1.0951054 1.2776169 1.456112 1.6566628
0.25011483 0.45146605 0.6790557 0.8802557 1.1088492 1.3011937 1.4703391 1.6939003
0.23325945 0.4440617 0.67263764 0.9036312 1.1101272 1.2671309 1.4285557 1.598076
0.23677899 0.44214258 0.6946325 0.8947735 1.0923733 1.1986548 1.3930703 1.5711536
0.20439933 0.43757063 0.6492021 0.85937554 1.0885522 1.3114859 1.5080789 1.7182722
0.26542297 0.4448246 0.67461604 0.9337814 1.1339142 1.2915659 1.4817525 1.6619593
0.29648474 0.4490512 0.68546104 0.92821485 1.1001287 1.2862027 1.5066179 1.6861763
0.2763478 0.45023626 0.64226174 0.9090222 1.0997474 1.3285096 1.529807 1.6541585
0.27754995 0.4434338 0.6469393 0.88683516 1.1025071 1.2957413 1.5248556 1.68956
00000000: b3c0 9c3e 3a72 e93e 8e90 213f fbf8 633f
00000010: 13ff 8c3f d64b a53f 5618 c13f e7ed df3f
00000020: 14ea 7b3e 3fa2 fc3e 8dfc 323f 7120 5a3f
00000030: 2ec0 843f 57dc 9b3f bf8d b43f 5a8d d43f
00000040: a4a8 9c3e 0aa7 f23e 5f3f 2b3f 2eb5 6c3f
00000050: 0d12 913f 99a4 af3f 7898 bf3f 4c04 da3f
00000060: dc33 803e 4ea3 e73e 52e5 2e3f 5f53 673f
00000070: 8ee2 8b3f bce2 a83f 53a9 c43f d350 db3f
00000080: 42b9 7e3e 992a d63e 73f4 223f 32a4 5b3f
00000090: c8f9 8d3f 2283 a63f 83bf ba3f 7e03 d73f
000000a0: e863 8e3e 9301 ed3e 360f 303f 1093 653f
000000b0: 9796 903f 5ae7 aa3f aa73 c63f b3c7 d33f
000000c0: 3798 713e 2b66 ec3e bea8 2c3f 5de8 673f
000000d0: 6b21 923f 245a af3f 89ff c03f c4d0 dc3f
000000e0: 6e06 8b3e 75e0 f73e 5423 2c3f c1d6 623f
000000f0: 97f7 8c3f c094 a53f 1bf5 bd3f 9dd3 d63f
00000100: 66f4 853e caac f43e 611d 3c3f ffbd 673f
00000110: a725 863f 430b 9d3f a8ac b93f 5420 d23f
00000120: ce48 8e3e e13b fb3e a090 2d3f ec18 663f
00000130: 4e70 923f b6f3 ac3f ed97 c73f b4d1 da3f
00000140: b3be 4e3e ee51 fd3e 5a96 383f 40a1 5f3f
00000150: 19ed 853f 5222 a23f 88fc b33f b725 cd3f
00000160: 00c6 983e 4299 df3e 1e35 273f 0076 713f
00000170: 5391 973f c37c ac3f c85e ba3f 6b1a d43f
00000180: a1fe 9d3e 30f1 033f b5b0 1d3f df4c 5d3f
00000190: ec95 8e3f 1bfa ac3f f591 c13f 5b28 d53f
000001a0: 571a a33e 0265 ec3e 256c 233f f699 633f
000001b0: 8c90 8c3f 803a ac3f 20b6 c13f 2877 da3f
000001c0: f0ae 823e e5f8 e53e 5ca5 373f 7950 6d3f
000001d0: 8b61 8d3f 9bd2 a03f 1028 b63f c2a2 d13f
000001e0: c774 863e 0c48 d73e 62b1 293f 0c95 673f
000001f0: ef16 8a3f c729 a53f 65dc b63f 4035 ce3f
00000200: 50bd 803e cb02 fd3e 05c4 2f3f 61a3 6a3f
00000210: 42b5 8f3f 2a34 a63f c8c9 bc3f 9718 d43f
00000220: 481d 4c3e 9b83 f63e 09d6 283f 2542 5b3f
00000230: 4290 8e3f 5be7 a23f 5618 b93f 5563 da3f
00000240: b802 893e 8377 e93e c259 2c3f 8e34 613f
00000250: dc3a 8d3f 5f74 a73f a24f be3f 3716 db3f
00000260: ebc3 873e 30c4 e33e 0bec 223f 77b0 633f
00000270: a07d 8f3f b27c a73f ca5c b83f ebaa cf3f
00000280: 6a25 903e 1a4e e23e 168b 273f 2a84 643f
00000290: b1c5 923f a717 ae3f e8a1 c13f 553f df3f
000002a0: dd7c 913e eb33 d83e 5cd4 233f 9191 693f
000002b0: a131 8c3f 29f9 a93f 98a6 b83f f20d d43f
000002c0: 0cda 973e ae1f f03e 8a3c 393f 4fb4 763f
000002d0: c420 973f 38c1 b13f bded c03f 520a da3f
000002e0: 159a 8b3e ed2e 0a3f e183 3f3f 610c 693f
000002f0: 6a2c 8c3f f388 a33f e161 ba3f 870d d43f
00000300: 0d0f 803e 8f26 e73e 98d6 2d3f 7058 613f
00000310: c5ee 8d3f 848d a63f 1234 bc3f bad1 d83f
00000320: 91db 6e3e 0e5c e33e fb31 2c3f 6054 673f
00000330: a618 8e3f 5831 a23f eada b63f c18d cc3f
00000340: 3176 723e 8360 e23e 6fd3 313f e00f 653f
00000350: e3d2 8b3f 856d 993f 2150 b23f 901b c93f
00000360: 0f4e 513e 4209 e03e 1c32 263f 0900 5c3f
00000370: ae55 8b3f c5de a73f bb08 c13f 58f0 db3f
00000380: 85e5 873e 0dc0 e33e a3b3 2c3f 4c0c 6f3f
00000390: 1a24 913f 0852 a53f 11aa bd3f 15bb d43f
000003a0: d9cc 973e 0aea e53e 607a 2f3f 7d9f 6d3f
000003b0: 04d1 8c3f 4aa2 a43f dbd8 c03f a0d4 d73f
000003c0: 757d 8d3e 5e85 e63e 446b 243f aeb5 683f
000003d0: 86c4 8c3f 9a0c aa3f b7d0 c33f 77bb d33f
000003e0: 071b 8e3e c109 e33e d09d 253f a107 633f
000003f0: f41e 8d3f dada a53f 782e c33f 8143 d83f

k1.rk_layers.0.equal_size_conv.weight f4 [10, 1, 8, 128]
0.022405962 0.06461474 0.014525316 -0.059033018 -0.069364935 -0.13442564 -0.16282116 -0.1823713
-0.024468593 -0.03625795 -0.094399884 -0.067706354 -0.08046795 -0.11085856 -0.06411557 -0.11231578
0.076320514 0.054121383 0.0034765173 -0.095119484 -0.11032049 -0.14248122 -0.1633005 -0.11704145
0.03250541 0.02396339 -0.044729613 -0.09998151 -0.11847994 -0.1960008 -0.25602588 -0.20919065
-0.061208867 -0.026136171 0.002868097 -0.0047788112 0.023791881 -0.05435308 -0.051938977 -0.09164238
-0.03896314 -0.05984893 -0.09548385 -0.024744838 -0.003539576 0.01821567 -0.027515074 0.035069246
-0.019998942 -0.00051358435 -0.00030840514 -0.040520504 -0.13146017 -0.1834265 -0.1671035 -0.22590101
0.028902506 -0.010798935 -0.036942873 -0.035291772 -0.098449685 -0.12068728 -0.13476284 -0.23284712
-0.039363656 0.020678563 0.07984805 0.05434444 -9.819807e-05 -0.05422393 -0.033995725 -0.09141297
-0.066131994 -0.029828742 -0.034040317 0.06610698 0.079625785 0.08460464 0.091568604 0.0854473
-0.010046659 -0.06182852 -0.06397287 -0.049613986 -0.0718189 -0.10866681 -0.11072731 -0.07570455
-0.010053937 0.014928074 0.012739596 0.0066218125 -0.101957574 -0.11067605 -0.141724 -0.081441745
-0.053079307 -0.061494008 -0.038333528 -0.0004051448 -0.013090094 -0.0007837497 -0.031002577 -0.07624999
0.039316773 0.01688931 -0.047033843 -0.06295071 -0.04663982 -0.04728451 -0.03454593 0.019895488
-0.09525379 0.002823071 0.04055099 0.06607639 0.053049143 0.071443304 0.014835315 0.033236317
-0.084303625 -0.020426586 0.021159604 0.041946407 0.064730145 0.028339654 3.6209312e-05 0.0012714945
-0.040736288 -0.03373333 0.016670156 -0.01310582 0.0036682195 -0.08912445 -0.17537215 -0.27305365
-0.07164928 -0.021045743 0.0019532845 0.07213687 0.064210065 0.048478182 -0.013885337 -0.04502316
0.017580457 -0.04465866 -0.07993636 -0.062378965 0.011846184 0.041401777 0.038970884 -0.0030775699
-0.035921603 0.029675985 0.013938476 0.021312328 0.009750381 -0.012674232 -0.038246818 -0.038668223
-0.03802511 -0.021686215 -0.031328592 0.0019120462 -0.07211577 -0.15266016 -0.097182296 -0.16050412
-0.017750554 0.016502226 -0.0108947195 -0.07611447 -0.13099173 -0.2018421 -0.1441019 -0.1136573
0.0078456495 0.019485053 -0.008845144 -0.08551349 -0.12935583 -0.23654109 -0.20339833 -0.2589261
-0.03268247 0.043799635 0.10246091 0.10077755 0.05873762 -0.00043294913 0.03159528 -0.016863504
-0.06640084 -0.06081341 -0.027349599 -0.0013346532 0.068428755 0.09372701 0.07508253 0.04761205
-0.036479224 0.0028547917 0.02973091 -0.0018158873 -0.017683044 -0.0011313582 -0.018192653 -0.048353866
-0.007856971 0.010675012 0.026806634 -0.0046001705 0.061482243 0.01595689 0.03411332 -0.05004241
-0.015935404 0.016056392 0.0502448 0.023266856 -0.025204537 -0.047027223 -0.021602629 -0.019289939
0.04862298 0.053203274 -0.024834866 -0.060912095 -0.095679335 -0.15210792 -0.2597127 -0.36557278
-0.04367392 0.011029659 0.016859476 -0.014180981 -0.03735063 -0.050573222 -0.07454095 -0.061770834
-0.08867471 -0.026558314 -0.007887865 -0.00039293684 0.04184783 0.045112453 0.050881166 0.028894072
0.041676387 0.023876738 -0.066891514 -0.016204396 -0.004753776 -0.04111406 -0.11109426 -0.1288312
00000000: b58c b73c bc54 843d 97fb 6d3c 9bcc 71bd
00000010: 340f 8ebd e0a6 09be 97ba 26be 8bbf 3abe
00000020: 5c72 c8bc 3783 14bd ba54 c1bd a1a9 8abd
00000030: 61cc a4bd d009 e3bd 064f 83bd d105 e6bd
00000040: ee4d 9c3d 62ae 5d3d 48d6 633b 01ce c2bd
00000050: b6ef e1bd 99e6 11be 3f38 27be 6eb3 efbd
00000060: 6524 053d df4e c43c 6636 37bd 1bc3 ccbd
00000070: 9ca5 f2bd 6fb4 48be d315 83be 1336 56be
00000080: 26b6 7abd 861b d6bc aff6 3b3b 9397 9cbb
00000090: 31e7 c23c 56a1 5ebd f7bd 54bd 00af bbbd
000000a0: d097 1fbd 2724 75bd 098d c3bd b0b5 cabc
000000b0: 3bf8 67bb 0739 953c 4b67 e1bc c5a4 0f3d
000000c0: d2d4 a3bc 10a2 06ba 70b1 a1b9 d4f8 25bd
000000d0: 7f9d 06be 28d4 3bbe 2e1d 2bbe 9852 67be
000000e0: f3c4 ec3c 04ee 30bc 6951 17bd 1b8e 10bd
000000f0: fd9f c9bd e52a f7bd 45ff 09be 7a6f 6ebe
00000100: c93b 21bd 1766 a93c 6087 a33d 4798 5e3d
00000110: b0ef cdb8 e919 5ebd 1a3f 0bbd b936 bbbd
00000120: 3670 87bd 685b f4bc dc6d 0bbd 1963 873d
00000130: d812 a33d 3345 ad3d 5288 bb3d fefe ae3d
00000140: be9a 24bc e73f 7dbd 3504 83bd 0938 4bbd
00000150: ca15 93bd b48c debd 00c5 e2bd fd0a 9bbd
00000160: 45b9 24bc e194 743c bdb9 503c cafb d83b
00000170: 22cf d0bd 20aa e2bd 1920 11be eeca a6bd
00000180: b069 59bd 24e1 7bbd 9e03 1dbd 9d69 d4b9
00000190: d577 56bc 8d74 4dba 1ef9 fdbc f428 9cbd
000001a0: a00a 213d 735b 8a3c 8fa6 40bd 4dec 80bd
000001b0: 6509 3fbd 67ad 41bd 0880 0dbd ddfb a23c
000001c0: 6b14 c3bd 4603 393b cb18 263d 0f53 873d
000001d0: 0f4a 593d de50 923d d20f 733c ce22 083d
000001e0: 61a7 acbd a855 a7bc e856 ad3c ffcf 2b3d
000001f0: 3d91 843d 9028 e83c 74df 1738 47a8 a63a
00000200: 18db 26bd f62b 0abd da8f 883c cbb9 56bc
00000210: 8366 703b e186 b6bd c294 33be b0cd 8bbe
00000220: dcbc 92bd 1f68 acbc ad02 003b 7fbc 933d
00000230: 9180 833d 0f91 463d 537f 63bc 346a 38bd
00000240: e404 903c 00ec 36bd adb5 a3bd 1681 7fbd
00000250: 7f16 423c e994 293d ef9f 1f3d 0eb1 49bb
00000260: 8822 13bd 0d1b f33c 355e 643c 3197 ae3c
00000270: 10c0 1f3c 95a7 4fbc b2a8 1cbd 9262 1ebd
00000280: 38c0 1bbd 4aa7 b1bc 6952 00bd a09d fa3a
00000290: 6fb1 93bd f252 1cbe 8307 c7bd 315b 24be
000002a0: 9c69 91bc ad2f 873c c47f 32bc e7e1 9bbd
000002b0: b222 06be b2af 4ebe 738f 13be 29c5 e8bd
000002c0: 0a8b 003c 1e9f 9f3c 39eb 10bc b221 afbd
000002d0: db75 04be d437 72be a747 50be f691 84be
000002e0: 0ede 05bd 3f67 333d 07d7 d13d 7664 ce3d
000002f0: dc96 703d 73fd e2b9 0d6a 013d 5525 8abc
00000300: 2afd 87bd 7b17 79bd 440c e0bc 88ef aeba
00000310: 6024 8c3d f2f3 bf3d dfc4 993d da04 433d
00000320: 3d6b 15bd 7517 3b3b 3d8e f33c 1103 eeba
00000330: 08dc 90bc 154a 94ba c208 95bc b40e 46bd
00000340: 86ba 00bc 3fe6 2e3c 9699 db3c 07bd 96bb
00000350: ced4 7b3d 06b8 823c 69ba 0b3d 45f9 4cbd
00000360: f78a 82bc b288 833c 7ecd 4d3d 229a be3c
00000370: bf79 cebc 9e9f 40bd fff7 b0bc ef05 9ebc
00000380: e428 473d adeb 593d 7d72 cbbc f67e 79bd
00000390: 87f3 c3bd 2ec2 1bbe 10f9 84be 5b2c bbbe
000003a0: 6de3 32bd beb5 343c e21c 8a3c 5857 68bc
000003b0: f9fc 18bd de25 4fbd eda8 98bd 6a03 7dbd
000003c0: 169b b5bd d290 d9bc 1b3c 01bc 1703 ceb9
000003d0: a168 2b3d d6c7 383d c568 503d 43b3 ec3c
000003e0: dcb4 2a3d 2699 c33c 6bfe 88bd 15bf 84bc
000003f0: 90c5 9bbb 3767 28bd 6385 e3bd 53ec 03be

k1.rk_layers.0.equal_size_conv.bias f4 [10]
0.0047974647 0.007445207 0.014282328 -0.016056364 -0.023424596 -0.022265483 0.021213392 0.0027948539
0.021567207 -0.02431488
00000000: 0d34 9d3b ecf6 f33b 6d00 6a3c a388 83bc
00000010: f0e4 bfbc 1a66 b6bc b5c7 ad3c de29 373b
00000020: b6ad b03c 0030 c7bc
