trained/CNN_MLP.pth (torch, 830464 bytes, 8 tensors)

conv1.weight f4 [16, 1, 3, 3]
000000 f8 da cf 3e 09 38 d5 3e 7b 94 25 be 8b 3b 2f be
       0.40596747 0.41644314 -0.16169922 -0.17112558
000010 99 28 88 3e 68 78 f0 bd d6 aa b5 be 8b 19 d5 be
       0.26593474 -0.11741716 -0.354819 -0.4162105
000020 53 c1 6c 3e ae a4 e1 bd 28 52 06 bd 5e 54 3b 3c
       0.23120622 -0.11017738 -0.032793194 0.011433689
000030 10 7b ae 3d 9d f5 9e be 08 ce e2 3e 7b 7e bd 3e
       0.08519566 -0.31046763 0.44297814 0.3701056
000040 15 47 85 be b0 48 d2 bd 1b 92 ca 3e b4 e1 8b bb
       -0.26030794 -0.1026777 0.39564595 -0.0042688493
000050 d9 08 c7 bb 25 ca da 3e fe 27 ad 3e 7f 95 f2 3e
       -0.006074053 0.4273235 0.33819574 0.4737968
000060 46 ea 8d 3e e2 9c 9c 3e 23 ed 31 3d 03 d0 94 bd
       0.277178 0.30588442 0.04343904 -0.072662376
000070 cb be 9e be c6 c8 b7 3e 62 23 43 be bd 58 e8 3e
       -0.31004938 0.35895365 -0.19056466 0.45380202
000080 59 d3 43 3d 57 19 7c 3e 16 f2 98 3e ad 2c db be
       0.04780898 0.24619041 0.29872197 -0.42807522
000090 60 00 bf 3e 04 90 a9 3e 92 23 32 be d6 5d 9a be
       0.37304974 0.33117688 -0.17396381 -0.30149716
0000a0 48 87 82 3d ff f6 b5 be b9 05 0b be fb d9 c4 3e
       0.06373459 -0.35540006 -0.13576402 0.38447556
0000b0 29 84 2a 3d 35 b6 b8 be 3f 97 24 3d 10 03 8d 3e
       0.041629944 -0.36076513 0.040183302 0.275414
0000c0 5d d8 f2 be e8 e9 84 3e 5e 6d c7 3e ef 9d ea bd
       -0.47430697 0.25959706 0.38950628 -0.11455905
0000d0 91 4e 4a 3d 0c 61 60 3e fd d9 37 3e b3 49 02 3f
       0.049391333 0.2191202 0.1795425 0.50893706
0000e0 9f e1 32 3e 28 5d 5f be d9 b9 6d bd d9 b1 9b be
       0.1746888 -0.2181288 -0.058038566 -0.30409124
0000f0 bd 7b 9c be 88 5b ad be 84 14 3b 3e ef 9d 0c 3d
       -0.30563155 -0.33858895 0.18269545 0.034330305
000100 9d ed 9a be 42 9a 6f be b7 c0 6a be 73 61 38 3e
       -0.3025941 -0.23398688 -0.22925077 0.18005924
000110 81 ee 6b be d8 c7 eb 3d 6a fd ee 39 f1 e3 24 be
       -0.23040201 0.115127265 0.00045583706 -0.16102578
000120 fa 16 74 bd 0d dd 9f bd 75 a9 74 3d c6 54 84 3e
       -0.059592225 -0.07805834 0.05973192 0.25845927
000130 1a 63 7a 3c dc 70 90 be 82 44 fa 3e 8f eb 8e be
       0.015282417 -0.28211105 0.48880392 -0.27914092
000140 46 b3 78 be 90 52 ff be 8a 84 33 be 7d 55 d0 be
       -0.24287137 -0.49867678 -0.17531028 -0.40690222
000150 2c 05 06 3e 0c 9b c4 3e 54 9e 0d 3e 2d b1 75 3e
       0.1308791 0.3839954 0.13829929 0.23993368
000160 c8 71 b5 bd 55 84 12 3e 4b bb 98 be 2f e2 f2 bd
       -0.08859593 0.14308293 -0.29830393 -0.11859547
000170 98 65 3e be 26 fa 00 be 0e dd b3 be 79 7b cd be
       -0.18593442 -0.12595424 -0.3512959 -0.40133265
000180 fb e9 ba be a7 71 ec 3d 67 bf 8f be 60 60 d7 3e
       -0.36506638 0.11545115 -0.28075716 0.42065716
000190 e1 57 a1 3e af 2c db 3e bf a4 21 3e cc fa a8 bd
       0.3151236 0.42807528 0.15785502 -0.08250961
0001a0 48 3f e3 bd a2 4e 22 3e 23 15 16 3e 00 88 9a be
       -0.11096054 0.15850309 0.146565 -0.30181885
0001b0 2e 3c 32 3e 40 e6 ca 3d 9e cf 0b 3e 16 c0 cb be
       0.17405769 0.09907198 0.13653418 -0.39794987
0001c0 00 9e 35 3e 7d de cd 3e d2 18 c3 be 10 cd cd be
       0.17736053 0.40208808 -0.38104874 -0.40195513
0001d0 b7 b2 d0 3e c4 e6 41 bd e7 53 df 3c d2 7f 5a be
       0.4076135 -0.047339216 0.027261687 -0.21337822
0001e0 6d 29 63 be e7 42 14 3e 4a a8 b3 be 81 e7 8f 3d
       -0.22183771 0.14478646 -0.35089332 0.07026578
0001f0 04 0b 93 be 54 be 20 be 7f 08 b1 3e df e2 eb 3d
       -0.28719342 -0.15697604 0.34576795 0.115178816
000200 21 46 d1 be 03 95 8e 3e 35 7c 67 3d a0 50 a6 be
       -0.40873817 0.27848062 0.056514937 -0.32483387
000210 1b bf 0f be 00 be c1 3e 34 b0 ee bd 57 ac 42 be
       -0.14037745 0.3784027 -0.11654702 -0.19011055
000220 bb f8 bd be 35 c8 e6 3c 76 6c ba be 69 da 91 be
       -0.3710383 0.028171638 -0.36410874 -0.28486946
000230 e8 01 ba be df 5c 1e be 90 f7 a2 be ec ee 44 3e
       -0.3632958 -0.15465115 -0.318295 0.19231766

conv1.bias f4 [16]
000000 77 e1 d0 bd 3c 4c 97 3e 27 b5 a9 3e ef 6c d6 3e
       -0.10199254 0.2955035 0.3314602 0.41879985
000010 15 4e 71 3e 9a 0b 1c be bc fd 3d be 53 8e ad 3b
       0.23564942 -0.152388 -0.18553823 0.0052965074
000020 bf 4f ff bd b0 73 18 be 50 64 a9 3e e6 bd 06 3e
       -0.12466382 -0.14887881 0.33084345 0.13158378
000030 cf 5d 39 be 05 98 17 3e ee c5 39 3e f7 5a 1a 3e
       -0.18102191 0.14804085 0.1814191 0.15073763

conv2.weight f4 [32, 16, 3, 3]
000000 22 6a 64 bd 3e 4c 9e bd 11 25 c3 bd 8f 4e d0 bd
       -0.05576528 -0.07729386 -0.09528554 -0.10171234
000010 60 40 35 be f2 a4 09 bd 19 4a 0f 3e 17 a4 42 3d
       -0.17700338 -0.03360457 0.1399311 0.04751977
000020 b9 c3 29 3e a5 37 e8 3c 9f d3 a9 bd e5 e8 a5 bd
       0.16578569 0.028346846 -0.08292317 -0.08101062
000030 73 35 05 3d d3 31 bd 3b 14 5f f9 3b 1e bc 62 3d
       0.032521676 0.005773762 0.007610211 0.055355184
000040 fe 80 4a 3d 1f 15 3b 3d f4 2a ab 3d bb 63 f8 3b
       0.049439423 0.04567444 0.08357802 0.007580248
000050 0e 62 c4 3c 60 e8 b2 3c a3 7b d3 3d 7e b0 b9 3d
       0.023972537 0.02183932 0.10326316 0.09066866
000060 21 13 9c 3d 54 5a 9f 3d 91 25 e7 3d 92 89 12 3c
       0.07620836 0.077809006 0.11286462 0.008943932
000070 b3 58 63 bd 37 db 16 bd 49 95 9f 3d fe 59 1e bc
       -0.055504512 -0.036830153 0.07792146 -0.0096650105
000080 b3 0e 95 b9 2f 61 81 bd 41 1f 84 bd f1 cf 84 bd
       -0.00028430446 -0.063173644 -0.06451274 -0.06484974
000090 02 b4 ae bc 36 04 56 bd b9 b4 92 3c 4b 79 0b 3d
       -0.021326069 -0.05225011 0.01790844 0.03405122
0000a0 da c0 8f 3c 38 a9 6b bd 02 23 b3 3d 5f 3e e5 3d
       0.017548013 -0.057534426 0.087469116 0.11193537
0000b0 f6 de d7 3c 9b c5 2f 3d 74 a1 d5 bd 89 2f 15 bc
       0.026351433 0.04291306 -0.10431185 -0.009105572
0000c0 18 a5 80 bd ac 17 28 bc 77 61 61 bd 7c 7e 8c 3d
       -0.06281489 -0.01025955 -0.05502459 0.068600625
0000d0 53 4f 06 3d 69 0d 45 bd 3d dd f1 bd 8d 6b e6 bd
       0.032790493 -0.048108492 -0.11809776 -0.112509824
0000e0 f6 64 e1 bd 9e c0 38 be de b4 03 be 94 0f 39 be
       -0.11005585 -0.18042228 -0.12861964 -0.18072349
0000f0 a5 e5 1b 3e 28 06 5b 3e 9b 00 f2 3d 4b a1 8e 3d
       0.15224321 0.21389067 0.11816522 0.06964358
000100 3b e3 94 bd fc 88 b3 3c ae 1f 71 3d 4e 5f 6a bc
       -0.07269903 0.021915905 0.058868103 -0.014304949
000110 48 a6 80 bd c8 a7 47 3d ba 97 83 3d 78 80 33 bd
       -0.06281716 0.048743993 0.06425424 -0.04382369
000120 1f bd 0b be 21 b6 0a bd 28 6c b0 bc 54 63 76 bd
       -0.13646363 -0.033865098 -0.021535948 -0.06015332
000130 40 a3 88 bd 15 eb 7b 3d 28 70 21 be 19 50 35 be
       -0.066717625 0.06150349 -0.1576544 -0.17706336
000140 5f d8 9c ba eb 29 bb 3b 63 51 48 3c ce e5 6e bc
       -0.0011966339 0.005711784 0.012226435 -0.014581157
000150 94 f4 e1 bc be 2d 60 3d 0e 72 c6 3d 0e 11 40 3d
       -0.027582444 0.054731123 0.09689723 0.046891265
000160 8a 34 90 3d 8f c0 9b 3b 27 8a 97 bd a9 11 7e 3c
       0.07041271 0.0047531794 -0.07399397 0.01550714
000170 5d f6 a6 3c 9a bb 48 bd 29 38 44 3b 16 19 df 3c
       0.020381147 -0.049007036 0.00299407 0.027233642
000180 2d a1 57 bc 1f 89 02 3c 2b 6a 28 3d 80 23 7f bd
       -0.013160986 0.0079672625 0.041116875 -0.062289715
000190 07 83 0d bd 3c 8b 81 3c de f3 d0 bc 25 4b 8c bc
       -0.034548786 0.015813462 -0.02550691 -0.017125675
0001a0 aa f9 b2 3d 4e ec 4b bd a7 7a 09 bd ac cc 33 bc
       0.08739026 -0.049785905 -0.033564236 -0.010974091
0001b0 52 ea 84 bc 28 06 03 be 1c 2f b5 bc 55 49 a4 bd
       -0.016225014 -0.12795317 -0.02211719 -0.080217995
0001c0 82 64 59 bd 0d 70 cb 3c be 9c 00 3e 67 53 4c bc
       -0.053074367 0.024833703 0.12559792 -0.012471057
0001d0 dc 29 6a bc 88 87 1a 3d 93 61 8e bd 34 4f 8b bc
       -0.014292207 0.03772691 -0.069522046 -0.01700554
0001e0 98 ed ee 3b c0 94 30 3c d0 b8 01 3d 9c cd 23 3c
       0.007291507 0.010777652 0.03167039 0.009997752
0001f0 a2 07 67 3d 23 bc e4 3c 49 d5 c1 bd c4 b5 0f 3d
       0.056403764 0.027921742 -0.09464509 0.035085455
000200 d0 f0 b0 3b d4 8a 9e 3b 34 00 74 bd 50 09 0c bd
       0.005399801 0.004838327 -0.059570506 -0.03418857
000210 6b 63 cb bc 2e d5 98 3d ef a0 66 bc d4 d6 c2 3b
       -0.02482768 0.07462536 -0.0140764555 0.0059460197
000220 f8 6f 1e 3d 2d 2b 42 bc 61 1d dd 3b f5 b4 76 bd
       0.038681 -0.011851114 0.006747887 -0.060231168
000230 be f9 40 bd 1f 12 7d bd c5 db ea bc 13 72 ab 3d
       -0.047113173 -0.06178486 -0.028669247 0.08371367
000240 8b 5a 27 be b9 7b 25 be 64 8e 80 3d b5 0f 85 3d
       -0.16343133 -0.16160478 0.06277159 0.064971365
000250 0b fb 63 bd 4f 34 44 bc e5 aa 06 3e 6e 78 9e bd
       -0.055659335 -0.011975362 0.13151129 -0.07737814
000260 ae 28 7a 3d a2 45 a0 bd 12 ba 83 3d bc 70 8b 3d
       0.06107395 -0.078257814 0.064319745 0.06808612
000270 31 11 99 3d 99 72 d2 bc c9 39 9d bd 09 ae 23 3d
       0.07473982 -0.02568941 -0.07677037 0.039960895
000280 d3 d4 ad 3c dc 0e 48 3d 6a cc 1b 3c 40 5d 62 bc
       0.021219647 0.048842296 0.009509185 -0.013816178
000290 74 da b3 3d b2 e8 4a 3c 30 4d b5 3c 7d bc b4 bc
       0.08781901 0.01238458 0.022131532 -0.022062534
0002a0 cc 0d ba bc 15 d2 8a bd 33 8d 57 bb 6c b4 d0 3c
       -0.022711657 -0.06778351 -0.0032890558 0.025476657
0002b0 0a ac f4 3d cd 95 40 3e c2 5c fe 3d 5d 79 ba 3d
       0.11946876 0.18807144 0.12420036 0.091051795
0002c0 e3 4b 90 3d 31 dc e8 3d 6b 86 58 3d 3c b6 f0 3b
       0.07045724 0.11370123 0.052862566 0.007345943
0002d0 40 4b 01 be ea 95 d6 bd 0e e8 73 bc 87 f4 e1 3d
       -0.12626362 -0.104778126 -0.014886869 0.11032968
0002e0 fe d9 73 3d 0c cd 71 3c 00 74 55 3b a4 e8 d5 3d
       0.059534065 0.01475836 0.0032570362 0.10444763
0002f0 a1 c9 23 3c e9 8c 12 bd 18 bd a1 3c f2 ce 17 3b
       0.009996803 -0.035778914 0.019743487 0.002316412
000300 ef c3 92 3d da 0a fc 3d 54 c7 19 3c 64 26 2c 3d
       0.071662776 0.12306757 0.009385902 0.0420288
000310 f1 fa 79 3d 9d 8c fa bd 60 5d ec bd 86 fc a1 bd
       0.061030332 -0.12233851 -0.11541247 -0.07909493
000320 f2 f9 85 3d 1f e6 d4 3d db e4 d5 bd df a0 9a bd
       0.06541814 0.103954546 -0.10444041 -0.07550215
000330 1a 9f 1e 3c 32 10 26 be 63 67 54 bc 90 c2 6e 3d
       0.009681487 -0.16217116 -0.012964102 0.058291018
000340 f5 84 f6 bd 1a c6 b1 bd 79 e2 d7 3c f8 95 32 bc
       -0.12037078 -0.08680363 0.026353108 -0.010900013
000350 0e 57 84 3c b8 92 e9 bc a1 c0 70 bd e5 ba 1b 3d
       0.016154792 -0.028512344 -0.058777455 0.038020033
000360 a8 14 0c be d1 03 19 be aa 0c a4 3d 1c 50 0d b9
       -0.13679755 -0.14942862 0.08010228 -0.00013476651
000370 8b 9e ab bc 9c ba f5 3d c8 ea 1a 3d 86 c6 32 3e
       -0.020949623 0.119984835 0.03782156 0.17458543
000380 70 7d d2 3d e2 3d 4d 3c 56 e3 4d 3d 61 46 2f 3b
       0.102778316 0.012526961 0.050265633 0.002674483
000390 bc c5 0e bd 08 59 e3 bd 5d b5 b2 bd db bc d0 bc
       -0.034856543 -0.11100966 -0.087259986 -0.025480678
0003a0 89 87 69 bd 04 48 e5 bd 20 24 bb 3d da ef 9f bd
       -0.057014022 -0.111953765 0.0913775 -0.0780942
0003b0 25 aa 63 bd 6a 57 3d bd 92 2e 03 be 83 d6 68 3d
       -0.055582184 -0.046225943 -0.12810734 0.0568452
0003c0 85 59 ab bc dd 12 d7 bc e8 7a 93 3d e6 c3 e6 bd
       -0.02091671 -0.026254112 0.07201177 -0.112678334
0003d0 2d a7 98 3d 9b f2 88 3d 86 56 5c 3d 92 11 a2 3d
       0.07453761 0.06686898 0.053793453 0.079135075
0003e0 c0 ca 9d bb 28 7c a4 3c e4 61 ef 3d b6 cb 8a bc
       -0.0048154294 0.020078734 0.11688593 -0.01694284
0003f0 b9 40 ff bd 6c a8 f1 bc 34 b6 14 be cd 34 bd bd
       -0.12463517 -0.029499255 -0.1452263 -0.092385866

conv2.bias f4 [32]
000000 36 c2 18 bd fc 2f 15 3b 55 ab 1c bd 8d 4d 83 bd
       -0.03729459 0.0022764197 -0.038249332 -0.06411276
000010 64 7c 06 3d f0 44 3b 3c e9 36 d9 bb 52 05 8c bd
       0.032833472 0.01143001 -0.0066288603 -0.06836952
000020 ff 9c 1c bc 7a 03 00 3b 2a af 6c bd ed 53 18 bd
       -0.009558915 0.0019533322 -0.057784237 -0.037189413
000030 e4 76 17 bd d5 b4 99 3d ce 8a 11 bd 89 0e c1 bc
       -0.036978617 0.07505194 -0.035532765 -0.023566501
000040 3b dd 23 bc 86 d9 df 3c f9 8d a6 3c c7 68 c9 3c
       -0.010001476 0.027325403 0.02033137 0.024586095
000050 d8 6b fb bc 14 9c 84 bd df b1 83 3b 52 99 89 3c
       -0.030691072 -0.06475082 0.0040190066 0.016796742
000060 a3 87 ed bc a6 73 2f bc d5 f2 0a bd c2 b3 5e 3d
       -0.02899534 -0.010708725 -0.03392299 0.05437065
000070 0c 15 58 bd fb 1b 5c 3d 5c e6 95 bd 00 88 84 bd
       -0.052754447 0.05373762 -0.07319328 -0.064712524

fc1.weight f4 [128, 1568]
000000 71 1d c5 bc e9 46 a9 bb 73 1a f2 ba be da 08 3d
       -0.02406189 -0.005165924 -0.0018471017 0.033411734
000010 98 7a e3 3c ce ae 47 3d 2e d8 d8 3c a4 37 c6 bc
       0.027768418 0.04875069 0.02647027 -0.024196453
000020 3c 44 b1 3c c8 18 97 3c a4 74 0e bc 11 bb f8 bc
       0.021638982 0.018444434 -0.0086948015 -0.030362638
000030 3a 3d dc bc a4 82 89 3d 26 58 7d bb b3 46 00 bd
       -0.026884664 0.06714371 -0.0038657277 -0.031317424
000040 03 31 08 bd f6 ef e2 3b c3 81 72 3c a0 cd 17 bb
       -0.033249866 0.006925578 0.014801445 -0.0023163334
000050 a8 36 44 3d 1e 37 b1 bc 4e 5c a6 3b 8e 98 c8 bc
       0.047903687 -0.021632727 0.0050769215 -0.024486806
000060 79 e4 e9 3a 5c 17 ba bc 1f 3f f4 bc c3 f0 0a 3b
       0.0017844579 -0.022716217 -0.029815255 0.0021200634
000070 d2 ff 71 bc cc 79 e2 3b 80 8a 0e bd 33 69 c3 bb
       -0.014770465 0.006911492 -0.034800053 -0.0059634685
000080 0d 2e 46 bb dc 79 61 bd 30 4f 10 bd 48 25 b3 bb
       -0.003023985 -0.055047855 -0.03523177 -0.0054670908
000090 c5 68 01 3c e0 3b 6c 3c f1 9e fa 3c 1e 16 ee 3b
       0.007898514 0.014418572 0.030593367 0.00726582
0000a0 6a 56 a4 bc fc 46 91 bd 34 3c b5 3a 04 16 a2 3c
       -0.020060737 -0.07093617 0.0013827146 0.019785888
0000b0 21 9f c0 3c 0d 89 13 3d d1 bb 55 3d 5a 84 2b 3c
       0.023513379 0.036019374 0.05218107 0.010468567
0000c0 f1 46 92 3c d4 9b 39 3c 0c 09 bc 3b 1e ee 2d 3c
       0.017856093 0.011328656 0.005738383 0.010615854
0000d0 36 14 11 3c 45 50 5a 3b 72 e4 1a 3c 26 90 af bc
       0.008854916 0.0033312005 0.00945388 -0.02143104
0000e0 a6 9f f8 bc 34 56 93 3c 8c 86 1c bd 7a 40 77 3d
       -0.030349564 0.01798544 -0.03821425 0.060364224
0000f0 06 59 06 3d 50 1b 5d bc f6 dd 66 bc c9 85 df 3c
       0.032799743 -0.013495281 -0.014091006 0.027285473
000100 0c 7c 74 3c 3d f9 dd bc 04 6e e1 3b 7b 4d 3d 3c
       0.014922153 -0.027096385 0.00687957 0.011554117
000110 2f b8 d7 bc f8 e8 9b bc a2 54 90 bd 68 c9 29 bd
       -0.026332943 -0.019031987 -0.070473924 -0.04145184
000120 44 f0 41 3c d7 0a 88 3c 51 97 e3 bb ab 5a 1f bd
       0.011837069 0.016606731 -0.0069455286 -0.038904827
000130 57 1a b0 3b e1 d7 1b bd 57 01 bd bc ac 0c 2f 3c
       0.0053742337 -0.038047675 -0.023071928 0.010684174
000140 bd e4 44 bd 06 57 58 bd f2 1f 2d bd 6f da ac bc
       -0.048069704 -0.052817367 -0.042266794 -0.021100251
000150 86 86 74 bd f8 9c 22 bc f1 6b 05 ba dc c9 ec bb
       -0.059698604 -0.00992512 -0.0005089632 -0.007226212
000160 12 25 92 bc 37 f8 16 3d 31 88 14 bd e0 7b 86 3c
       -0.017839942 0.03685781 -0.036262695 0.01641649
000170 1a c5 5e bd f4 bc df bc 5e df 56 3c 91 b8 ed 3c
       -0.05438719 -0.02731178 0.013114778 0.029018672
000180 4c 68 51 3d 4e ae 95 bc da bf 30 bd 81 62 77 3c
       0.051124856 -0.018271592 -0.043151714 0.015099169
000190 90 2d 50 bc b7 13 65 3d 4a 08 77 3c ed 3c 53 3b
       -0.012706175 0.055927005 0.01507766 0.003223236
0001a0 54 7a 93 3b c1 fc 13 bc 1e 76 65 ba 33 c3 8f bc
       0.0045006666 -0.009032429 -0.00087532576 -0.017549133
0001b0 ff 10 1c bd 8a a4 20 3b 16 2f 89 3b 64 9e df 3c
       -0.038102146 0.0024512135 0.0041865213 0.027297206
0001c0 1b 15 65 3c 9c 67 d3 bc 47 8d e9 bc 01 93 f1 3b
       0.013982083 -0.02580624 -0.02850975 0.0073722606
0001d0 3e 46 25 3d 73 d2 bb bb fb 45 5e 3c b8 44 b3 bc
       0.04035019 -0.0057318746 0.013566489 -0.021883354
0001e0 5e 6a aa 3c 98 21 cb 3c b0 a7 80 bc 26 06 cb bc
       0.020802673 0.024796292 -0.01570496 -0.024783205
0001f0 6f 14 86 bd ff 06 72 bb d8 98 14 bc 7a d9 b9 3c
       -0.06546866 -0.003693044 -0.009069644 0.022686709
000200 99 61 f2 3b 78 71 6a ba b1 21 37 bd 2b cf 91 bb
       0.0073968885 -0.00089433 -0.044709865 -0.004449745
000210 fb 23 65 bc 93 d6 e8 3c eb 04 51 3b df 37 c0 bc
       -0.013985629 0.02842263 0.00318938 -0.023464141
000220 57 3a 51 bc dc 57 76 bd 38 ac 5c 3c d8 d7 c2 3b
       -0.012770257 -0.060142383 0.0134687945 0.0059461407
000230 d1 fc 9d bc 28 a4 02 bd d3 47 20 bd 25 74 3f bc
       -0.019285591 -0.031894833 -0.039130997 -0.011685406
000240 a4 f2 29 bb 20 43 3d bb 20 76 70 3c ea de 60 3c
       -0.0025931979 -0.002887912 0.014676601 0.013725022
000250 25 79 d1 ba 44 c0 76 3d 55 a0 f2 3b 53 0b 17 3d
       -0.0015981538 0.060241953 0.007404367 0.036876034
000260 30 aa 1d bb 14 b0 96 3b 6c 53 32 3b 54 cb 3c bd
       -0.0024057738 0.004598627 0.0027210368 -0.046092346
000270 11 b9 b0 bb 8b 9c a8 ba 27 bd 02 3c 93 44 7d 3b
       -0.0053931554 -0.0012864036 0.007979668 0.003864561
000280 a2 f0 47 bd 10 99 05 3d 65 7f 84 3c be 8a 55 3c
       -0.04881347 0.032616675 0.016174028 0.013033567
000290 92 19 89 3b 80 e5 c0 3b ae a1 de 3b 5a 4a a3 39
       0.0041839564 0.0058867335 0.006794176 0.0003114518
0002a0 9f d6 28 bd 36 72 17 bd 3f 8d 32 3d c2 25 c2 3c
       -0.041220304 -0.036974154 0.043591734 0.023699645
0002b0 8e 46 e3 bb 36 12 03 3c 02 c5 a0 3c f2 3f 7f bd
       -0.006935901 0.007999947 0.01962519 -0.062316842
0002c0 0b 7d 2e 3c 36 6c 3e 3c 3b 00 c6 bc 93 59 56 3c
       0.01064993 0.011622479 -0.024170032 0.01308288
0002d0 41 44 aa 3c fc 25 a7 bc 71 ef 89 bc e9 51 72 bd
       0.0207845 -0.020403855 -0.016837807 -0.059160147
0002e0 3c de 8a bd e7 7f da 3c bf 96 eb 3c 57 28 b6 3d
       -0.06780669 0.026672317 0.028758405 0.08894413
0002f0 71 8a b8 ba 43 5d b5 bb b1 02 8f bd 00 ae b2 bb
       -0.0014079345 -0.0055347993 -0.06982935 -0.0054528713
000300 17 0f 3c 3c e7 45 fd 3c 99 d3 10 3c f2 cf 2d bc
       0.011478207 0.030917121 0.008839511 -0.01060866
000310 0d 6e 97 3c a3 f6 10 3c 74 1f c3 bc ab b6 17 3d
       0.018485093 0.008847865 -0.023818709 0.03703944
000320 eb b2 bb 3c b2 a8 c0 3b d8 51 3c 3c 98 06 9d 3c
       0.022912463 0.005879485 0.011494122 0.019168183
000330 14 25 94 3c 33 ba d4 bc d7 93 86 3c 2b 5a 21 3d
       0.018084086 -0.025967693 0.016427917 0.03939263
000340 b1 7b 95 3a 08 d0 c8 3a b8 bc 8e 3c 89 46 43 3b
       0.0011404661 0.0015320787 0.017423972 0.002979668
000350 0a 41 c1 bb 43 81 35 3b 8d 29 f6 3c 9a 66 08 bb
       -0.005897646 0.0027695454 0.03004911 -0.0020813108
000360 e5 da c6 3c 52 72 e6 3b 42 69 57 3c 43 b2 33 3d
       0.024274299 0.007032671 0.013147654 0.043871175
000370 46 e6 ed ba a7 3a 70 ba fd 15 a7 bc a6 d6 c5 3c
       -0.0018150292 -0.00091640133 -0.020396227 0.024150204
000380 e8 af d1 bc 83 93 09 3c f5 1f 57 3d fe 5c 21 3d
       -0.025596574 0.008396986 0.05252071 0.039395325
000390 02 6d 9c bc 98 d7 e2 3c 37 da a6 bc e9 60 c7 3c
       -0.019094948 0.027690694 -0.020367725 0.024338203
0003a0 b9 96 11 3c a3 4a d1 b8 13 5a da bc 84 36 15 bd
       0.008886033 -9.979799e-05 -0.026654279 -0.036428943
0003b0 60 98 86 bd 62 a4 81 3c af 7c 6e ba 6b c1 fa 3b
       -0.06572032 0.015825454 -0.0009097559 0.0076524517
0003c0 84 ff ab bb 75 42 07 bd fc aa 02 be b6 89 08 be
       -0.0052489657 -0.033022363 -0.12760538 -0.13333783
0003d0 72 97 be 3c 37 92 94 ba ef 69 85 3c a7 d0 f8 bc
       0.023265574 -0.0011335079 0.016285865 -0.03037293
0003e0 e1 8d 9b 3c 55 e2 df 3c e5 df 26 3d 11 d1 7f bc
       0.018988552 0.027329603 0.040740866 -0.01561381
0003f0 e3 e9 ac bb 38 2a ef 3b db ed 7a 3c 46 84 82 bb
       -0.005276905 0.007298734 0.015315498 -0.0039830534

fc1.bias f4 [128]
000000 9e ba 87 3c a8 6c a4 ba ee ce 35 bc 63 07 99 bb
       0.016568478 -0.0012544589 -0.011096699 -0.00467007
000010 cb a5 67 bc 2a 20 c7 3b 82 55 93 3c d9 6d ad bc
       -0.014138649 0.0060768323 0.01798511 -0.021170544
000020 d1 44 f8 3c f1 c3 36 3c 53 a7 eb 3c e6 19 d4 ba
       0.030306252 0.0111551145 0.02876631 -0.0016182035
000030 ea 17 c5 38 90 da 17 3c 89 e5 d3 b9 93 cd 9e 3b
       9.398146e-05 0.009268418 -0.00040416073 0.0048462837
000040 f1 e2 14 bd 68 38 cb 3b 66 f3 bc ba ce 03 b4 3b
       -0.03634924 0.0062017925 -0.00144158 0.0054936176
000050 c7 2a c5 bb 3b 0a 52 3c ad 57 e6 3c 60 d7 37 3c
       -0.0060170623 0.012819822 0.028117979 0.011220783
000060 7d 5a 6b 3c 95 e8 7b bc 89 b5 a4 bc a0 2f d7 3c
       0.014364836 -0.015375276 -0.020106094 0.026267827
000070 f4 72 0e bc 4b 55 97 ba ef a5 17 3c 79 47 cf 3a
       -0.008694399 -0.0011545805 0.00925587 0.0015814147
000080 ae bc de b9 03 e7 99 3c bc 52 6f 3b dc bf a5 3c
       -0.00042483717 0.018786913 0.003651782 0.020233087
000090 87 4e 29 3b 26 cf 95 3b 03 05 3d bc ff ad 52 3c
       0.002583416 0.004571813 -0.011536839 0.012858867
0000a0 36 77 a4 bb e1 a8 42 bc 2f 80 df 3b 1e 21 28 bc
       -0.005019094 -0.011881084 0.0068207006 -0.010261802
0000b0 ac f0 fb 3c 39 5a 0c 3c 05 69 7c bc fb a8 ea 3b
       0.03075441 0.008566433 -0.015405898 0.0071612573
0000c0 30 df 58 3c 90 8e 82 3c 93 7f 04 bb 6d 2a 50 bc
       0.013236806 0.01593712 -0.0020217642 -0.012705428
0000d0 29 5b 15 bc 2a 4a b4 bc 9b a6 c9 3b 29 8b 68 3c
       -0.009115973 -0.02200802 0.006153894 0.014193335
0000e0 c3 9a 53 3c ed 56 c4 bb 3b 31 d3 bc f0 ca 23 bc
       0.012915316 -0.0059918077 -0.02578031 -0.009997115
0000f0 51 5c ec 3b fd 84 54 3c be 25 cf bb 70 d8 a8 3c
       0.0072131534 0.01297116 -0.006321638 0.020611018
000100 c2 7a 70 bc e9 54 81 bc 58 15 93 bb 4d 32 01 39
       -0.014677705 -0.015787559 -0.0044886284 0.00012321137
000110 4d 2e bc 3c 4d 41 29 bc 65 03 0f bc 12 89 a3 bb
       0.022971297 -0.01033051 -0.008728837 -0.0049907053
000120 cd 14 a3 bc 10 70 b9 bc 53 9e 9c bc cd 1c 87 3c
       -0.01990738 -0.022636443 -0.019118464 0.016493225
000130 15 44 77 3c ce 9e 01 bc da 93 d4 bc 8e d1 a0 bb
       0.015091916 -0.007911397 -0.025949407 -0.0049077934
000140 df 9e 3f 3c c9 aa 73 bc b1 b9 96 3b 42 33 92 3b
       0.011695593 -0.014872261 0.004599773 0.004461677
000150 69 94 6f bc 28 4f 8c 3c 66 1f 09 bd 4c 8b 19 bc
       -0.014622786 0.017127588 -0.03347721 -0.00937159
000160 a8 16 bd 3c 46 59 43 3c 23 02 72 3c 1c d9 1d bc
       0.023082092 0.01192314 0.014771017 -0.009634282
000170 40 f8 2f bc 43 07 0c bc 11 75 fd bc 2f 65 d5 3b
       -0.01074034 -0.008546653 -0.03093961 0.006512306
000180 4e 9d ab 3c 9c c0 91 3c 11 f7 11 bc 61 30 af 3c
       0.020949032 0.017792039 -0.008909003 0.021385374
000190 88 58 11 3d 24 55 59 bc d6 97 cd 38 aa 2e 25 bc
       0.03548482 -0.013264928 9.8034434e-05 -0.010081926
0001a0 13 a2 91 ba 83 ef c7 3c 72 3c 4b bb ff f8 f5 3b
       -0.0011110924 0.0244062 -0.003101137 0.0075064893
0001b0 91 8d 91 bc 98 20 00 bb 98 28 94 bc 9b 6e a4 3c
       -0.0177677 -0.0019550677 -0.018085763 0.020072272
0001c0 24 d9 86 3c b7 db ff bb e9 95 1e bc 2c ce 62 3b
       0.016460963 -0.0078081745 -0.009679296 0.0034607751
0001d0 b2 d3 3d bb fe 50 4b 3c e0 fd b8 3c f2 f3 44 ba
       -0.0028965292 0.012409447 0.022581995 -0.00075131573
0001e0 9c f5 b9 bc 25 30 99 bc f2 50 16 bc e3 3d 76 bb
       -0.022700123 -0.018699715 -0.009174572 -0.0037573508
0001f0 82 68 e9 bc 64 4f d9 bb 7c 7c bc bc b3 52 97 3a
       -0.028492216 -0.0066317786 -0.023008578 0.0011545032

fc2.weight f4 [10, 128]
000000 a9 05 0d 3e ee b7 c5 3d fa 4a 5b bb 00 d4 af 3d
       0.1377169 0.096542224 -0.0033461438 0.08585358
000010 56 f6 0d 3d c8 65 c6 bc 5d cd 18 be d9 ea f3 3d
       0.034658752 -0.024218455 -0.1492209 0.11910028
000020 6f d2 3c bd 33 91 fe 3d 4b 91 2e 3e c2 81 c4 3d
       -0.046099123 0.12430038 0.17047612 0.09595062
000030 18 01 84 bd bb c1 70 bd 54 53 cb bd f2 92 95 bd
       -0.06445521 -0.058778506 -0.09928003 -0.07303418
000040 61 df 04 be 59 82 7e bd 66 21 ca 3d a9 c7 52 3d
       -0.12975837 -0.062136028 0.098696515 0.051459942
000050 1b d7 36 be 16 3e e9 bd e9 f9 53 bc 6e d5 a4 3d
       -0.17855494 -0.11388795 -0.012938001 0.08048521
000060 5a ca f7 bc 3d 68 94 3d c5 e5 dc 3d 3d 84 16 3e
       -0.030247856 0.072464444 0.107860126 0.14698882
000070 25 f2 13 bb 12 83 29 be 82 a9 a5 bd c8 a3 e0 3b
       -0.002257475 -0.16553906 -0.08088972 0.0068554617
000080 19 b2 e6 bd 67 c2 90 3d 43 dd 74 3d 2b 02 cc 3d
       -0.11264438 0.07068329 0.059781324 0.09961351
000090 ff 5d c4 3c a1 ed e0 bd 31 6c d0 3d 63 ea 23 3e
       0.023970602 -0.10982824 0.10176886 0.1600738
0000a0 92 bc 76 3c 80 ab df bd 8e 6d 0d be 4b ee e1 3d
       0.015059607 -0.10921383 -0.13811323 0.11031779
0000b0 cc 98 b3 bd 5f 0c 11 3c b5 51 3f be 94 23 75 bd
       -0.08769378 0.008853047 -0.18683513 -0.059848383
0000c0 a6 20 67 bd e5 e0 1d bd 0d 0e 7b bc 53 8b 03 bd
       -0.05642762 -0.038544554 -0.015323174 -0.03211529
0000d0 e5 2a 16 be 9c fa 9a bd c4 46 10 3e 52 53 15 be
       -0.146648 -0.07567331 0.14089495 -0.14582565
0000e0 12 b1 04 be 9b 0d 8b bd 18 a3 3e bd 19 ec 1a be
       -0.12958172 -0.067897044 -0.046542257 -0.15129127
0000f0 e7 63 1b 3e 3c de 7c 3d d9 af e6 3d 43 d3 90 bd
       0.15174828 0.061735377 0.11264009 -0.07071545
000100 c2 59 6f 3d e0 48 a4 bd 99 16 3a 3e df ae b9 bd
       0.05843521 -0.08021712 0.18172683 -0.09066557
000110 4b b5 f8 3d ec 21 84 3d 29 ff 09 3d 9c bc 89 bc
       0.12143954 0.064517826 0.033690605 -0.016813569
000120 f3 a6 7d bd cc 48 f6 3d d7 1c 0f 3e 38 b6 80 3d
       -0.061926793 0.12025604 0.13975845 0.062847555
000130 e3 9e b1 bd 21 e9 30 3e 66 b0 85 3d 3d 09 ba bd
       -0.08672883 0.17276432 0.06527786 -0.09083793
000140 44 02 f7 bd b4 1e 52 bc 6c 4c 7e bc 55 6d 86 bc
       -0.12060979 -0.012824703 -0.01552115 -0.016409555
000150 27 9d 11 be 5e 4c 33 bd 3b 0c e6 bd 91 cf cc bd
       -0.14220105 -0.043774 -0.112328015 -0.10000528
000160 5b 66 e6 bd c1 9f 51 3d c9 86 ab 3c 48 f6 12 be
       -0.112499915 0.051177744 0.020938294 -0.14351761
000170 15 08 c4 bd d6 25 a8 3b 0a fe b5 bd 1e 09 f6 3d
       -0.09571854 0.0051314635 -0.08886345 0.12013458
000180 48 94 03 3e 1d 64 ce 3d 04 22 d9 3c 1c 53 ac 3c
       0.12849534 0.10077689 0.026505478 0.021035723
000190 8a a9 15 3e ed 25 61 3e 81 83 8a 3d d0 ca 96 bd
       0.14615455 0.21987124 0.06763364 -0.07362902
0001a0 2b a6 8c 3d 1a c7 8a bd 90 52 7a bd cb 92 71 bc
       0.068676315 -0.06776257 -0.061113894 -0.014744471
0001b0 a3 78 89 bd 19 c5 5f bd 81 ce d6 bd 42 49 bc bd
       -0.06712463 -0.054631326 -0.10488606 -0.0919366
0001c0 c8 aa 6b bd f0 c0 f1 bd ed 6b ca 3d 9a 2c a4 bc
       -0.057535917 -0.11804378 0.098838665 -0.020040799
0001d0 66 75 05 bd fa 09 ae 3d bd 71 72 bc 1b 70 bf ba
       -0.032582663 0.08497997 -0.014797625 -0.0014605554
0001e0 3f d8 df 3d 53 a2 53 3d bc 09 0b be 6c 37 c5 3d
       0.109299175 0.051668476 -0.13577932 0.096297115
0001f0 55 a0 1f be f3 6e 37 bd 28 9c 41 3b 99 ae bc bc
       -0.15588506 -0.044783544 0.002954254 -0.023032473
000200 e2 56 19 3d 68 7b cc bc ff 53 73 bb ae 5e 9e 3d
       0.037436374 -0.024961188 -0.0037128923 0.077329025
000210 44 83 94 3d de 2f 08 3d ba 90 72 3d 66 cc 01 be
       0.072515994 0.033248775 0.059220053 -0.12675628
000220 4f a5 0e 3e 93 8f 87 3b ed 64 c6 3c 96 25 70 3c
       0.13930248 0.0041369884 0.024218047 0.014657399
000230 5a 75 17 3e ae 85 15 bc 3f 0f 99 3d f2 e3 c8 3d
       0.1479086 -0.00912611 0.07473611 0.09809102
000240 98 da 86 bd cc e0 21 be 9c bc 0e 3e fe ea 53 3c
       -0.06584662 -0.1580841 0.13939136 0.0129344445
000250 6e 46 67 bd 76 a4 53 bb 84 5c 1a 3e f7 06 54 bd
       -0.05646365 -0.0032294071 0.15074354 -0.051764455
000260 9a 6b e3 3d 73 47 19 be 41 63 e9 bd fe 79 b9 3d
       0.11104508 -0.14968662 -0.11395884 0.09056471
000270 0d d3 b3 3d 56 7b 8a bd 96 a7 1c 3d 85 df 2b be
       0.08780489 -0.06761806 0.03824576 -0.16784485
000280 06 69 3e 3e a1 bf 04 3e 31 3d 3c bd ef 49 5c bd
       0.18594751 0.12963726 -0.045956794 -0.053781446
000290 4a 46 e3 3d c8 0b a7 3d 50 7d a3 bd 1a fe b8 bd
       0.11097391 0.08156544 -0.07982886 -0.09032841
0002a0 ea 00 25 be af a3 0b 3e 9f 90 44 be dc 23 e3 3c
       -0.1611363 0.13636659 -0.19195794 0.02772706
0002b0 07 f6 9e 3d 28 c3 22 bd 0d 03 9b 3c e4 7c 4c 3c
       0.0776177 -0.039736897 0.018922353 0.012480948
0002c0 ac ee eb 3c db e2 8f 3d d3 a7 f9 bd 22 86 34 3e
       0.028800331 0.07025691 -0.12190213 0.17629293
0002d0 83 17 d2 bd fa 38 af bd 3c 2f 37 bc 2d 84 5e bd
       -0.10258391 -0.08555789 -0.011180695 -0.05432527
0002e0 46 1e 44 3b 1e 81 c6 3d 42 55 ac ba 96 20 ab 3c
       0.002992527 0.09692596 -0.0013147967 0.020889562
0002f0 58 4a c7 3d d7 c2 85 3d 67 24 be bd 77 9d f7 3d
       0.09730977 0.065313034 -0.09284287 0.12090581
000300 b0 0a 2f be df 90 11 3e 9e 14 9a 3d af 7e fa 3d
       -0.1709392 0.1421542 0.07523464 0.12231194
000310 21 fe 47 bd e7 f5 bb bc e8 de 0a be ee d2 1e 3e
       -0.04882634 -0.022944404 -0.13561594 0.15510151
000320 16 c3 37 be 25 13 22 be 8a 2f 9f bd c3 41 f5 bd
       -0.17945513 -0.15827616 -0.07772739 -0.11975434
000330 21 fe 1c 3e 33 e5 ad 3d 7f db e2 bd 9e 73 1f 3e
       0.15331317 0.08490982 -0.11077022 0.15571448
000340 2a ff 73 3d 63 2d 7a 3d 42 5a 01 bd e5 6c 38 3e
       0.059569515 0.06107844 -0.031580217 0.1801029
000350 5f 25 e0 bd d1 b3 0d 3e d2 1b a3 3d 5d da 9d bd
       -0.10944628 0.13838126 0.07964291 -0.07707665
000360 d2 ca 9c 3d f2 b3 1d 3e 60 d9 cc 3d da 91 29 3e
       0.076558724 0.15400675 0.100023985 0.16559544
000370 17 e7 1c 3c 6d 08 d3 bb b0 db b3 bd b4 31 c9 bd
       0.0095765805 -0.0064402134 -0.087821364 -0.09823933
000380 ac d2 83 3d cd 67 9e 3d 49 6c 58 bd 0a ba 6e 3d
       0.06436667 0.07734642 -0.052837644 0.05828289
000390 d4 74 e3 3d bb 35 38 3c 19 9d be 3b b2 88 42 3d
       0.111062676 0.011243279 0.0058170673 0.047493644
0003a0 4f 18 85 bd d7 2f 3d bd 5c 08 b5 bc 8e d2 8f 3d
       -0.06498777 -0.0461882 -0.022098713 0.07022582
0003b0 05 e5 22 3c 2c 88 e7 bc 22 06 eb bc 9b 4e 11 3e
       0.009942298 -0.028263174 -0.028689448 0.14190142
0003c0 3f de 0d 3e 12 91 fc 3d 4c 9d 9f 3d a4 6e ce 3a
       0.13854311 0.123323575 0.07793674 0.0015749526
0003d0 53 ac ee 3d b2 0f 0b 3e 7e 58 39 3e 42 a7 ed 3d
       0.11653962 0.13580206 0.18100163 0.116041675
0003e0 8a 66 9e bd b1 44 9b 3d b8 47 b5 3a 13 d1 36 3e
       -0.077344015 0.07581461 0.0013830578 0.17853193
0003f0 97 61 cd bd ee c3 b5 3d 1c 82 0e be 96 5f b5 3d
       -0.100283794 0.08875261 -0.1391682 0.08856122

fc2.bias f4 [10]
000000 01 c3 2a 3d 70 1c 84 3d 93 35 69 3d cf 40 3d bd
       0.041689876 0.064507365 0.056935858 -0.046204384
000010 bf 6a 50 bd df c6 93 3c 42 4c a9 bd 2b cf 8d 3d
       -0.05088305 0.018039165 -0.08266498 0.0692428
000020 95 65 27 bc a0 2d 99 3d
       -0.01021709 0.074794054
