trained/DenseMLP.pth (torch, 674770 bytes, 36 tensors)

layers.0.weight f4 [64, 784]
000000 7b 90 d8 3c 47 0d cd 3c c5 f7 97 3c 64 e8 dc ba
       0.026436081 0.025030745 0.018550763 -0.0016853926
000010 f9 0a 14 bd 42 30 04 3c 31 e7 a8 3a 2f ac 9d bc
       -0.036143277 0.008068146 0.0012886283 -0.019247143
000020 35 9c b6 3c 00 04 ff 3c 0a d3 13 bd 1b f3 15 bd
       0.022291282 0.031129837 -0.036089934 -0.036608797
000030 43 00 29 3a c1 53 46 bc 74 93 2a bb f1 93 c6 bc
       0.00064468774 -0.012104929 -0.002602783 -0.024240466
000040 39 f8 cb bb 85 53 26 3b f3 6b 9e bc c3 1b 9a bb
       -0.006224659 0.0025379371 -0.019338584 -0.0047030165
000050 1d cc fb 3b 8d c0 48 3c 18 0d 0c ba 78 3b 76 bc
       0.0076842443 0.012252939 -0.00053425273 -0.015028827
000060 c8 5b a7 bc 51 db ac bc 33 c5 8c bc 92 51 71 3c
       -0.020429507 -0.021100672 -0.017183876 0.0147289205
000070 c6 7c 6f bc 08 ef bc bc 83 76 ce 3c 07 51 a4 3c
       -0.014617151 -0.023063198 0.025202995 0.020058168
000080 e3 99 09 3c ae d9 51 3b d5 1a 75 3c 4d 93 e7 3c
       0.008398506 0.0032020616 0.014960011 0.02826848
000090 c4 53 c1 bc c6 22 3b 3c 16 21 ed 3b c8 1b d8 bc
       -0.023599513 0.011421865 0.00723661 -0.026380435
0000a0 0e 48 4e 3c 47 f5 29 bc 6f dd 86 bc fd 1a 00 bc
       0.012590421 -0.01037342 -0.01646301 -0.0078189345
0000b0 86 1a e2 bc b7 29 e0 bc 7f e0 ec 3b 2a af ca 3c
       -0.027600538 -0.027363641 0.0072289105 0.024741728
0000c0 0d bc 17 bc b4 98 23 bb a2 d5 36 3c c6 c2 a5 b9
       -0.009261143 -0.0024962844 0.0111593325 -0.0003161637
0000d0 b0 3b d4 3a 45 43 87 3b 3f a6 af 3c 73 aa d8 3c
       0.0016192105 0.004127892 0.021441577 0.026448464
0000e0 f2 b1 7d 3c 02 62 2c 3b c9 d9 62 3b 5b da f0 3c
       0.01548432 0.0026303534 0.0034614673 0.029400995
0000f0 d5 0b a2 bc 85 61 c2 bb 22 f1 e0 bc 81 87 26 3b
       -0.019781033 -0.0059320354 -0.027458731 0.0025410356
000100 66 56 2c bc a3 e7 41 bc c0 19 17 bc c0 ca 78 bb
       -0.010518646 -0.011835012 -0.009222448 -0.0037962645
000110 a5 b6 12 bc c5 82 f2 bc 14 5c 6e bb 87 9f f0 3c
       -0.008954679 -0.029603371 -0.00363708 0.029372944
000120 9e 92 a3 bc cc 0e 1c bc 9c cb db 3c b4 95 21 3c
       -0.019967373 -0.009525012 0.026830487 0.009862352
000130 27 d3 e7 bc 86 89 92 3c 5c ba cf bb 47 73 68 3b
       -0.028298927 0.017887842 -0.0063393544 0.0035469101
000140 1b a9 ca 3b f5 4c ea bc cd 0f 9d bc 34 2f 44 3c
       0.0061847097 -0.02860115 -0.019172573 0.011974145
000150 f8 88 0d bc 38 c9 3b bc a6 2e 5d bc a9 37 a5 3c
       -0.008638613 -0.0114615485 -0.013499891 0.020168142
000160 10 0c 96 bc 65 80 78 3c eb e1 83 3c 5d 15 d2 3c
       -0.018316299 0.01516733 0.016098937 0.025644952
000170 60 df e2 bc b9 18 ba 39 69 ef 04 3d 3e ed d8 bc
       -0.027694404 0.00035495104 0.03245488 -0.026480313
000180 27 d8 09 bd a3 c8 7d bb 21 0e 03 3d ad 05 c0 bc
       -0.033653405 -0.0038724325 0.031995896 -0.023440206
000190 60 21 04 bc 85 23 db 3c e4 5b 11 bc 4a 1e 91 3c
       -0.008064598 0.026750335 -0.008872006 0.017714638
0001a0 3e 67 8b 3c db 36 a8 3b 08 01 9f 3c 22 f0 0d bd
       0.017017003 0.0051334924 0.019409671 -0.034652837
0001b0 07 fd d2 bb 86 49 ac 3c 74 b3 01 3d 24 b0 07 bc
       -0.0064388546 0.021031152 0.03166528 -0.008281741
0001c0 11 d8 d5 bc 57 b6 04 bd fa e7 45 bb b7 c8 a1 bc
       -0.026104005 -0.032400455 -0.0030198083 -0.019749029
0001d0 b6 55 18 bd b9 f2 d7 3c bc c7 00 3d 98 ab 62 3c
       -0.037191115 0.026360856 0.03144048 0.013834856
0001e0 58 25 ff 3c bd 12 ff bc ea 16 12 3c 0f b3 01 3d
       0.031145737 -0.031136865 0.008916596 0.031664904
0001f0 f0 90 ea 3c 5d 0e 03 3d 81 b9 c3 3c 4a bd c2 3b
       0.028633565 0.03199612 0.023892166 0.005942975
000200 35 36 f4 3c 27 a0 0b 3d 37 c8 26 bd b0 f3 a7 3c
       0.029811004 0.03408828 -0.040718284 0.020501941
000210 45 73 25 bd ab f8 14 bd 38 4e 57 bc 27 75 81 bc
       -0.040393133 -0.03636996 -0.013141207 -0.015802933
000220 dc b4 bb bc e2 a7 80 3b 6d 93 ae 3c 6e 4a 5e 3b
       -0.022913389 0.003926263 0.021310532 0.0033918875
000230 0d 0f 13 bd 3a b0 fe bc ba 65 a0 ba 47 bf 0f bd
       -0.035903025 -0.03108989 -0.0012237348 -0.035094526
000240 57 06 04 bd b9 89 c6 3b 3a 18 9f 3c 25 4e ad 3c
       -0.03223261 0.0060588983 0.019420732 0.021155426
000250 d2 fe b8 3c c9 cc 01 3c 76 d8 74 3c 29 e7 27 3d
       0.022582445 0.00792236 0.014944186 0.040991936
000260 e9 69 d3 3c ba 73 7f 3c 4e 36 13 3d 97 d6 3a 3d
       0.025807338 0.015591556 0.03594046 0.045614805
000270 bd 79 ac 3c 0b 19 99 3b fb 95 1a bb ce 38 f0 bc
       0.021054143 0.004672175 -0.002358793 -0.029323962
000280 c6 aa bf bc d3 92 ca bc 4a 2c 51 bd 00 fe 45 bd
       -0.02339686 -0.024728214 -0.051067628 -0.048337936
000290 c8 9a ab 3c 57 e0 06 bd 11 8b e9 bb dc ea ed bc
       0.020947829 -0.03292879 -0.0071271737 -0.029042654
0002a0 c9 ef bb 3b 10 34 20 bd 9d 42 1a bd a3 ee ef bc
       0.0057353717 -0.03911215 -0.037661184 -0.029288596
0002b0 53 74 94 bc 12 26 02 bd fc 70 13 3c d2 a4 27 3c
       -0.018121874 -0.031774588 0.008999106 0.010232167
0002c0 e7 a8 00 bc 87 17 ec b9 ea 05 15 3d 15 3d ff 3c
       -0.007852769 -0.00045030957 0.036382593 0.031157056
0002d0 57 6d 3c bc cd 36 3b 3b 92 17 1c 3b 6b 27 32 3c
       -0.011500678 0.00285666 0.002381776 0.010873656
0002e0 1a 34 0a 3d 90 db 91 bc 91 80 7e 3c 13 41 e5 3c
       0.033741094 -0.01780489 0.015533582 0.027985131
0002f0 72 68 19 3c ec 82 dd bc 7f 2c 0a bd f7 21 12 bd
       0.009363281 -0.027039967 -0.03373384 -0.035676923
000300 bf b7 93 bc 47 a6 f0 bc 4a e6 79 bc c2 fe d4 3c
       -0.018031953 -0.029376162 -0.015252659 0.026000384
000310 7f 55 02 bd 09 a5 58 3b c3 98 1f bc f9 7f 5e 3b
       -0.031819817 0.0033057353 -0.009741011 0.003395079
000320 2b 6e 69 bb 06 e0 c9 3c 4f 9a 8f bc 43 ce fb b8
       -0.0035618644 0.024642956 -0.017529635 -0.00012007032
000330 e0 b4 d0 bc b7 82 13 3d 0b a9 ea bc e9 ba 8d 3c
       -0.025476873 0.03601333 -0.02864506 0.01730104
000340 63 c8 0a bc 07 b4 e1 bc bf d1 b0 3b ed 8a d5 3b
       -0.0084706275 -0.027551664 0.0053960974 0.0065168054
000350 33 c4 ec bb 9f a3 d4 bc 96 8f fb bc 75 97 44 bc
       -0.007225537 -0.025956927 -0.030708116 -0.011999001
000360 75 87 8f 3b 9d 6a 1e bb 14 28 10 bc 3f 7c 4a bd
       0.0043801614 -0.0024172433 -0.008798618 -0.049434897
000370 86 9e d6 bc 0e ae 44 bd 57 a9 cb 3c e3 5e 2f bc
       -0.026198637 -0.048017554 0.024861021 -0.010703775
000380 a1 7f 83 3a f1 d9 20 3c 9b ec e7 3c 51 f5 1c bd
       0.0010032543 0.009817586 0.028311064 -0.03831989
000390 a2 55 4d 3c d9 43 c3 bc 74 30 b3 bc 62 1a 7f 3b
       0.0125326235 -0.023836063 -0.02187369 0.0038925637
0003a0 25 c6 48 bc 1f d6 90 3c 1a 4c 99 3c df e6 50 bc
       -0.012254273 0.017680226 0.018713046 -0.012750356
0003b0 8c 2d 07 3d a8 04 01 bc 02 0d af 3c eb 22 25 3d
       0.03300242 -0.007874645 0.021368507 0.040316503
0003c0 71 87 08 bc 53 b9 ce 3c f0 29 46 bc c6 7e 22 3d
       -0.008333073 0.025234854 -0.01209496 0.03967168
0003d0 5b 05 f5 3c 31 b4 f3 3c dc de 16 bc 28 3a 3d bd
       0.02990978 0.029749008 -0.009208407 -0.04619804
0003e0 fe 65 40 ba c8 4f d1 bc dc a2 b6 bc 0a db 15 bd
       -0.0007339417 -0.025550738 -0.022294454 -0.036585845
0003f0 cd ff 39 ba b1 c7 d5 bc 3e 9d 25 3c 48 e9 15 3c
       -0.0007095307 -0.026096197 0.01010829 0.009149857

layers.0.bias f4 [64]
000000 80 9f 20 3d cc dd 07 3c 7a f8 c2 bc ec 98 3a 3c
       0.03921461 0.008292627 -0.023800123 0.0113889985
000010 93 66 d5 ba cb f5 b2 3b 00 bf 03 3c 17 a8 1c 3c
       -0.001628118 0.0054614297 0.008041143 0.00956156
000020 ae 92 e0 3b d9 f5 f3 bc 31 96 12 3d 53 a7 a1 3c
       0.006853423 -0.029780315 0.035787765 0.019733107
000030 00 25 e8 3c a4 7d d5 bc 79 d8 c0 3b 2b 4c 4e bb
       0.028337955 -0.026060887 0.0058851806 -0.0031478505
000040 81 b4 28 bc 2d a8 cf bc b4 ad 06 3c dc 63 a1 bc
       -0.010296942 -0.025348747 0.008220125 -0.019700937
000050 8d a1 69 3c 1c 00 2e bc bb 90 bb 3c 38 aa c8 3a
       0.014259708 -0.010620143 0.022896161 0.0015309518
000060 1a ec 81 bc f7 7b 76 3b 99 27 00 bd 3c 5e a6 3c
       -0.015859652 0.003761051 -0.031287763 0.020308606
000070 c2 49 db 3c 2b f9 d1 bc e6 47 04 3c c9 b0 55 3c
       0.026768569 -0.025631508 0.008073783 0.013042637
000080 c7 e5 17 3d c0 d1 69 3c 2d 1d b4 3b 8a f0 fe 3c
       0.037084367 0.0142712 0.005496642 0.031120557
000090 80 e4 8d 3c e2 1b 6f bc b1 64 d1 bc 18 2e fc 3c
       0.017320871 -0.01459405 -0.025560709 0.030783698
0000a0 5d aa 06 3d 51 d9 e9 3c bb 07 08 3c df 49 91 3c
       0.032877315 0.028546007 0.008302624 0.01773542
0000b0 ba 38 f6 3a 27 a0 a8 ba 6c f6 9d 3c 40 84 b4 bb
       0.0018785216 -0.0012865112 0.019282542 -0.0055089295
0000c0 dc 19 c1 3b f7 ca 06 3d 93 a6 e4 bc 0f 64 a9 3c
       0.0058929753 0.032908406 -0.02791146 0.020677594
0000d0 ad 11 f0 bc e7 24 8a 3c f8 33 80 3c a4 be c9 3c
       -0.029305303 0.0168633 0.01564978 0.024627037
0000e0 59 be e5 3c 7a 67 03 3d 31 d9 03 3c c0 92 1b 3d
       0.028044866 0.032081105 0.008047388 0.03798175
0000f0 1c 7b 28 3d b0 5f 39 3c af 81 e3 bb 1f 5f a4 bc
       0.04113303 0.011314318 -0.0069429497 -0.020064889

layers.1.weight f4 [64, 64]
000000 50 96 1d bd e5 5c 78 3c b2 75 89 3d 58 43 a3 bd
       -0.038473427 0.0151588665 0.06711902 -0.07971829
000010 83 89 b9 bd 9b c8 a6 3d 09 30 84 bd 1c c2 fe bc
       -0.090594314 0.08143731 -0.064544745 -0.031098418
000020 77 6c 8a 3d 51 ea b3 3d 65 f0 bf bd 24 e6 ed bd
       0.06758969 0.08784927 -0.093720235 -0.116161615
000030 79 4d 04 bd e8 4a 8d bc d5 2b a5 bd 12 d5 b9 3d
       -0.032300446 -0.017247632 -0.08065001 0.09073843
000040 f7 d0 33 3d 98 25 11 3e 95 db 7a bd c9 ca e8 3d
       0.043900456 0.14174497 -0.061244566 0.11366803
000050 48 69 2c 3d 5c 43 d5 bd 4b 6c e4 3d 9b ae a2 3c
       0.04209259 -0.104132384 0.11153468 0.019858649
000060 69 fd c3 3d fa 60 7c bd 3a 92 a5 bd 53 78 03 be
       0.095698185 -0.06161592 -0.08084531 -0.12838869
000070 66 29 f2 3d 4c 1b a5 bd 02 f9 57 bc af b7 fa 3d
       0.118243024 -0.08061847 -0.013181927 0.12242066
000080 96 14 74 3c cc ba 91 3d 1f cc 41 bc 73 de 09 bc
       0.014897486 0.07115707 -0.011828451 -0.008414852
000090 6b c1 72 bc 6d fb b4 3c 34 16 b7 bd f8 50 bf bd
       -0.014816622 0.022092545 -0.08939782 -0.093416154
0000a0 62 5e c1 bc 33 4a e2 b9 32 6b 23 3c 8c 66 e7 3d
       -0.023604576 -0.00043161362 0.009974288 0.11298856
0000b0 be 30 d3 3d b8 4a b1 bd 8c 02 5e bd ef a8 09 be
       0.10312031 -0.086568296 -0.054201648 -0.1344335
0000c0 7e ad de 3d ec f5 4d bb 3e a6 ec 3d 46 15 90 bd
       0.10872935 -0.0031427098 0.11555146 -0.070353076
0000d0 d6 20 c8 3d c8 63 ef bd dc 08 e8 3c a8 24 96 3d
       0.09771888 -0.11688954 0.028324537 0.073312104
0000e0 a3 48 dd bc f8 b4 0a be a2 5f a6 bd fb a9 ce bd
       -0.027012175 -0.13545597 -0.08123709 -0.10091015
0000f0 34 96 be 3d 57 ee cd 3d e7 d2 03 be 54 8c e0 3d
       0.09305993 0.10055225 -0.12873422 0.109642655
000100 01 3e ab bd 97 0d 1d 3d 43 da ba 3d 1e 20 2a bd
       -0.08361436 0.03834304 0.09123661 -0.041534536
000110 fe a5 03 bd a1 56 02 3d 7a a9 03 3e f1 cd e4 3d
       -0.032140724 0.031820897 0.12857619 0.11172093
000120 3d 80 90 bd 26 78 5a 3d f4 73 af bc f0 92 fb bd
       -0.070557095 0.05333724 -0.021417595 -0.122838855
000130 24 f6 0d 3d d1 01 ac bd f6 2c 11 bc 34 54 9b 3c
       0.034658566 -0.08398784 -0.008860817 0.01896105
000140 15 2e 3b 3d cd 83 2e bd c0 c5 c3 3d bc fa a5 bd
       0.045698244 -0.042606164 0.09559202 -0.081044644
000150 74 b1 b4 bd ee 3b b7 3d d7 b3 fb 3d 02 d5 01 bd
       -0.08822909 0.089469776 0.12290161 -0.03169728
000160 a3 49 82 bc f7 77 28 3d cc ff 89 bc 20 23 d1 3d
       -0.015904253 0.041130032 -0.016845606 0.10211778
000170 36 7e 80 bc 62 c2 e2 bc bc bd c8 bd f0 f1 b4 3c
       -0.015685182 -0.02768058 -0.09801814 0.022088021
000180 ac b3 b9 bd 15 06 81 bd a7 2f ca bc b4 be ee 3c
       -0.09067473 -0.06299988 -0.024680926 0.029143669
000190 81 d2 fa 3d 53 85 3f 3d a2 dc 5f 3d 65 53 9e bd
       0.12247182 0.046758007 0.05465377 -0.0773075
0001a0 12 0c e1 3d 77 61 9f 3d 3d a7 c8 bd 1f 6d f4 3c
       0.1098863 0.07782262 -0.09797523 0.02983719
0001b0 f2 b2 04 3e ed 5e 20 3d 03 b2 f9 bd cf 65 07 3e
       0.12958887 0.03915303 -0.12192156 0.1322243
0001c0 64 f4 b6 bd 4e d6 71 bd 2c d2 71 3d 02 f7 7b bd
       -0.089333326 -0.059042268 0.059038326 -0.061514862
0001d0 57 06 88 bd 29 7a 25 3d 87 81 28 3d 18 79 75 bd
       -0.06641834 0.040399704 0.041139152 -0.059929937
0001e0 d2 0f fd bd 3a 1d e4 bd 10 29 1d 3c 0b 68 6d 3d
       -0.12356533 -0.11138387 0.00959231 0.05796055
0001f0 c0 bb 01 be 8a 68 42 bd 8a 1f c3 3d 53 f0 65 b9
       -0.12669277 -0.047462977 0.095275 -0.0002192867
000200 b4 af a2 bd 3a 66 db bd 5b bd 3d 3d b1 37 c6 bd
       -0.07943669 -0.107128575 0.04632316 -0.09678591
000210 47 08 8c bc 6f 0f 97 bd db f1 17 bb fe 60 1e 3c
       -0.01709379 -0.073759906 -0.0023184929 0.009666679
000220 75 7f c3 3d 01 22 23 bd 12 8a 29 3d fd 0e 08 3d
       0.09545795 -0.03982735 0.04139144 0.03321742
000230 cd 10 2c 3d b6 c8 46 3d 38 df dd bd f4 71 4e bd
       0.04200821 0.048531257 -0.10833591 -0.050401643
000240 cb 98 b8 bd 01 5e 79 3d 77 2d b4 bd 14 83 9f bd
       -0.09013518 0.060880665 -0.08797734 -0.07788673
000250 c6 31 d1 bd 66 8c 22 be 71 76 15 3e 7c 6f 09 3e
       -0.10214572 -0.1587387 0.14595963 0.13421434
000260 94 dd ca bc 5f 29 02 bb 96 45 eb bb 19 65 0a be
       -0.02476386 -0.0019861085 -0.007179926 -0.13515128
000270 b1 84 00 3e e6 85 26 bc 51 6b 7b bd e9 54 fb 3d
       0.12550618 -0.01016376 -0.06138164 0.12272055
000280 d2 ef 23 3d cd 69 5b bd 09 b3 18 bc b1 08 18 3d
       0.040023632 -0.053567696 -0.009320029 0.037117664
000290 2d 9a ff 3c 1a 35 67 3d 3a 2e 7a 3b e4 89 94 3b
       0.031201446 0.056447126 0.0038174526 0.0045330394
0002a0 6b 7e ea bb 2b 56 ca 3d f1 fa db bc 31 a1 ff bd
       -0.0071561835 0.098797165 -0.026853057 -0.12481917
0002b0 fe 0e 79 bd 57 dc d4 3d 32 ba b5 3d d8 75 c2 3b
       -0.060805313 0.10393589 0.088734046 0.005934458
0002c0 3e a2 83 3b 9f 0c e4 bd 63 47 da 3d cc 2d 6a 3d
       0.0040171435 -0.1113522 0.10658147 0.05717258
0002d0 34 bb c2 bd 03 3e 8c bd 61 0a 4c 3d 9a 9a 96 ba
       -0.095083624 -0.06847765 0.049814586 -0.0011490167
0002e0 a1 57 ee bd 92 02 8e bd a4 41 8b 3d dd 76 93 3c
       -0.11637808 -0.06934084 0.06799629 0.018001014
0002f0 ba d1 eb 3c 8e f6 6c bd 92 d7 24 3d 58 5c b9 3d
       0.028786529 -0.05785232 0.040244646 0.09050816
000300 11 98 e5 3d 10 67 eb bc cf 44 dd 3c 0d fa 08 be
       0.11210645 -0.028735667 0.02701035 -0.13376637
000310 69 66 4b bd 40 d9 54 3d da 14 df 3c 30 a0 0d bd
       -0.049658213 0.051965 0.027231622 -0.034576595
000320 ed c8 a0 3c f5 4c 22 3d 5d e8 cb 3d 4d 40 b0 bd
       0.019627059 0.039624173 0.09956429 -0.086060144
000330 5d e0 ad bd a4 63 09 3d 1c 77 73 39 fa 76 cf 3d
       -0.084900595 0.03354229 0.00023218658 0.10130115
000340 da 1b 03 3e 4c c4 a3 3d c5 90 26 bd c5 18 d7 bd
       0.12803593 0.07996425 -0.040665407 -0.10502771
000350 7d 50 8e bd 07 aa c1 bd e3 d3 c3 bd e4 6d d1 3d
       -0.06948946 -0.09456258 -0.095618986 0.10226038
000360 ae 43 e1 bb 5e e9 9f 3d ff 3a af bd 85 47 af 3d
       -0.006874523 0.07808183 -0.085561745 0.08558563
000370 b7 05 d3 bc 34 eb c1 bd 4e 88 b9 bd aa 04 62 3d
       -0.025759561 -0.094686896 -0.09059201 0.05518023
000380 ba ef 07 3d da 00 ec 3d 4a 8a 57 3d 60 72 38 bd
       0.033187605 0.115236 0.052622117 -0.04503095
000390 34 76 83 3d 65 1a 8c bd cd 61 07 bd a0 f2 09 bd
       0.0641903 -0.06840972 -0.033052254 -0.03367865
0003a0 50 bc 2e 3d d5 c9 96 bd 92 5b 5c bd 40 d1 b3 3d
       0.042660058 -0.07362715 -0.053798266 0.08780146
0003b0 e2 51 a9 3d e4 7e d6 3c 95 13 f5 bd f3 61 77 3c
       0.08267571 0.026183553 -0.119666256 0.0150990365
0003c0 37 25 65 bd ff 90 6d 3d 7d 30 81 3d 7c 17 d6 3d
       -0.055943694 0.057999607 0.063080765 0.10453698
0003d0 96 cf 00 3e 25 94 fd 3b d3 c9 1d 3d 36 e1 6f bd
       0.12579188 0.0077386075 0.038522553 -0.058564387
0003e0 88 1f 93 3c 96 92 06 3e c5 f8 bd 3b 9e 34 18 3d
       0.017959371 0.13141856 0.005797478 0.037159555
0003f0 ce 81 e4 bc 0a 90 4f bd 82 49 e4 3d 33 13 a0 3c
       -0.027893927 -0.050674476 0.11146833 0.019540405

layers.1.bias f4 [64]
000000 8d 11 f9 3d ae f2 da bd 67 83 8e 3d e8 c3 bc bd
       0.12161551 -0.10690819 0.06958657 -0.09217054
000010 81 da 93 bd 63 58 00 bd 03 37 99 bd a3 cd d7 bc
       -0.07219411 -0.031334292 -0.07481196 -0.026343172
000020 4f af c3 3d de 20 d0 bd 0e 95 c3 3c 19 80 88 3d
       0.09554922 -0.10162519 0.023874786 0.06665058
000030 b0 ee a9 3d 6c 93 8e bd 2d 3f 99 bb a8 50 a1 3d
       0.08297479 -0.06961712 -0.0046767206 0.07876712
000040 87 b9 6c 3d 00 78 ee bc 4a 5c 1a 3d a6 46 7a bd
       0.05779412 -0.029109955 0.03768567 -0.06110253
000050 9a 3f 08 bd 97 5b c0 bd 20 22 87 3d fa 9c a6 bd
       -0.03326378 -0.093924694 0.06598306 -0.0813541
000060 bc ff 07 3d 6e 35 97 3d 25 b0 1d 3a 93 ad b3 bd
       0.03320287 0.07383238 0.0006015322 -0.08773341
000070 19 80 be bd 4d a3 78 bc c0 fe d1 bd 69 41 68 3d
       -0.093017764 -0.015175653 -0.10253668 0.056703005
000080 95 53 98 bd 59 b9 ab bd f9 42 ae 3d 67 7b 14 bd
       -0.07437817 -0.08384962 0.08508868 -0.0362505
000090 6a b8 fa 3d f5 22 e5 3d 57 e6 b0 3c f2 46 8d bc
       0.122422054 0.11188308 0.02159421 -0.017245743
0000a0 fb 6e bd 3d 3c 7d 83 bd 8a 35 8f 3d 44 ea 57 3d
       0.092496835 -0.06420371 0.06992634 0.052713647
0000b0 8f 05 b0 bd 44 14 cf bc f8 6b 66 bd ae 86 d9 3c
       -0.0859481 -0.025278218 -0.05625531 0.026553478
0000c0 16 8e a8 bd 9e 62 a1 3c 6b 9a dc 3d e3 a5 ea 3c
       -0.08230226 0.019700345 0.107716404 0.028643554
0000d0 30 ab e9 bd d3 db dd bc 64 25 ce bc cd 1a ba bd
       -0.114096045 -0.02708236 -0.025164314 -0.09087143
0000e0 40 94 01 3e cd 7e c7 3d 69 4a 9d 3d 43 95 bb bc
       0.12654209 0.09740982 0.07680208 -0.022898322
0000f0 0d a6 e4 3d cc 0e 99 bd 4d f7 b2 3d 84 a0 db bd
       0.11164484 -0.074735254 0.08738575 -0.10723975

layers.2.weight f4 [64, 64]
000000 08 c7 9c 3d 86 9c 16 be 69 86 8f 3d a4 4b 24 bc
       0.0765515 -0.14708146 0.070080586 -0.0100278
000010 bc b6 df bd 4f 14 18 be 3e 51 1c bd 69 84 fe bc
       -0.10923526 -0.14851497 -0.038163416 -0.031068997
000020 78 14 a7 3d c4 f3 d4 bd a6 e9 b8 bc c8 6c 87 bb
       0.08158201 -0.10398057 -0.02257235 -0.004132841
000030 fd 3f 72 bd 04 34 13 bc af 08 14 bd d4 0b 01 3e
       -0.059143055 -0.008984569 -0.036141094 0.12602168
000040 ae cb bd bd de 68 ae bd e0 d0 b4 bc 11 c1 6b bd
       -0.092673644 -0.085160956 -0.022072256 -0.05755717
000050 a9 79 3e 3d d1 97 a1 3d f7 37 95 3d 57 37 b9 3c
       0.046502743 0.07890285 0.07286065 0.022609396
000060 3f 47 d3 3d 67 f9 a8 3d c3 35 d5 bd 52 0c 06 be
       0.103163235 0.08250695 -0.10410645 -0.13090637
000070 41 a1 45 bc da f6 6c b9 52 eb a8 bd 5a ef f4 bc
       -0.012062372 -0.00022598673 -0.08248009 -0.029899288
000080 40 a7 34 bd d6 50 c2 3d dd 2d 90 bd 51 65 25 3a
       -0.044104815 0.094880745 -0.07039998 0.0006309348
000090 3c 2b 23 3d d3 79 af 3d 5d dc f6 bd 52 4f 21 bd
       0.039836153 0.08568158 -0.1205375 -0.039382286
0000a0 09 35 66 3d 8c 74 b9 bc c0 e5 c0 3d 72 14 e5 3d
       0.056202922 -0.022638582 0.09418821 0.1118554
0000b0 7f 31 dc bb 1d ef 02 3e cc ce c3 3d 76 74 e0 bd
       -0.0067197676 0.12786527 0.09560928 -0.10959713
0000c0 01 66 03 3d ae 3b 17 3d 82 d2 a9 3d a6 80 4f 3d
       0.0320797 0.03692215 0.08292104 0.050659798
0000d0 67 59 08 bd 49 a9 63 3d e2 7e fa bd aa 26 1c 3d
       -0.033288386 0.055581365 -0.12231232 0.03812281
0000e0 65 d5 e7 bd 1a 9e 20 bd 16 d7 9a 3c 2c 51 ea 3c
       -0.11319999 -0.039213277 0.01890139 0.028603159
0000f0 03 3a ad 3b 65 a0 5b 3d 76 07 29 3c 79 49 e5 3d
       0.0052864566 0.05361976 0.01031672 0.111956544
000100 39 3b 53 bc e2 11 84 3d 1e 2c 59 bd 1e ae d5 bd
       -0.012892538 0.064487234 -0.05302059 -0.10433601
000110 5a d3 26 3d 60 9f 3f 3b ea 7c f2 3c cc bb e9 bd
       0.040728904 0.0029239282 0.02960058 -0.114127725
000120 64 09 b6 bc 70 55 24 3d 2e 47 59 bc b6 61 9a 3d
       -0.022221275 0.040120542 -0.0132615995 0.07538168
000130 55 1a bf 3b 14 fb af 3c 06 17 b8 3c 84 71 a2 3d
       0.0058319964 0.021482028 0.022471916 0.07931808
000140 1c 6d 02 3c 9b 2c c6 bd 86 fc 07 bc be d7 8c 3d
       0.007960584 -0.096764766 -0.008299952 0.06877087
000150 43 27 8b bc 9e 6e 94 bd db 8d 94 3d 69 b6 55 3d
       -0.016986495 -0.07247661 0.07253619 0.052175913
000160 f7 2a b9 bd a7 b4 03 bd 23 1f 8e bb 73 53 ed bd
       -0.09041398 -0.032154705 -0.004337208 -0.11588182
000170 9f e1 9d bd 55 79 ee 3d 14 da 89 3d 4d 86 65 bd
       -0.077090494 0.11644236 0.06731048 -0.056036282
000180 49 9c 80 3c 8c 73 c8 bd 4d 4a 8a 3c 5e 6b 85 bc
       0.015699523 -0.09787664 0.016881132 -0.016286548
000190 59 d2 10 3d 9c e7 b6 bd 3a 19 11 be 5c 19 af bd
       0.035356853 -0.08930895 -0.1416978 -0.08549759
0001a0 63 0d 67 3c 08 e2 14 3d 86 28 94 3d e3 44 f9 bc
       0.014102313 0.036348373 0.07234292 -0.030428356
0001b0 c4 76 dd 3d e1 b6 a1 3d 31 69 01 3e 1c b3 a0 3d
       0.10813668 0.078962095 0.12637784 0.078466624
0001c0 0f e7 12 3d 8d d1 9d 3d 2c 50 92 bd 0e 16 39 3c
       0.035864886 0.07705984 -0.07144198 0.011296762
0001d0 1c 85 54 3d 2b a0 4d bd 73 98 3b bd 52 db 92 bd
       0.051884755 -0.050201576 -0.045799684 -0.07170738
0001e0 a1 58 98 bd 75 20 54 bd 9e 6c 7c bd 6c 9e af 3d
       -0.074387796 -0.051788766 -0.061627023 0.085751384
0001f0 c4 1b ab 3d 3c c0 e2 3d ee 9f 27 bd 8e e1 be 3d
       0.08354905 0.11071822 -0.040924005 0.09320365
000200 45 ac 76 3d ad 06 13 bd fe 83 93 bd 45 59 cb 3d
       0.060222883 -0.03589504 -0.0720291 0.09929136
000210 f3 29 b7 bd 71 de eb bd bf 14 36 bd 58 e7 23 bc
       -0.08943548 -0.11517037 -0.04445338 -0.010003887
000220 e8 35 03 be be f5 1e 3c 85 d9 b3 3b 55 10 bd 3d
       -0.12813532 0.009702144 0.005488577 0.09231631
000230 7f f9 74 bd cc 3c bc 3d 33 c1 4d 3d cf 4f 20 bd
       -0.05980825 0.091912836 0.050233077 -0.03913861
000240 8b b7 10 bd ef 52 7c 3d 78 3b 08 be 9a f8 21 bd
       -0.03533129 0.06160253 -0.13303936 -0.039543726
000250 74 73 24 bd 9e 2e 19 bd 34 cc 89 3c 31 7a 05 be
       -0.040149167 -0.037397973 0.016821004 -0.13034894
000260 03 f9 8a bd 96 a9 73 bd 6f cc 00 3e 9f 6b aa 3d
       -0.067857765 -0.0594879 0.12577985 0.08321308
000270 b7 55 ae 3d aa f6 f1 bd f2 70 81 bb bf 7f 39 3d
       0.085124426 -0.118146256 -0.0039502317 0.045287844
000280 3b 9c a5 bd 78 03 52 bd cb 04 04 3e d0 2f c4 bc
       -0.08086439 -0.05127284 0.12892453 -0.02394858
000290 3b b7 1a bd 0f 96 77 bc 1f f2 44 bd f9 98 97 3d
       -0.0377724 -0.01511146 -0.048082467 0.07402224
0002a0 ed b3 e1 3b 17 04 06 be e6 bc 02 bd 7b f5 d1 bd
       0.006887904 -0.13087498 -0.03191843 -0.102519
0002b0 b9 65 da bd a5 c0 92 3d ac d5 41 3c 1e e5 de bd
       -0.10663933 0.0716565 0.0118307285 -0.108835444
0002c0 4c cf 9c 3d 97 01 be bd da 8d 93 bd 95 e3 92 bd
       0.07656726 -0.09277647 -0.072047904 -0.07172314
0002d0 73 42 b3 bd ee 66 f2 3d 1b c3 ef bd c7 44 9c 3d
       -0.087529086 0.118360385 -0.11707135 0.07630306
0002e0 61 cd b3 bc a4 db ef 3d b7 43 db 3c b5 48 6c 3d
       -0.021948518 0.11711815 0.026765687 0.057686526
0002f0 58 9e 09 bd e6 f9 02 3d 40 e8 9d 3d c8 23 b8 3d
       -0.033598274 0.031976603 0.07710314 0.089912
000300 d3 d1 3c bd 7b 56 c1 3d 0c 8a 88 bd fd 9a d0 3d
       -0.04609854 0.09440323 -0.06666955 0.10185812
000310 2e e1 57 3d fa c9 bd bc 7a 3f 04 bd fa d9 20 bd
       0.052704982 -0.023167599 -0.0322871 -0.03927038
000320 0b 65 4c 3d 01 cf 82 bd ae 54 16 be d3 65 df 3d
       0.04990105 -0.06387139 -0.1468074 0.10908093
000330 67 80 be 3d 84 3a 91 bd 5b 73 bf bc 41 b2 89 3d
       0.093018346 -0.07091239 -0.023370435 0.06723452
000340 70 1b 20 3b a5 96 c4 3d 9c 19 c9 3d 5e 39 bc 3d
       0.0024430417 0.09599046 0.09819338 0.091906294
000350 c4 7a d4 3d 6e fd ad bd 42 45 0b 3e 38 dc c7 bd
       0.10374978 -0.084956035 0.13600639 -0.097588
000360 a6 a2 e5 bd 15 55 13 be 0f 23 9b bc 7f 4b 28 3b
       -0.11212663 -0.14387925 -0.018937616 0.0025679765
000370 10 94 fb 3d c9 98 9c bd 39 cf 01 3e 73 9c af 3d
       0.122841 -0.07646329 0.12676705 0.08574762
000380 d5 06 85 3d bc 9c 93 3d d4 28 db 3c 28 94 29 bb
       0.06495444 0.07207629 0.026752867 -0.0025875662
000390 4a 21 0b 3c 6d 41 6f bc ca e3 68 bd 85 52 12 bd
       0.008491823 -0.014603001 -0.05685786 -0.035723228
0003a0 fa ed 01 be 14 ee c4 bd 3d ff be bd 90 b9 3a bd
       -0.12688437 -0.09615722 -0.093260266 -0.045587122
0003b0 f8 4e f6 3d f4 06 97 bd ed 1f f1 3b 2a ef ac 3d
       0.12026781 -0.07374373 0.007358542 0.084440544
0003c0 98 9d 75 3d 37 5d e7 bd 17 e2 8e 3d 77 99 0f bc
       0.059964746 -0.11297076 0.06976717 -0.008764616
0003d0 81 d0 8a 3a c1 54 23 bd de 69 90 bd 66 ea 25 3d
       0.0010590703 -0.03987575 -0.070514426 0.040506743
0003e0 99 1b f3 3d 19 1c c5 bc a0 1d 2a 3d 85 ac ba bd
       0.11870498 -0.02406125 0.04153216 -0.09114937
0003f0 1f c9 98 bd f4 3f 02 3e f9 02 49 bc 67 9c 5b bd
       -0.07460236 0.12719709 -0.012268775 -0.053615954

layers.2.bias f4 [64]
000000 83 95 00 3e 12 11 e4 bd ae 6c 80 3c c7 34 5b bd
       0.12557034 -0.111360684 0.015676823 -0.05351713
000010 38 51 da bd 37 6b df bd a1 1c cb 3d b6 6a e5 3d
       -0.106600225 -0.109091215 0.0991757 0.11201994
000020 38 91 ee 3d 56 35 b2 bd da 79 1a bb 87 46 9c 3d
       0.11648792 -0.08701579 -0.0023571164 0.076306395
000030 95 54 8b bd ec ab 8e bd c4 36 8b 3d 67 5a b9 3d
       -0.06803242 -0.06966385 0.06797555 0.09050446
000040 fb 86 8c bd 87 13 85 3d ff 8a ea bc 64 c7 83 3d
       -0.06861683 0.06497865 -0.028630732 0.06434515
000050 af a5 ba 3d 38 d2 80 3d cc 28 c9 3d 73 77 a8 ba
       0.09113633 0.06290096 0.098222345 -0.0012852981
000060 a2 87 23 bd 5f f4 38 bc 1d 66 87 3d 2e 72 03 3e
       -0.03992427 -0.011288731 0.066112734 0.12836525
000070 80 10 c9 bd d9 1e 87 3d c1 18 9b 3d 83 f6 15 3c
       -0.098176 0.065976806 0.07573081 0.009153011
000080 8e ae 7f 3d 7c 53 76 bc 8f b2 11 bc 2a f5 aa bd
       0.062422328 -0.015034553 -0.008892669 -0.083475426
000090 94 bc ae 3c 62 ff d9 3d 45 9f 35 3d 2f 20 93 bd
       0.021330155 0.106444135 0.044341344 -0.07183873
0000a0 26 ce fa 3d bc 00 e6 3d 06 f1 dc 3d a7 92 96 bd
       0.12246351 0.11230609 0.10788159 -0.073521905
0000b0 42 89 a1 bd 25 22 8c 3b 0a 01 94 bc 8f b2 64 bd
       -0.07887508 0.0042765313 -0.018066902 -0.05583435
0000c0 a0 90 fe 3d a7 70 e9 3d 16 11 30 bd 29 de 19 3d
       0.12429929 0.1139844 -0.042985044 0.037565384
0000d0 32 1f a8 3d ad 57 20 3c 30 e0 c5 bb 62 da c5 bd
       0.08209075 0.009786529 -0.006038688 -0.09660794
0000e0 b1 55 c4 3d 66 2b e7 3d a3 9e 92 3c 83 71 e5 bc
       0.09586657 0.112875745 0.01789791 -0.028008228
0000f0 29 da ce bd d1 f9 52 bd ee f5 d6 3d 29 3f e6 3d
       -0.101002045 -0.051507775 0.10496126 0.112425156

layers.3.weight f4 [64, 64]
000000 71 ae 1f bd 7b 86 8c bd cf 1d 2d bd ce 49 e8 bd
       -0.03898472 -0.068615876 -0.042264756 -0.11342202
000010 30 61 7f 3d 2e 77 3e 3d 50 c3 ad 3d 33 c2 d8 3c
       0.062348545 0.046500377 0.084845185 0.026459789
000020 ef b1 5d bd b4 30 fa 3a c8 02 70 bc fd 4b 8e 3d
       -0.05412477 0.0019088001 -0.014649101 0.06948087
000030 f2 ef 01 be eb 24 8a 3d 4e 83 8b 3c ad 33 ac 3d
       -0.12689188 0.06745323 0.017030384 0.08408294
000040 61 7d c6 3c 28 dd 97 bd 18 33 ba bd a9 e1 3d bd
       0.024229707 -0.07415229 -0.090917766 -0.046357784
000050 1b ad cc bd 61 c6 d9 bd 19 36 cf bd 09 63 89 bd
       -0.09993955 -0.10633541 -0.1011774 -0.067083426
000060 d6 89 50 3d 7d e8 cf bc b5 bc 7e bd c9 31 5a 3d
       0.0509127 -0.025379414 -0.062191684 0.053270135
000070 ad 85 a3 bd 7d 47 b5 bc d2 c2 4b bd 23 fa d7 bd
       -0.07984481 -0.022128815 -0.049746342 -0.10545757
000080 b4 d7 78 bd 94 ad ee 3d d3 61 f5 bc c0 cf 54 3d
       -0.060752586 0.11654201 -0.029953873 0.05195594
000090 7f d1 44 bc 68 1e d2 bd 33 bd 8d 3d b1 00 76 bb
       -0.012012838 -0.10259706 0.069208525 -0.0037537033
0000a0 9c b1 5d bd 17 8d cf 3d d9 37 ca 3d 80 d8 dd bc
       -0.05412446 0.101343326 0.09873933 -0.027080774
0000b0 81 17 ec 3d 46 ae f3 bc 3a 5b fb 3c ba 8c 97 3d
       0.115279205 -0.029746186 0.030683149 0.07399888
0000c0 5d 41 16 be 35 df 54 bb 60 79 95 bc 72 d5 ab 3d
       -0.14673372 -0.0032481675 -0.018246353 0.08390321
0000d0 de 3e bb bd 7e 4e 97 ba 0f fb e5 3d 32 42 a4 3d
       -0.0914285 -0.0011543778 0.11229526 0.08020438
0000e0 00 6b 43 bd f2 23 a9 bd f2 2f 42 bc 75 52 e4 bd
       -0.047709465 -0.08258809 -0.011852251 -0.1114854
0000f0 ac e4 93 3d 5b 83 00 bd 14 77 cd 3d 77 38 02 3e
       0.0722135 -0.03137527 0.10032478 0.12716852
000100 3e 88 c1 bd a6 89 d1 3d 91 34 f0 bd 07 5a 47 bd
       -0.09449814 0.102313325 -0.11728776 -0.04866984
000110 15 65 5f 3d 78 26 3c bd c3 40 d2 bb 2d 92 c0 bd
       0.05453976 -0.045935124 -0.0064164116 -0.09402881
000120 f4 92 da 3c d6 72 91 bc 80 a2 65 bd 13 07 80 bd
       0.0266814 -0.017754953 -0.056063175 -0.06251349
000130 d2 f2 ef 3d 4b db 82 bc ac 0e 8c 3d 2d 67 1f 3d
       0.11716236 -0.015973708 0.06838736 0.038916755
000140 4f 92 c4 3b 76 75 bf bd c5 29 d8 3d 15 9d 7e bd
       0.0059988867 -0.09348576 0.10554842 -0.062161524
000150 15 7c bc bb f9 64 fe 3d 96 d0 3d bd d5 53 af 3d
       -0.0057520964 0.12421603 -0.0463415 0.085609116
000160 eb 53 d6 bd a9 3f e9 bd 84 b2 c3 3c 3b e6 3b 3c
       -0.10465225 -0.11389095 0.023888834 0.011468465
000170 f7 29 c8 bd b2 09 a5 3d 08 42 60 3d bc 63 fa bb
       -0.09773629 0.0805849 0.054750472 -0.007641284
000180 5d 25 1c bc 96 98 7c 3d 27 9f bb bd 3c 37 8b 3d
       -0.0095303925 0.061668955 -0.09161215 0.067976445
000190 67 24 86 bd 68 2a 46 3b 33 3a be bd 3f 18 aa 3d
       -0.06549912 0.0030237678 -0.09288444 0.08305406
0001a0 8b cd 5a bd 27 a6 3c bd 44 c2 ea 3c 1b 4d 8b bd
       -0.053418677 -0.046056893 0.028657086 -0.06801816
0001b0 6e 15 2e bc 91 8d f1 3d 76 54 bd 3c 4f 42 ff bc
       -0.010625226 0.1179458 0.023111563 -0.031159548
0001c0 84 83 1c bd ee 6e a4 bd ec 26 99 3d 6f b3 86 3c
       -0.03821136 -0.08028971 0.07478127 0.016442982
0001d0 2e 3b 07 3e 69 d3 9d bd 1a 9b 4a bd 20 b7 0c 3c
       0.13206169 -0.07706339 -0.049464323 0.008588582
0001e0 64 1b d3 bd 5c 94 b8 3d 43 68 a5 bd fd ad e7 bd
       -0.10307959 0.09012672 -0.08076527 -0.113124825
0001f0 83 89 12 bd f4 29 a0 bd f5 91 1a 3d 31 ea 3a 3c
       -0.035775673 -0.07820502 0.03773685 0.011408375
000200 40 3b ea bd 60 d2 ac 3d e1 7e 6a bd 4f c0 c6 3d
       -0.11437082 0.08438563 -0.057249907 0.09704649
000210 47 8e fb 3d 6a 3d f3 3d fe 2b af 3d 74 3c 9c 3d
       0.122829966 0.11876948 0.08553313 0.07628718
000220 46 b9 90 bd b4 d1 43 bc 77 d4 47 3d c1 6e d7 bd
       -0.07066588 -0.011951853 0.048786607 -0.105191715
000230 49 47 d0 3d b9 99 8f 3d fc c8 87 bc 8e 54 c0 3d
       0.101698466 0.07011742 -0.016575329 0.093911275
000240 34 a2 bc bd 2a 69 31 bc 08 66 59 bd 56 97 02 be
       -0.09210625 -0.010828296 -0.05307582 -0.12753043
000250 c9 3c 98 bd c5 60 ea 3d 0d 8c f5 bd 14 4f 03 bd
       -0.07433469 0.114442386 -0.11989603 -0.032057837
000260 8b a2 7a bd e5 6b ff bd 49 b8 dd bd db 94 07 3e
       -0.06119017 -0.12471751 -0.10826165 0.13240378
000270 cd 3b 04 3e 4c fc e1 3c bd 24 c1 bb 6d 9b df 3d
       0.12913437 0.027586125 -0.005894272 0.10918317
000280 89 1b ee bd 4b f3 c0 bd 40 ce 70 3d e8 9b ba 3c
       -0.11626346 -0.094214045 0.058790445 0.02277942
000290 20 f5 87 bd 5d a9 22 bd 7a b9 62 bd c1 09 88 bc
       -0.06638551 -0.0397123 -0.055352665 -0.016606214
0002a0 41 ea f6 3d d5 2b 87 bd 90 1b a6 3d d0 8a c1 bc
       0.12056399 -0.06600157 0.08110726 -0.023625761
0002b0 33 b0 e2 3d 04 cb 2c 3d 49 93 bf bd a0 0d c7 3c
       0.110687636 0.0421858 -0.09354264 0.02429849
0002c0 63 f4 e2 3d 4a 07 99 bc fd 48 a9 3d 29 8c ac 3d
       0.11081769 -0.018680234 0.082658745 0.08425171
0002d0 a5 e0 f7 3d af e5 4b bc fd 95 c6 bd 32 ac a4 bd
       0.121033944 -0.012444898 -0.09696577 -0.08040656
0002e0 41 7a ce 3d fa 99 b9 3d 39 88 1f be fb 65 85 bb
       0.10081912 0.09062572 -0.15579309 -0.004070995
0002f0 db 3d 22 3d 6a bf eb bd 5b de 62 bc a9 7f 8b 3c
       0.03960977 -0.11511119 -0.013846959 0.017028647
000300 7a 36 1e 3d 86 9c d4 3d ef 28 5f bd ca 2e 03 be
       0.03862617 0.10381417 -0.054482397 -0.12810817
000310 cf c4 e8 3b 0f 82 d7 bc 37 b6 8a bd 90 04 8d bd
       0.0071035395 -0.026307134 -0.06773036 -0.06885636
000320 d0 77 99 3c 05 45 ce 3c e1 2a 7c bd 2a 46 8d bd
       0.018733889 0.025179395 -0.06156433 -0.06898148
000330 58 27 ee 3d 09 c6 71 3d 73 0f b9 bd 4c ff a1 bd
       0.11628598 0.05902675 -0.0903615 -0.07910022
000340 6b 64 db bb 53 78 c1 bd da eb 9c 3d 7c f9 db 3c
       -0.0066953204 -0.09446778 0.076621726 0.026852362
000350 bb d2 3c bd 58 2e 07 bd 03 d4 8a 3d e9 6b 9e 3d
       -0.046099406 -0.03300318 0.06778719 0.07735426
000360 5c 08 e1 bd 22 2e ad 3d fe 0c 4e 3d 12 b0 ad 3b
       -0.109879225 0.08456065 0.05030536 0.00530053
000370 31 74 e7 3c e9 1d 81 3d 29 56 d4 bd f8 5f 9a 3d
       0.028253647 0.06304533 -0.10367996 0.07537836
000380 a5 63 86 3d 04 ab 8b bb cb 38 92 3c 23 34 38 3d
       0.065619744 -0.00426233 0.017849347 0.044971596
000390 f2 31 10 3d 11 5c bf 3d c5 d9 d0 3c 62 72 92 3c
       0.03520388 0.09343732 0.025494466 0.017876808
0003a0 e0 37 bc 3d fd f7 ac 3d 56 b6 d4 bd cc 7f 58 bc
       0.09190345 0.084457375 -0.1038634 -0.013214063
0003b0 e2 ca f9 3d d0 be 30 3d a7 65 c5 3d 0c 70 4c 3b
       0.121969 0.043150723 0.09638529 0.0031194715
0003c0 83 f4 c0 3a 51 89 ee 3d 0b 1c c8 3c 5a 40 87 bd
       0.0014721308 0.11647285 0.024427434 -0.06604071
0003d0 bd ae b0 3c 00 b6 73 bd 3e 0f 7b 3d 31 d0 c8 3d
       0.021567697 -0.05949974 0.061293833 0.09805334
0003e0 db 91 b5 3d d6 8f 8a 3d 2e c6 35 bd 62 ec c0 3b
       0.0886571 0.06765716 -0.044378452 0.005887554
0003f0 5a 21 85 3d 7b ac 02 be 96 c3 7f 3d 0b ab af 3d
       0.06500502 -0.12761109 0.062442385 0.08577546

layers.3.bias f4 [64]
000000 6b 95 c5 3d c7 f8 de 3c a2 96 8e bd 9d 86 f8 3d
       0.0964764 0.027218236 -0.06962325 0.121350504
000010 36 ec b1 bd 77 60 8f bd 05 f1 df 3c 21 f5 9f bd
       -0.08687632 -0.07000821 0.027336607 -0.078104265
000020 95 b1 5c 3c 5c 30 cf bd 63 68 de bc 4b de df bd
       0.013470073 -0.10116646 -0.027149385 -0.10931071
000030 54 62 8a bd 83 2b 21 3d 39 04 9a 3c bd 76 28 bd
       -0.06757036 0.039348137 0.018800842 -0.041128863
000040 6c b5 8c 3d d8 54 14 3d 27 59 cb 3d 2e 37 cc 3c
       0.06870541 0.036213726 0.09929114 0.024928655
000050 e3 2f 04 3d 85 70 fa 3c 35 33 97 3d 70 11 e0 bd
       0.03227223 0.030571232 0.07382814 -0.10940826
000060 3d b8 f2 bd 79 a8 af 3d 33 7e ea bd 9d 5a 48 bd
       -0.11851547 0.085770555 -0.11449852 -0.04891454
000070 c1 e6 2c bd 8c 69 97 bc 3e 8a bb bd 46 bd 93 3d
       -0.04221225 -0.018482946 -0.09157227 0.072138354
000080 c4 ce 85 3d 33 b9 c7 bd 44 61 2c bc 75 2c 44 3d
       0.06533578 -0.09752121 -0.010521237 0.04789396
000090 8a 67 d1 ba c9 28 a7 bd 08 37 f9 3d eb 5f 00 bd
       -0.0015976292 -0.08162076 0.121686995 -0.031341475
0000a0 c4 06 bf bd c3 e0 71 bc 6d 95 0c bd 78 81 00 bd
       -0.09327462 -0.01476306 -0.03432219 -0.03137347
0000b0 bf 81 99 3d 03 cf a6 3c 7c 92 63 bc 77 b1 5c bd
       0.0749545 0.020362383 -0.013889905 -0.05388018
0000c0 f0 46 7d 3d 57 a2 d6 bd c4 b6 42 3d 40 50 5c 3d
       0.06183523 -0.104801826 0.04753758 0.05378747
0000d0 e1 da 00 3d 27 d5 cf 3c 15 8f 97 bd e5 39 f0 3d
       0.03145874 0.025370194 -0.074003376 0.117297925
0000e0 fd b1 ba bc ba eb 3c 3d b6 c1 ae bc d3 6e 8c bd
       -0.02278995 0.046123244 -0.021332603 -0.068570755
0000f0 4f 5c 81 3d 80 36 00 3e bc af 81 3d 7c e9 fd bb
       0.063164346 0.1252079 0.06332347 -0.007748781

layers.4.weight f4 [64, 64]
000000 b6 0a 88 3d 92 70 d6 bd 90 c3 05 3c 80 43 88 ba
       0.06642668 -0.1047069 0.0081643015 -0.0010396093
000010 dc b5 a8 bd dc 9b 0f 3d c6 09 bf bd 26 74 bb bd
       -0.08237812 0.03506075 -0.09328036 -0.09153013
000020 ee 06 eb 3d 3c 33 16 3d 74 90 06 3d c8 e3 bf 3d
       0.11475931 0.036669955 0.032852605 0.09369618
000030 f8 d3 2c bd 4e 61 b7 3d d0 ff 3e bc c0 41 76 bb
       -0.042194337 0.08954106 -0.01165767 -0.003757581
000040 44 a8 bb bd 48 04 d3 bd 68 00 69 3d a0 7f 42 3d
       -0.091629535 -0.10303551 0.056885153 0.047484994
000050 00 58 e1 39 28 f3 60 bd b8 85 45 bd 00 de 95 b9
       0.0004298091 -0.054919392 -0.048223227 -0.00028584898
000060 26 3b d6 bd ae 81 83 bd 26 c5 f2 bd 10 85 3e bd
       -0.104605004 -0.06421219 -0.11854009 -0.046513617
000070 b8 33 73 bd bc 5b 9b 3d 48 70 9c 3c ae c8 8d 3d
       -0.059375495 0.07585856 0.019096509 0.06923042
000080 18 55 b0 bc 3c 30 f6 bd 20 79 43 3d 2c 9e f8 3d
       -0.02152495 -0.12020919 0.047722936 0.12139544
000090 e0 12 fb 3c d8 f0 f6 3c 10 68 88 3d 3c f7 3c bd
       0.030648649 0.03014414 0.06660473 -0.04613422
0000a0 52 f5 f2 bd cc e2 df 3d 94 be c1 bd c0 9b 06 3b
       -0.118631974 0.1093193 -0.09460178 0.0020539612
0000b0 c8 9d b9 3d c4 0b 65 bd aa ed 8d 3d a0 43 9e bd
       0.090632975 -0.055919424 0.069300964 -0.07727742
0000c0 90 50 ca bc a8 39 44 3d de 97 f3 3d a8 b2 f1 3c
       -0.024696618 0.047906548 0.11894201 0.029504135
0000d0 98 48 ef 3d 3c 92 0f 3d 64 2c 7c 3d 10 c4 5b bd
       0.11683768 0.03505157 0.06156577 -0.053653777
0000e0 ae 62 de bd d0 bb 81 bc 90 48 ae bc 06 0b d7 3d
       -0.108586654 -0.015836626 -0.021274835 0.105001494
0000f0 a0 61 eb bc a4 f9 5f bd fa 62 94 bd 00 56 4f bd
       -0.028733075 -0.054681435 -0.07245441 -0.050619125
000100 e2 0e ec bd 48 d5 b6 3c 34 6f a5 3d b8 50 d8 3c
       -0.11526276 0.022318497 0.08077851 0.026405677
000110 40 81 af bc 00 9c 45 bb 9c e0 a9 bd d0 92 f1 bc
       -0.021423936 -0.0030152798 -0.08294794 -0.029488951
000120 b0 a5 6f bd 80 9f dd 3d d4 4d bb 3d 78 5b 9a 3c
       -0.05850762 0.10821438 0.09145704 0.018842444
000130 ee dc d9 bd 10 3f 61 bd f8 f8 ff 3d a8 06 ab bd
       -0.10637842 -0.05499178 0.12498659 -0.08350879
000140 58 23 af 3c 80 7e e4 3b 88 46 e6 bd 8c 56 17 3d
       0.021379158 0.006973088 -0.112439215 0.036947772
000150 f0 21 00 3d 1c 0f 0d 3d e0 8a 71 bd 5a 2e fc 3d
       0.031282365 0.034438238 -0.058970332 0.12313528
000160 c0 47 cd 3c f4 78 63 bd bc 60 11 3d a0 53 8c bc
       0.025058627 -0.05553527 0.035492644 -0.01712972
000170 de 56 a8 bd c8 d2 8b 3c b6 45 8b bd 00 02 6d 3d
       -0.082196936 0.017068282 -0.06800406 0.057863235
000180 90 8e 96 bd 5c 3d 58 bd 60 7d 0b 3d a0 08 9c bc
       -0.073514104 -0.05279289 0.034055114 -0.019047081
000190 78 13 bf 3d a8 53 af bc 58 7e d1 bc 50 f6 35 bd
       0.09329885 -0.021402195 -0.02557294 -0.044424355
0001a0 98 97 f6 3d 38 1e bc 3c 4c 73 c8 bd 7c 9f 14 bd
       0.12040633 0.022963628 -0.09787616 -0.03628491
0001b0 7c 8d df bd 86 15 b0 bd cc a5 de 3d c0 ec ca bb
       -0.10915658 -0.08597855 0.10871467 -0.0061927736
0001c0 90 f7 a1 3c 7a 4e fb bd 3e 01 9a bd b0 68 27 bd
       0.019771367 -0.122708276 -0.07519768 -0.040871322
0001d0 ac 07 98 bd ec e6 2d 3d ee 7f a9 3d 74 9d f4 3d
       -0.07423338 0.042456552 0.08276354 0.11944094
0001e0 92 8f bf 3d 50 dd 08 3c 10 d8 0b 3d 20 e2 92 3b
       0.09353556 0.008353546 0.0341416 0.0044825226
0001f0 24 df 3d bd c0 d8 b6 bd d8 62 b3 bd 02 4a 8e bd
       -0.04635538 -0.089280605 -0.08759087 -0.069477096
000200 e0 e8 c7 bd 5c 82 65 3d c2 3c a8 bd 40 cd 53 bd
       -0.09761214 0.056032524 -0.08214714 -0.051709414
000210 08 8a af bd b6 53 c0 3d 00 df 47 bd 64 c7 45 3d
       -0.08571249 0.093909666 -0.048796654 0.048285857
000220 58 9a d9 3d 00 6d fe 3a 00 0e 2c 3a 4e 36 d3 3d
       0.10625142 0.0019411147 0.00065633655 0.10313092
000230 fe 6e c4 bd f0 b2 2b bd fc 79 10 bd 48 05 10 bd
       -0.095914826 -0.041918695 -0.035272583 -0.035161287
000240 60 63 b0 3c f4 66 fd 3d 20 a7 83 bd 42 11 f3 3d
       0.02153176 0.123731524 -0.06428361 0.11868526
000250 28 82 0a 3d ec 43 ce 3d 20 81 61 bd 36 dd c9 bd
       0.033815533 0.10071549 -0.055054784 -0.09856646
000260 e0 2b aa bd 28 ed d3 3c c0 2f b4 3c f2 ce fa 3d
       -0.0830915 0.02586992 0.021995425 0.12246503
000270 b4 ff cc 3d 1e 67 a6 bd 94 8d f6 bd d8 6d 10 3d
       0.10009709 -0.08125137 -0.12038723 0.035261005
000280 28 75 d0 3c 20 eb 46 bc 62 84 ac 3d 50 87 d9 bd
       0.02544649 -0.012141019 0.084236875 -0.10621512
000290 70 1e 65 3c d6 a1 aa bd 28 e4 be 3c 90 fd d4 3d
       0.013984308 -0.08331649 0.023302153 0.10399926
0002a0 72 24 a0 bd 78 fe 18 3d 58 e3 f1 bd ec 87 11 bd
       -0.078194514 0.037352055 -0.118109405 -0.035530016
0002b0 56 a3 97 3d dc 5f bd bd 18 6b fe 3c 2c 6f 26 3d
       0.07404201 -0.09246799 0.031056926 0.040633366
0002c0 f0 64 14 bd 30 94 53 3c fe 7e ab bd 0e b8 b3 3d
       -0.036229074 0.012913749 -0.08373831 0.0877534
0002d0 68 7e 2c bd f2 b1 d3 bd e4 4f 27 bd 9c 41 d4 bd
       -0.042112738 -0.10336675 -0.040847674 -0.103640765
0002e0 e0 b5 5b bd 60 32 3f 3d bc 50 65 bd 70 38 9d bc
       -0.053640246 0.0466789 -0.055985197 -0.01919195
0002f0 04 34 14 bd 66 13 da bd 04 3f 14 bd c8 07 fa bc
       -0.03618242 -0.10648231 -0.03619291 -0.030521289
000300 98 32 1b 3d d0 fc f6 bd 3a 05 b3 bd d4 18 fa 3d
       0.037890047 -0.12059939 -0.08741231 0.12211767
000310 88 23 de 3c 8c f5 67 3d a0 f8 77 3d b4 5f c4 bd
       0.027116552 0.056630656 0.06053984 -0.095885664
000320 68 4a c1 bc 4c 6f 83 3d d6 68 da bd 6a 2f dd bd
       -0.02359505 0.064177126 -0.10664527 -0.10800059
000330 1c 63 e9 bd 98 2e bb bc 56 1c 82 3d a0 28 72 3d
       -0.11395857 -0.022849366 0.06353061 0.059120774
000340 7e e3 f7 bd c0 11 d6 3d b4 64 bd 3d e0 08 df 3d
       -0.121039376 0.10452604 0.09247723 0.10890365
000350 64 5a d3 bd b8 68 f0 3c b6 20 a7 bd bc 37 3f bd
       -0.10319975 0.029346809 -0.08160536 -0.04668401
000360 d0 0e 0f bd e8 c1 ab 3c 80 82 b2 3c b0 d2 a3 3c
       -0.034926236 0.020966485 0.021790743 0.019997925
000370 50 e0 07 3c c8 02 5c 3d 8a 7f c6 3d 54 a7 97 3d
       0.008293226 0.05371359 0.09692295 0.07404962
000380 f4 35 6a bd a4 bd 35 bd 8c 41 d2 bd 5c 1a 08 bd
       -0.05718036 -0.04437031 -0.10266408 -0.033228263
000390 ac 55 71 3d 22 ab fe bd 60 34 bf 3b 68 f0 b5 3c
       0.058919594 -0.12434985 0.005835101 0.022209361
0003a0 40 bc 9f bb 00 15 9f 3b 48 08 e6 3d ec b9 0d 3d
       -0.004874736 0.0048547983 0.11232048 0.034601137
0003b0 22 98 cb 3d 00 87 d5 bd d0 12 b3 bc 7a 2f b3 bd
       0.099411264 -0.1042614 -0.021859556 -0.0874929
0003c0 18 2f 5e 3d b0 5a 9b 3c 62 91 f9 3d 70 39 fb 3c
       0.05424413 0.018964142 0.12185933 0.030667037
0003d0 10 07 7c bc aa 56 8c 3d 24 95 8f 3d 58 cd 9f 3c
       -0.015382543 0.06852467 0.07010868 0.019507095
0003e0 10 51 a2 3d d8 a6 fa 3d ea df de 3d a8 5e bc 3d
       0.07925618 0.12238854 0.10882552 0.09197742
0003f0 22 b4 f8 3d c4 db 46 3d de 45 ac bd 00 3c 14 bb
       0.121437326 0.04854943 -0.084117636 -0.002261877

layers.4.bias f4 [64]
000000 00 2a 6e 3c fe de e9 3d d0 d7 53 3d 20 8a f7 3d
       0.014536381 0.114194855 0.051719487 0.12086892
000010 10 8f ac 3c 00 9c 38 3a a4 35 c6 3d 74 ab d7 3d
       0.021064311 0.0007042289 0.096782 0.10530749
000020 1a 7c 8b 3d 44 72 54 bd 42 d1 86 bd 74 be 10 bd
       0.0681078 -0.051866785 -0.065828815 -0.03533788
000030 50 a8 22 bc 20 fe a2 bd 5a 94 c8 3d 3e 48 91 bd
       -0.009927824 -0.07958627 0.09793921 -0.07093857
000040 a0 07 26 3d 98 5e ed bc 10 7a ff bc 9e a1 f3 3d
       0.040534616 -0.02897577 -0.031186134 0.118960604
000050 78 71 e7 3d 48 d8 7a 3d f6 78 f1 3d 9c f7 09 bd
       0.11300939 0.061241418 0.117906496 -0.033683404
000060 1c 88 9f 3d a0 ce 20 3c 80 00 25 3c 50 b2 c1 3c
       0.07789633 0.009814888 0.01007092 0.023644596
000070 90 d6 b1 3c 06 58 f8 3d 90 5d e5 3c 34 e5 2f 3d
       0.021708757 0.12126164 0.027998716 0.042943195
000080 a8 e9 d8 bc f0 74 fc 3d b0 7a 74 bd 2e dd f2 3d
       -0.026478603 0.123269916 -0.059687316 0.11858593
000090 e0 3f 79 bc ac 9a 45 bd 00 66 c0 b9 b8 81 b9 3d
       -0.015212983 -0.04824321 -0.0003669709 0.09057945
0000a0 e0 eb 2c bc a4 f6 e6 3d 10 68 e7 3c e0 dd 58 bc
       -0.010554284 0.11277512 0.028247863 -0.013236493
0000b0 4c 48 c3 3d ec ae fe bd 92 32 d3 3d 98 59 78 bd
       0.09535274 -0.124357074 0.1031238 -0.06063232
0000c0 64 c8 de bd a0 1f bd bb f8 a3 fe bd 20 9b 92 bd
       -0.10878065 -0.0057715923 -0.12433618 -0.07158494
0000d0 98 13 a5 3c 18 3f 23 bd 3c d0 1d 3d 7c 87 ed 3d
       0.020150945 -0.039855093 0.038528666 0.11598107
0000e0 a0 51 88 3d 9c 80 82 bd fe 80 d6 3d 1e 7a 8c bd
       0.06656194 -0.063721865 0.10473822 -0.068592295
0000f0 20 1c fb bb f8 4a ad 3d d8 b4 a5 bc 5a a3 f7 bd
       -0.007663265 0.08461565 -0.020227835 -0.12091704
